model/phased_cDNA_nanopore_R104_HG002.pth (torch, 891226 bytes, 34 tensors)

combined_conv1.weight f4 [64, 5, 4, 3]
0	0xbde1637e	-0.11005305
1	0x3d9be1ca	0.07611425
2	0xbeb36f5c	-0.35045898
3	0x3d8df5c1	0.069316395
4	0x3cc783a9	0.024354773
5	0x3de800ef	0.11328303
6	0xbe1c19c8	-0.1524421
7	0xbcf73649	-0.030177252
8	0xbec7213a	-0.38892537
9	0x3d756039	0.05990622
10	0x3c895b26	0.016767096
11	0xbe0f0f2b	-0.1397063
12	0xbb249e69	-0.0025118834
13	0xbc9fe89c	-0.019520096
14	0xbbba3490	-0.0056825355
15	0xbcd6dd25	-0.026228497
16	0xbbf40544	-0.007446917
17	0x3d12caf1	0.03583807
18	0x3ab38090	0.0013694931
19	0xbe9cfbdf	-0.30660912
20	0xbf0c7ab2	-0.5487472
21	0x3bb3bcf8	0.0054851733
22	0x3b56302a	0.0032682517
23	0x3d173ee6	0.03692522
24	0xbd8f7e89	-0.070065565
25	0x3d26bc02	0.040706642
26	0x3dab56e0	0.083661795
27	0xbd8c92e9	-0.068639584
28	0x3bf259d4	0.0073959623
29	0x3dc3242a	0.09528382
30	0xbe0c91f7	-0.13727556
31	0x3c827f9c	0.01592999
32	0xbe629908	-0.2212869
33	0xbdc2ecbd	-0.095178105
34	0x3d01c0cc	0.031678006
35	0x3d5a93ee	0.053363733
36	0x3c373f7b	0.0111845685
37	0xbeaffc06	-0.34371966
38	0x3e888ae8	0.26668477
39	0xbd11845a	-0.03552661
40	0x3cb3bc75	0.02194045
41	0xbdc1317f	-0.09433269
42	0x3d91f996	0.07127683
43	0xbe7bf7f8	-0.24606311
44	0x3dc776b5	0.097394384
45	0x3ca19b8a	0.019727487
46	0x3dd5bf58	0.104368865
47	0x3d464ea3	0.048414838
48	0xbd9adaa9	-0.07561237
49	0xbec60b84	-0.3868066
50	0xbee07ba3	-0.43844327
51	0x3d24b834	0.040214732
52	0x3d818d80	0.06325817
53	0xbda11314	-0.07864967
54	0xbe7c6018	-0.24646032
55	0xbe643829	-0.22287048
56	0xbcb3308e	-0.021873739
57	0xbca316a4	-0.019908257
58	0x3db58da9	0.0886491
59	0xbcd51e54	-0.026015438
60	0x3cbca7fd	0.023029322
61	0xbecfbd36	-0.40574044
62	0x3ccf9adb	0.025342396
63	0xbd6062cf	-0.05478173
64	0x3c94c768	0.01816149
65	0xbd98be97	-0.07458227
66	0xbdd402b9	-0.10352082
67	0x3a685af7	0.00088636525
68	0xbcdf9656	-0.027293365
69	0xbea8bc92	-0.32956368
70	0x3e0f87b4	0.1401661
71	0x3bfbe837	0.0076875943
72	0x3c3ef2b2	0.011654543
73	0x3e36132f	0.17780755
74	0xbd10d532	-0.03535957
75	0xbcaa2eee	-0.020774331
76	0xbd357afd	-0.044306744
77	0xbe56fc92	-0.20994785
78	0x3d9ac653	0.075573586
79	0x3d66c02d	0.056335617
80	0xbd1d21b2	-0.038362212
81	0xbd02b686	-0.03191235
82	0x3d4baf5d	0.049727786
83	0xbd448944	-0.04798247
84	0x3d39bebe	0.04534792
85	0x3d2b3489	0.04179815
86	0xbc8b76fc	-0.01702451
87	0x3d6f641f	0.058445092
88	0xbde12728	-0.109937966
89	0xbdd44e90	-0.10366547
90	0x3bbf5936	0.005839492
91	0xbc1a4f28	-0.009418286
92	0xbd2b3580	-0.04179907
93	0x3e1388bb	0.14407627
94	0x3ce10c39	0.027471649
95	0xbd59d8ef	-0.0531854
96	0xbdbc4396	-0.091925785
97	0xbe22f05f	-0.15912007
98	0xbd535aaf	-0.051600154
99	0x3cd565e7	0.026049567
100	0xbf96c13a	-1.1777718
101	0xbf83a8bc	-1.0285869
102	0xbf06c3cd	-0.5264252
103	0x3d863c95	0.06554524
104	0xbcbd8396	-0.023134034
105	0xbe6e989f	-0.23300408
106	0xbcb143ad	-0.021638716
107	0x3d39e764	0.045386687
108	0xbd116b8b	-0.03550295
109	0xbed8b766	-0.42327422
110	0xbda87529	-0.082254715
111	0x3d70b841	0.05876947
112	0xbf2ccf2a	-0.6750361
113	0xbf5b7b36	-0.8573488
114	0xbf19884c	-0.599736
115	0x3da93164	0.08261374
116	0xbd6a16ca	-0.05715064
117	0xbe6c852e	-0.23097679
118	0xbbb3d3be	-0.005487888
119	0x3b207d5b	0.002448878
120	0xbb979db6	-0.004626955
121	0xbf0912c2	-0.5354425
122	0x3be2d0fb	0.006921885
123	0xbc41ed18	-0.011836313
124	0x3e27f9dd	0.16403909
125	0xbee54b72	-0.44784123
126	0xbd203746	-0.039115213
127	0x3c09494c	0.008379292
128	0xbdc2c9b1	-0.09511126
129	0xbf0e12fa	-0.55497706
130	0xbd836358	-0.06415433
131	0xbd888015	-0.06665055
132	0xbd32821b	-0.04358111
133	0x3f029c60	0.5101986
134	0xbcd14005	-0.025543222
135	0x3b250af4	0.002518353
136	0xbd093c91	-0.033505026
137	0x3eb8f9f4	0.361282
138	0x3d26680a	0.040626563
139	0x3d2da9ee	0.042398386
140	0x3ce0ebc6	0.027456176
141	0x3effc399	0.49953917
142	0x3cd9647d	0.026537174
143	0xbb1d9076	-0.0024042404
144	0xbd0ad6a3	-0.0338961
145	0xbd1dfbd0	-0.038570225
146	0x3d0282ed	0.03186314
147	0x3c4a248a	0.012337813
148	0xbdc08db9	-0.094020315
149	0x3e3958d1	0.18100287
150	0xbd09c9ef	-0.033639845
151	0xbd3cd45f	-0.04610097
152	0x3d63ae54	0.055586174
153	0xbc0cb5b8	-0.008588247
154	0xbef67f98	-0.4814422
155	0xbe85474b	-0.26030955
156	0xbbd6f51a	-0.00655998
157	0xbd236028	-0.039886624
158	0x3b9a280d	0.0047044815
159	0xba641727	-0.000870096
160	0xbc6c7fbe	-0.014434753
161	0xbd8585dd	-0.06519673
162	0xbc829989	-0.015942352
163	0x3cccccbc	0.024999969
164	0x3d01a4e7	0.031651404
165	0xbd8b46d8	-0.06800622
166	0x3e187748	0.14889252
167	0x3c2d2b18	0.010569356
168	0xbca8cf56	-0.020606678
169	0x3dabe159	0.08392591
170	0xbcd31ed9	-0.025771545
171	0xbc566cea	-0.013087491
172	0x3c1ff03c	0.009761866
173	0xbd971d81	-0.07378674
174	0xbd28fd7b	-0.041257363
175	0xbc03cd03	-0.008044484
176	0x3d065c9a	0.032803155
177	0x3c1f93fe	0.009739874
178	0xbd6b512e	-0.057450466
179	0xbbefb75a	-0.0073155584
180	0xbd57b728	-0.052664906
181	0xbdb0f3f8	-0.08640283
182	0xbbed4c88	-0.0072417893
183	0xbc1c669c	-0.009545948
184	0x3d6803ba	0.05664418
185	0xbb765e3b	-0.0037592787
186	0xbdc3ba6b	-0.09557041
187	0xbe145e22	-0.14489034
188	0xbe4749b0	-0.19461703
189	0xbc84e043	-0.016220218
190	0xbdc47bb2	-0.095939055
191	0x3db07e6c	0.08617863
192	0x3c89bd0c	0.016813777
193	0xbd73b4ac	-0.059498474
194	0xb9a3649d	-0.00031164745
195	0x3c0b40b5	0.008499314
196	0xbd39c451	-0.045353238
197	0x3b6920e1	0.0035572576
198	0x3d8d33cd	0.06894646
199	0xbd6b1488	-0.057392627
200	0x3e1785ec	0.14797181
201	0x3d0c594d	0.03426485
202	0xbc87f8f4	-0.016598202
203	0x3cfdf785	0.031001816
204	0xbd5980a6	-0.053101204
205	0x3ba8a504	0.0051466245
206	0x3ceefa9f	0.02917224
207	0xbcb3611c	-0.021896891
208	0xbc439d25	-0.011939322
209	0xbcd03ca2	-0.025419537
210	0xbcd2c2ce	-0.025727656
211	0x3b7e0531	0.0038760419
212	0x3abb066f	0.0014268885
213	0xbc05a7d5	-0.00815769
214	0x3d2830ae	0.04106205
215	0x3b3f839a	0.0029222728
216	0xbd88d950	-0.06682074
217	0x3da6bc64	0.081414014
218	0x3e244363	0.16041331
219	0x3c7f6535	0.0155880945
220	0xbd307eba	-0.043089606
221	0xbf90a7e0	-1.1301231
222	0xbcb1bd3c	-0.02169668
223	0x3e29e6bf	0.16591929
224	0xbe65e413	-0.22450285
225	0x3da714c9	0.08158261
226	0xbe0f9e67	-0.1402527
227	0x3da9b2b8	0.08286041
228	0xbd157d3d	-0.03649639
229	0x3da3c097	0.07995718
230	0xbd785507	-0.060627963
231	0x3cffc6c4	0.031222709
232	0xbcab1775	-0.020885209
233	0xbf9491f7	-1.1607045
234	0xbd9623ab	-0.07331022
235	0x3d39c88c	0.045357272
236	0xbf20ef4c	-0.6286514
237	0x3c963fb5	0.018340925
238	0xbe35bc0e	-0.17747518
239	0x3db42f20	0.08798051
240	0xbd720c06	-0.059093498
241	0x3cc299ae	0.02375492
242	0xbed55731	-0.41668084
243	0x3e1790f5	0.1480139
244	0x3cb52deb	0.022116622
245	0x3e1ae09f	0.15124749
246	0xbebcf334	-0.369043
247	0x3e14cd74	0.14531499
248	0x3d007fd4	0.031371906
249	0x3d031c77	0.032009568
250	0xbeb8c822	-0.3609019
251	0x3e1606a5	0.14650972
252	0xbd976e10	-0.0739404
253	0xbcd3f20f	-0.025872258
254	0xbc198008	-0.009368904
255	0x3cab1159	0.020882295

combined_conv1.bias f4 [64]
0	0xbd94a29c	-0.07257578
1	0x3c9bc587	0.019015087
2	0xbca04221	-0.019562783
3	0xbdd2cb86	-0.10292725
4	0xbd6bdacd	-0.05758171
5	0xbdec1924	-0.11528233
6	0xbdac57f8	-0.08415216
7	0xbdc8b08d	-0.097992994
8	0xbdd99523	-0.10624149
9	0xbe42d9bc	-0.19028372
10	0xbaba69ff	-0.0014222263
11	0xbdc91d1d	-0.09820006
12	0xbe1279ba	-0.14304247
13	0xbd61a127	-0.055085327
14	0x3c117f1e	0.008880405
15	0xbdefa12f	-0.11700665
16	0xbd9fedf1	-0.078090556
17	0xbe1b20b9	-0.15149201
18	0xbd28df46	-0.041228555
19	0xbde2124b	-0.11038645
20	0xbda015ce	-0.07816659
21	0xbd365ddd	-0.04452311
22	0xbbdfa042	-0.006824524
23	0xbd5dbbdd	-0.05413424
24	0xbc8eb50d	-0.017420316
25	0xbd9ebc21	-0.077507265
26	0xbdf342f8	-0.11878008
27	0xbe005a0f	-0.12534355
28	0xbe280fdf	-0.16412304
29	0xbe17f106	-0.14838037
30	0xbe326f17	-0.1742519
31	0xbe096bd0	-0.13420033
32	0xbe1e482b	-0.15457217
33	0xbdef616f	-0.11688506
34	0xbda791d3	-0.08182111
35	0xbddc0b93	-0.10744395
36	0xbcfb10a1	-0.030647578
37	0x3a76c0df	0.00094128953
38	0x3d44ce4b	0.0480483
39	0xbdc31f58	-0.09527463
40	0xbd59d11f	-0.05317795
41	0xbe33b814	-0.17550689
42	0xbdbabe89	-0.09118373
43	0x3c2e148f	0.010625019
44	0xbe06689a	-0.1312584
45	0x3d22c941	0.039742712
46	0xbdc91ac6	-0.0981956
47	0x3b4dbe4d	0.0031393946
48	0xbe0a056f	-0.13478635
49	0xbdabe036	-0.08392374
50	0xbcaa2c4d	-0.020773077
51	0xbe10d72a	-0.14144579
52	0x3cf9638e	0.03044298
53	0x3d014040	0.031555414
54	0x3c45e317	0.012078068
55	0xbd5e3e3d	-0.054258574
56	0xbd4b87c3	-0.04969002
57	0xbda02489	-0.078194685
58	0x3b8c02db	0.0042728013
59	0x3cf34431	0.029695602
60	0x3ca001b7	0.019532068
61	0xbd70a5e2	-0.05875195
62	0xbd953776	-0.07285969
63	0xbd898bb2	-0.06716098

combined_conv2.weight f4 [64, 64, 1, 3]
0	0xbe02455e	-0.12721774
1	0x3d886e98	0.06661719
2	0xbbfcad17	-0.0077110636
3	0x3b1a1bc7	0.0023515092
4	0x3d6e8fe6	0.0582427
5	0xbcad690c	-0.021168254
6	0xbeb42978	-0.35187888
7	0xbe0333c9	-0.12812723
8	0xbdff4079	-0.12463469
9	0x3c092f5e	0.00837311
10	0xbc95e8a6	-0.018299412
11	0x3d0dbfed	0.034606863
12	0xbe627c33	-0.2211769
13	0xbda7beb7	-0.08190673
14	0x3d11f74f	0.035636242
15	0x3dbac663	0.091198705
16	0x3e59bb29	0.21262802
17	0x3e22039d	0.15821691
18	0xbb283ca4	-0.002567091
19	0xbe1cae70	-0.15300918
20	0xbda3498c	-0.07973012
21	0xbd7ad491	-0.061237875
22	0xbcb25326	-0.021768164
23	0xbe864f29	-0.2623227
24	0x3da433bc	0.0801768
25	0xbd94d9b6	-0.072680876
26	0xbd565459	-0.052326534
27	0x3d261f20	0.040557027
28	0xbd1e8cad	-0.038708378
29	0x3bc63291	0.0060485085
30	0xbcd37d60	-0.02581662
31	0xbe20007c	-0.15625185
32	0xbcf8041e	-0.0302754
33	0xbe34daa4	-0.1766153
34	0xbe5fcb33	-0.21854858
35	0xbe79f029	-0.2440802
36	0x3d4b8ea9	0.0496966
37	0x3c363d64	0.011123035
38	0xbc2cb7cc	-0.010541867
39	0x3d81e3f2	0.06342305
40	0xbdb9b5ae	-0.09067856
41	0x3b2c2ca6	0.002627173
42	0x3d2ee29f	0.04269659
43	0x3e162fc1	0.14666654
44	0x3d88932c	0.06668696
45	0x3c91a6fe	0.017779823
46	0x3d9c5ddb	0.07635089
47	0x3d36c754	0.044623688
48	0xbe2a7bef	-0.1664884
49	0xbb1af2de	-0.0023643295
50	0x3cb72628	0.022357062
51	0xbd34d17b	-0.04414509
52	0x3d1c4221	0.038149003
53	0x3d77cd8e	0.060498767
54	0x3c9ef3af	0.019403307
55	0xbd7f91c9	-0.06239489
56	0x3da18f0f	0.078886144
57	0x3dcbf967	0.09959679
58	0x3e121494	0.14265662
59	0x3e34e22a	0.176644
60	0xbc2f57ad	-0.010702056
61	0x3de34911	0.11097921
62	0xbe1c4970	-0.15262389
63	0xbdd4ffe5	-0.104003705
64	0xbcbbb935	-0.022915462
65	0xbd749769	-0.05971471
66	0x3c0527a1	0.008127124
67	0x3dada1aa	0.084781006
68	0xbd3ec214	-0.046571806
69	0x3d48b842	0.049003847
70	0xbaae9ea0	-0.001332242
71	0x3dae121d	0.084995486
72	0xbd365dbf	-0.044522997
73	0x3e63ffda	0.22265568
74	0x3dbf3352	0.093359604
75	0xbdee4d35	-0.1163582
76	0x3d067767	0.032828715
77	0x3cb60c3b	0.022222629
78	0xbdaba257	-0.08380573
79	0xbcd929b6	-0.026509147
80	0xbd9760c1	-0.07391501
81	0xbd0898db	-0.0333489
82	0xbe4bbf9b	-0.1989731
83	0x3d57a4e3	0.052647483
84	0x3c56bbfe	0.013106344
85	0xbce539b5	-0.027981618
86	0x3e017ef9	0.12646092
87	0xbd41f020	-0.04734814
88	0xbcde7746	-0.027156483
89	0x3e08cc29	0.13359131
90	0xbca7d86e	-0.020488944
91	0x3d45b177	0.048264947
92	0x3d0d27e3	0.034461867
93	0xbc8d85b9	-0.017275678
94	0x3d4be224	0.04977621
95	0xbc918ac6	-0.017766368
96	0x3d4db0bb	0.05021737
97	0x3e6f4b80	0.23368645
98	0x3e72ed47	0.23723327
99	0x3b564f53	0.003270109
100	0xbc86b0d7	-0.016441746
101	0x3cbd7f41	0.023131968
102	0x3dc67fab	0.096923195
103	0xbc3782bc	-0.011200603
104	0x3c4045c6	0.011735385
105	0xbd48576b	-0.048911493
106	0xbe6f721c	-0.23383373
107	0xbe593766	-0.21212539
108	0xbe6409b3	-0.22269325
109	0xbc945808	-0.018108383
110	0xbd9a2dad	-0.07528243
111	0x3d1a86aa	0.037726082
112	0x3d9955b4	0.0748705
113	0x3ce3fb39	0.027829753
114	0x3db73829	0.089462586
115	0x3d29641d	0.04135524
116	0xbb301b32	-0.0026871678
117	0xbc974ed6	-0.01847021
118	0xbd96a08f	-0.07354843
119	0x3c933317	0.017968697
120	0x3d41d1ed	0.04731934
121	0x3df92a2c	0.12166247
122	0xbe4ca543	-0.19984917
123	0x3c3483cf	0.011017754
124	0xbbe72191	-0.007053562
125	0xbdb7e73b	-0.089796506
126	0x3d401335	0.046893317
127	0xbe3b6d3c	-0.18303388
128	0xbc3e330a	-0.011608848
129	0xbea428d4	-0.320624
130	0xbd628a0f	-0.055307444
131	0xbc020eaf	-0.007938071
132	0x3c002001	0.00782013
133	0xbd84a2ca	-0.06476362
134	0xbdf9d8d1	-0.121995576
135	0xbce6f2c6	-0.028191935
136	0xbe846e48	-0.25865388
137	0x3cc8293a	0.02443372
138	0x3db9f91c	0.09080717
139	0x3e0798f3	0.13241939
140	0xbd284735	-0.041083533
141	0xbcc8187b	-0.024425736
142	0x3d9094f3	0.0705966
143	0xbe040ca7	-0.12895451
144	0x3db77a10	0.089588284
145	0x3d6d2cdb	0.057904106
146	0xbed312e8	-0.41225362
147	0xbc4f50b9	-0.012653523
148	0x3d065208	0.032793075
149	0x3b992f5d	0.0046748356
150	0x3e0e0cf6	0.13872132
151	0xbde53b72	-0.11192979
152	0x3e185641	0.14876653
153	0xbdd0af16	-0.10189645
154	0x3c036690	0.008020058
155	0xbbacdce4	-0.0052753557
156	0xbd2da686	-0.042395137
157	0xbd7c1443	-0.06154276
158	0x3cca9b9f	0.024732409
159	0x3c3fc564	0.011704776
160	0x3c45415e	0.0120395105
161	0xbd2643ba	-0.040591933
162	0x3d88806d	0.0666512
163	0xbe6c5bda	-0.23081914
164	0x3bc6ca5c	0.0060666036
165	0xbd902b6a	-0.070395306
166	0x3b80190f	0.003909237
167	0x3d78dc45	0.06075694
168	0x3c0b36f7	0.008496991
169	0xbd68cafb	-0.056834202
170	0xbaaa999f	-0.0013015753
171	0x3d46fd06	0.048581146
172	0xbd08d09f	-0.03340208
173	0xbd287b81	-0.041133408
174	0x3daf0f53	0.08547845
175	0xbdd8b8ab	-0.105820976
176	0xbd28c53a	-0.041203715
177	0x3dd8421b	0.105594836
178	0x3e2d9c8a	0.16954246
179	0xbca0d17a	-0.019631136
180	0x3d6f9b2a	0.058497585
181	0xbe4d6a59	-0.200601
182	0x3d7831b2	0.06059427
183	0x3c25bf82	0.01011646
184	0x3e481feb	0.19543426
185	0xbd5fd24b	-0.05464391
186	0x3db40906	0.087907836
187	0xbd949ee4	-0.072568685
188	0x3cd02331	0.025407406
189	0xbcf0ac02	-0.029378895
190	0x3cdfed9a	0.027334977
191	0x3d1ba4dc	0.03799902
192	0x3e29ffb9	0.16601457
193	0x3cbeaed7	0.02327673
194	0x3d055731	0.032553855
195	0xbd9cb808	-0.07652289
196	0xbf158c52	-0.58417237
197	0xbd88d4ec	-0.066812366
198	0x3c09f911	0.008421198
199	0xbc8c49dd	-0.017125065
200	0x3cb36b79	0.021901833
201	0xbe4ae81a	-0.19815102
202	0xbe7536c0	-0.23946667
203	0xbd89bce4	-0.06725481
204	0xbf1a5111	-0.6027995
205	0xbf60b7a8	-0.8778024
206	0xbe7b7205	-0.24555214
207	0x3e06759f	0.13130806
208	0xbcba9a48	-0.022778645
209	0xbe8d89d1	-0.27644208
210	0x3e12ab49	0.14323153
211	0x3cb22b42	0.021749143
212	0x3d3e94d5	0.046528656
213	0x3e08dcd7	0.13365494
214	0xb9e878cf	-0.00044340498
215	0x3d45c8ba	0.04828713
216	0xbcfc24f4	-0.03077934
217	0xbd12bf65	-0.03582706
218	0x3e344c9a	0.17607346
219	0x3dbd1d16	0.09234063
220	0xbefc2df4	-0.4925381
221	0xbf0a017a	-0.53908503
222	0x3d5f1bf2	0.05447001
223	0xbd6a32c0	-0.057177305
224	0x3d5e5b01	0.054286007
225	0xbe682d2d	-0.22673483
226	0xbedab781	-0.42718127
227	0xbec21f88	-0.3791468
228	0x3e59ecfc	0.21281809
229	0x3a4f5d41	0.0007910319
230	0x3d8f2f93	0.06991496
231	0x3e100e2f	0.1406791
232	0x3cf311fe	0.029671665
233	0x3dd44975	0.10365573
234	0x3b932ba4	0.0044912864
235	0x3ca1119f	0.019661723
236	0x3d1e5f45	0.038665075
237	0xbc4a6134	-0.012352277
238	0xbd16466a	-0.036688246
239	0x3dbcb8bf	0.09214925
240	0xbe03f426	-0.12886104
241	0xbe6d66c4	-0.23183733
242	0xbe2a6428	-0.16639769
243	0xbc5f7e73	-0.013640988
244	0xbd66f42e	-0.05638521
245	0xbdcc1522	-0.09964968
246	0x3d23840d	0.039920855
247	0xbc0559ff	-0.0081391325
248	0x3bcf0c28	0.006318588
249	0xbea4a73b	-0.32158837
250	0x3d9e60fd	0.07733343
251	0xbf3ca209	-0.73684746
252	0xbc923e2c	-0.017851911
253	0xbdc16139	-0.09442372
254	0xbe0418d6	-0.12900099
255	0x3db02468	0.08600694

combined_conv2.bias f4 [64]
0	0xbd19f968	-0.037591368
1	0x3d2fb031	0.04289264
2	0xbbe6c816	-0.007042895
3	0xbbbd31c9	-0.005773757
4	0x3c2fb9b2	0.010725426
5	0xbbdf0aee	-0.006806723
6	0xbc007e69	-0.0078426385
7	0xbd9a2978	-0.07527441
8	0xbbdeb389	-0.0067963046
9	0xbca4019d	-0.0200203
10	0xbab12992	-0.0013516417
11	0xbd059403	-0.032611858
12	0x3bebc9a2	0.0071956674
13	0xbbed058f	-0.0072333287
14	0xbc81c17d	-0.015839333
15	0xbb4cb5bd	-0.0031236254
16	0x3b77dbc7	0.0037820206
17	0xbd0618c8	-0.032738477
18	0xbd4eda21	-0.050500993
19	0xbc1fb6f6	-0.009748211
20	0xbb5e2138	-0.0033894312
21	0x3ce9dc8b	0.028547546
22	0x3d34ffe0	0.044189334
23	0x3c46344f	0.012097432
24	0xba099564	-0.0005248396
25	0x3c80102e	0.015632715
26	0x3bd76e94	0.0065744612
27	0xbc945906	-0.018108856
28	0xbc1ba4a4	-0.009499703
29	0xbcbb93e4	-0.022897668
30	0xbdbab72a	-0.09116967
31	0xbcaf07d2	-0.021366034
32	0xbc40814a	-0.011749575
33	0x3c9cafcd	0.019126797
34	0x3cafc700	0.021457195
35	0x3b1783ad	0.0023119256
36	0xbc758270	-0.014984712
37	0xbd652036	-0.055938922
38	0xbb4610fd	-0.0030222528
39	0x3c86fab4	0.016476966
40	0x3d9bc87d	0.076065995
41	0xbb54629b	-0.0032407406
42	0xbd73a3b3	-0.059482288
43	0xbc93b626	-0.018031191
44	0xbd9217b2	-0.07133426
45	0x3b620f14	0.003449385
46	0xba387308	-0.0007036184
47	0xbb01400d	-0.0019722015
48	0xbba23620	-0.0049503
49	0xbd101319	-0.035174463
50	0xbbb34c81	-0.0054717665
51	0x3c4ebe02	0.012618544
52	0x3af88f0f	0.0018963533
53	0xbcb0fcdb	-0.021604946
54	0xbd325285	-0.043535728
55	0xbb63a79c	-0.0034737354
56	0xbd096ffc	-0.033554062
57	0xbce471be	-0.027886268
58	0xbd0ca4ba	-0.034336783
59	0xbd358144	-0.04431273
60	0xb9817569	-0.00024692275
61	0xbd42b821	-0.04753888
62	0xbcd13428	-0.025537565
63	0x3c6cb220	0.014446765

snv_conv1.weight f4 [8, 4, 3, 1]
0	0xbe808ed9	-0.25108984
1	0x3ebdfc81	0.37106708
2	0x3e5f94d9	0.21834125
3	0xbe734866	-0.23758087
4	0x3ed5525b	0.41664395
5	0x3c2acfa6	0.010425484
6	0xbe2ce9a7	-0.16886006
7	0x3e0f9a1f	0.14023636
8	0xbf4973fd	-0.7869261
9	0xbdd09ece	-0.101865396
10	0x3dc7d882	0.097580925
11	0x3e1bf490	0.15230012
12	0xbeb49581	-0.35270312
13	0x3cad6b2b	0.021169266
14	0xbec014fd	-0.37516013
15	0xbe8dcc10	-0.2769475
16	0x3e4773dd	0.19477792
17	0xbe3af789	-0.1825849
18	0x3efa4b50	0.48885584
19	0xbe5fdf7f	-0.218626
20	0xbf87fe82	-1.0624545
21	0x3ebfc02f	0.37451312
22	0xbe5d2828	-0.2159735
23	0x3e585601	0.21126558
24	0xbf244889	-0.6417318
25	0xbc44181b	-0.011968638
26	0xbe0532ce	-0.13007662
27	0xbe17faa1	-0.14841701
28	0xbd259126	-0.040421627
29	0x3d757110	0.059922278
30	0xc00f87fb	-2.2426746
31	0xbe28dca8	-0.16490424
32	0xbe3414a3	-0.17585997
33	0xbfac2678	-1.344924
34	0x3e74661b	0.23867075
35	0xbd9cdf3d	-0.07659767
36	0x3d0c7eb2	0.034300514
37	0x3ccada38	0.024762258
38	0xbe8b25ba	-0.2717722
39	0x3d76f8d2	0.060295887
40	0x3c4c870d	0.0124833705
41	0xbe17b659	-0.14815654
42	0xba563939	-0.0008171979
43	0x3e952e99	0.29137114
44	0x3eabe51b	0.3357323
45	0x3e74eb5e	0.2391791
46	0xbd38a09d	-0.045075048
47	0x3ea70459	0.32620504
48	0x3ebb4eb0	0.3658347
49	0xbdde03d5	-0.10840575
50	0x3e2dd100	0.16974258
51	0x3e91435d	0.28371707
52	0xbe376b8c	-0.1791212
53	0x3dff7a0f	0.12474453
54	0xbe62ada4	-0.22136551
55	0x3e9075d9	0.2821491
56	0xbd60ecf1	-0.054913465
57	0xbe8bd3d3	-0.27310047
58	0x3e8f6a4c	0.28010786
59	0xbe45f5a2	-0.19331983
60	0xbecabb9d	-0.39596263
61	0xbe202536	-0.15639195
62	0x3ec1ef9f	0.3787813
63	0xbf8bbc98	-1.0916929
64	0xbe3beb24	-0.18351418
65	0x3e9fa62c	0.31181467
66	0xbf6ce923	-0.9254324
67	0x3ed3e67a	0.41386777
68	0x3bfd51df	0.007730707
69	0xbf7a3ec0	-0.97752
70	0x3e963469	0.2933686
71	0xbee8b75f	-0.454524
72	0x3d785502	0.060627945
73	0xbb4bf95b	-0.003112397
74	0x3ec9e307	0.3943102
75	0x3cbe923d	0.023263091
76	0x3d9126c4	0.07087472
77	0x3ea13df0	0.31492567
78	0x3ea7d2ca	0.32778007
79	0xbb9c00a5	-0.004760819
80	0x3e93f88d	0.28900567
81	0xbe91d0b3	-0.28479537
82	0x3e5f1f94	0.2178939
83	0xbdc09526	-0.09403448
84	0xbd46c5ef	-0.048528608
85	0x3d3e5c07	0.046474483
86	0x3d449232	0.047990985
87	0xbd0bdc02	-0.034145363
88	0xbeaa4bf0	-0.3326106
89	0xbecf1456	-0.40445203
90	0x3e2555a7	0.16145955
91	0x3ecd2092	0.40063912
92	0xbe84eb69	-0.25960854
93	0xbe5ff188	-0.2186948
94	0xbf12b9c2	-0.57314694
95	0xbe0107d2	-0.1260064

snv_conv1.bias f4 [8]
0	0x3db489bc	0.08815333
1	0xbcde9d62	-0.027174655
2	0xbb96f657	-0.0046070027
3	0xbe6e7d90	-0.23290086
4	0xbc920463	-0.017824357
5	0xbd9197f9	-0.071090646
6	0xbd405bf2	-0.046962686
7	0xbb7561fa	-0.0037442432

snv_fc1.weight f4 [20, 8]
0	0xbde34a6c	-0.11098179
1	0xbe663838	-0.22482383
2	0x3ea21ead	0.3166403
3	0x3f6241ec	0.8838184
4	0xbe9afaae	-0.30269378
5	0x3e54af2f	0.20769952
6	0x3f2162d3	0.6304142
7	0x3d241b77	0.040065255
8	0xbec886c8	-0.3916533
9	0x3eaacce6	0.3335945
10	0x3ef5db6e	0.48018974
11	0xbf27dd68	-0.65572214
12	0x3e4762f3	0.1947134
13	0x3e91e486	0.28494662
14	0xbeeb6bf8	-0.4598081
15	0x3f526e1a	0.8219925
16	0xbd32615b	-0.043549877
17	0xbc92af1f	-0.01790577
18	0x3c576911	0.013147608
19	0xbe42a065	-0.19006498
20	0x3e81ff4e	0.25390095
21	0x3f25de24	0.64792085
22	0xbe8a7f75	-0.27050367
23	0x3d018635	0.03162213
24	0xbe71063f	-0.23537539
25	0x3d6d5593	0.057942938
26	0xbe96b263	-0.29432973
27	0xbe83b530	-0.25724173
28	0x3db34373	0.08753099
29	0xbe39d9a2	-0.18149427
30	0x3e28f783	0.16500668
31	0xbea4860f	-0.3213353
32	0x3eb8aeee	0.3607096
33	0xbe53c46f	-0.20680402
34	0x3b40d7bb	0.002942546
35	0xbe847a01	-0.25874332
36	0x3b42287a	0.0029626177
37	0x3e09f3ce	0.1347191
38	0x3dfbaa57	0.12288349
39	0xbe8c8dad	-0.2745184
40	0xbe51d101	-0.20489885
41	0x3f3ca439	0.73688084
42	0x3e86a454	0.26297247
43	0x3ec17a56	0.37788647
44	0xbd20f191	-0.039292876
45	0x3eea9782	0.45818716
46	0x3e9af97d	0.3026847
47	0xbed29888	-0.41131997
48	0x3e6c22e6	0.23060188
49	0xbeb8f3be	-0.3612346
50	0x3ca9faa1	0.020749392
51	0x3ef77462	0.4833098
52	0x3de73b24	0.11290577
53	0xbdf982c4	-0.12183145
54	0x3ea97777	0.33098957
55	0xbff45755	-1.9089152
56	0xbeabcce0	-0.33554745
57	0x3eb8c6b1	0.3608909
58	0xbe244e2b	-0.16045444
59	0x3eb90a25	0.36140552
60	0x3ec42b35	0.38314214
61	0x3d5a7018	0.053329557
62	0xbdff0186	-0.124514624
63	0xbe81baf7	-0.25337955
64	0x3eb40c59	0.3516567
65	0xbec6493d	-0.3872775
66	0xbc437468	-0.011929609
67	0x3ef53c27	0.47897455
68	0xba62dce8	-0.00086541334
69	0x3d99143b	0.07474562
70	0x3e76266c	0.24038094
71	0xbd9a7b20	-0.075430155
72	0xbe23272e	-0.15932915
73	0xbf47331e	-0.77812374
74	0x3dd69849	0.10478265
75	0xbc202dd2	-0.009776549
76	0x3ea43c51	0.32077268
77	0x3e307def	0.1723554
78	0x3ec6df83	0.388424
79	0x3eb35b06	0.35030383
80	0x3de5b71c	0.11216566
81	0xbe613994	-0.2199462
82	0x3f09ee09	0.5387884
83	0xbe37f0bb	-0.17962925
84	0x3e280a63	0.16410212
85	0xbde1105f	-0.10989451
86	0x3ed4835d	0.41506472
87	0x3dad55a7	0.084636025
88	0x3c8077c6	0.015682112
89	0xbd41235d	-0.047152866
90	0xbf05e843	-0.5230753
91	0x3d37c344	0.044863954
92	0x3edde6b7	0.43340084
93	0xbd9e96a3	-0.077435754
94	0xbc8edf1a	-0.017440367
95	0xbe8e9e1e	-0.2785501
96	0x3e3f7e38	0.18700492
97	0xbd3dfc31	-0.046383087
98	0x3e6bad61	0.23015358
99	0x3ef9623e	0.48707765
100	0x3ec8fa15	0.39253297
101	0xbd9949cf	-0.07484781
102	0x3ea9146d	0.33023396
103	0x3eb84d7c	0.35996616
104	0x3ee7d5a5	0.45280185
105	0x3d9d88c9	0.07692105
106	0x3ec97d00	0.3935318
107	0xbcbf2873	-0.023334717
108	0xbde24c7a	-0.11049743
109	0x3e5b4574	0.21413213
110	0xbe3c6d69	-0.18401112
111	0x3dbc6439	0.091988035
112	0xbee7145a	-0.45132715
113	0xbda56b50	-0.08077109
114	0x3ec378f1	0.38178208
115	0x3e877509	0.26456478
116	0x3ebb061b	0.36528096
117	0xbe0afc62	-0.13572839
118	0x3efa2b2a	0.48861057
119	0x3e967cd7	0.2939212
120	0x3e92d604	0.28678906
121	0xbd21fa91	-0.0395456
122	0x3f17badd	0.59269506
123	0xbdaf6f3c	-0.08566138
124	0x3ed059f2	0.40693623
125	0xbe4754d6	-0.19465956
126	0xbe3cf48f	-0.18452667
127	0x3da0508c	0.07827863
128	0x3c9e4b19	0.019322919
129	0xbeb0f3a6	-0.3456089
130	0xbd18c8ea	-0.03730098
131	0x3dedc882	0.116105095
132	0xbe4689e8	-0.19388545
133	0x3f09248f	0.5357141
134	0x3f1dc462	0.6162778
135	0x3d443a0d	0.047906924
136	0xbe72faec	-0.23728532
137	0xbead60e0	-0.33862972
138	0x3c9a38dd	0.018825943
139	0xbe6d3096	-0.23163065
140	0xbd84d69f	-0.06486248
141	0x3e85438a	0.2602809
142	0xbd3817d4	-0.0449446
143	0xbe53cd7d	-0.20683856
144	0xb9198a62	-0.00014642769
145	0xbc52878a	-0.012849698
146	0xbe26b478	-0.16279781
147	0xbe9f7f60	-0.31151867
148	0x3ead8b72	0.3389545
149	0x3efa96af	0.48943087
150	0xbe18f109	-0.14935698
151	0xbd3f841e	-0.046756856
152	0xbeb0bba6	-0.34518164
153	0xbe3d3ad1	-0.18479468
154	0x3e199695	0.14998849
155	0x3e6217c8	0.22079384
156	0xbeaf4258	-0.34230304
157	0xbf9a5ed7	-1.2060193
158	0xbf364d38	-0.71211576
159	0xbf587e97	-0.8456816

snv_fc1.bias f4 [20]
0	0x3e456760	0.19277716
1	0x3cf332be	0.029687282
2	0xbe92b501	-0.2865372
3	0xbea26eeb	-0.3172525
4	0xbe4118fd	-0.18857189
5	0x3dba864c	0.09107646
6	0xbdd899e6	-0.10576229
7	0xbdd69338	-0.104772985
8	0x3e0ff625	0.1405874
9	0xbd1f4eff	-0.038893696
10	0x3e345c3f	0.17613314
11	0x3c6c9997	0.014440916
12	0xbe5be0ca	-0.21472469
13	0xbd4b8568	-0.049687773
14	0x3e1c6d61	0.152761
15	0xbcddea5e	-0.027089294
16	0xbef105b0	-0.47074652
17	0xbe24b5a3	-0.16084914
18	0x3cfe4e3e	0.031043168
19	0x3e849d74	0.25901377

ref_cov_fc1_fwd.weight f4 [32, 61]
0	0xbd31e531	-0.043431465
1	0x3bff69ae	0.0077945804
2	0x3d83c064	0.0643318
3	0xbdd5f958	-0.10447949
4	0xbd925bf0	-0.07146442
5	0x3d0d8808	0.034553558
6	0xbe4544c5	-0.19264515
7	0xbc2ea513	-0.010659474
8	0xbd719468	-0.05897942
9	0xbe1d925b	-0.15387861
10	0xbdf2dce3	-0.11858537
11	0xbe04ca68	-0.12967837
12	0x3bfb30a1	0.007665709
13	0xbc824829	-0.01590355
14	0xbdae95bd	-0.08524654
15	0xbd5fd5db	-0.054647308
16	0xbdf5931e	-0.11990951
17	0x3d342f06	0.043990158
18	0xbcb128e5	-0.021625945
19	0x3d9118dd	0.070848204
20	0x3ae3036b	0.0017319744
21	0x3dc2c36d	0.09509931
22	0xbda36a19	-0.07979221
23	0x3d42e322	0.047579892
24	0x3ddcf181	0.10788251
25	0xbdb5f9d6	-0.08885543
26	0x3da1d247	0.07901435
27	0xbdee44bb	-0.11634203
28	0x3d2b5771	0.041831437
29	0x3e0408e7	0.12894021
30	0xbe06bfdd	-0.13159128
31	0x3d79a6f4	0.060950235
32	0xbd46cfce	-0.04853802
33	0x3c3b09fc	0.011415955
34	0x3deea353	0.116522454
35	0xbddab463	-0.10678937
36	0xbda7f127	-0.08200293
37	0x3de1ff18	0.110349834
38	0xbdd4c0f5	-0.10388366
39	0xbd4b6a1d	-0.049661744
40	0x3d3b60d8	0.045746654
41	0x3bb74415	0.005592833
42	0xbd3422ab	-0.043978374
43	0x3d7d0349	0.06177071
44	0x3d9f0f11	0.077665456
45	0x3e06ed1d	0.13176389
46	0x3d16867c	0.036749348
47	0xbe30c45b	-0.17262404
48	0xbdece5b3	-0.11567249
49	0xbdedabc9	-0.11605031
50	0x3e1d09ef	0.1533582
51	0xbcb527db	-0.022113731
52	0x3d9b5fb3	0.075866126
53	0xbca895bb	-0.02057921
54	0xbd111d03	-0.03542806
55	0xbde6b37b	-0.11264702
56	0xbd725da6	-0.05917134
57	0x3c67c0d5	0.014145096
58	0x3c911cdc	0.017713957
59	0x3df5d733	0.120039366
60	0xbd9b4eb3	-0.0758337
61	0xbdce541c	-0.10074636
62	0xbe6ede7e	-0.23327062
63	0xbdf979eb	-0.12181457
64	0xbe11a05b	-0.14221327
65	0x3dac92cd	0.084264375
66	0x3d38b921	0.045098428
67	0xbe235147	-0.15948974
68	0x3d9c9de1	0.076473005
69	0xbd9ed664	-0.077557355
70	0xbd3d72b6	-0.046251975
71	0xbe764554	-0.24049884
72	0xbe3d7ce1	-0.18504669
73	0xbdd08bce	-0.10182916
74	0xbe325432	-0.1741493
75	0xbe2a374d	-0.16622658
76	0x3ce49807	0.027904524
77	0xbc15a250	-0.009132937
78	0x3c2db2ef	0.010601743
79	0xbc6df9d4	-0.014524896
80	0x3e2a8211	0.16651179
81	0x3e3d4afc	0.18485636
82	0x3dfeddb5	0.12444631
83	0xbd4f2880	-0.050575733
84	0x3e71a642	0.23598579
85	0x3dfa8c57	0.12233799
86	0xbd00ae4d	-0.031416226
87	0x3d435fdc	0.04769884
88	0x3dc03400	0.09384918
89	0x3e6de9c4	0.23233706
90	0x3e5a515b	0.21320097
91	0xbcba90be	-0.022774097
92	0x3d9b3987	0.07579332
93	0x3e7313c5	0.2373801
94	0x3e8183ec	0.2529596
95	0x3cd66d2c	0.026175104
96	0xbd9f8b8e	-0.0779029
97	0xba3e667f	-0.0007263198
98	0x3dd44f78	0.1036672
99	0x3d395d78	0.045255154
100	0xbdee8b9b	-0.116477214
101	0x3df2c956	0.11854808
102	0x3bac6bea	0.005261888
103	0xbdf53944	-0.11973813
104	0x3d4b4e1a	0.04963503
105	0xbe122d03	-0.14274983
106	0xbe1fcc1a	-0.15605202
107	0xbd4aab71	-0.049479906
108	0x3c7c8bf2	0.015414225
109	0x3cb7d269	0.022439199
110	0xbcffa29b	-0.031205466
111	0xbe19adad	-0.15007658
112	0x3c8e2709	0.017352598
113	0x3d770124	0.060303822
114	0xbd316abe	-0.043314688
115	0xbc23c50d	-0.009995711
116	0x3d8a579d	0.06754992
117	0xbdf246b1	-0.118298896
118	0xbbd6e061	-0.00655751
119	0xbd06bd3f	-0.032895323
120	0xbac85ca2	-0.0015286396
121	0xbd7b8f54	-0.061415985
122	0x3d954d70	0.07290161
123	0x3e1310f7	0.1436194
124	0x3e0b745a	0.13618603
125	0x3d1b15ae	0.037862472
126	0x3cc14d1d	0.02359634
127	0x3e383cbd	0.1799192
128	0xbc4d9e4f	-0.012549951
129	0x3e46e7c9	0.19424357
130	0x3c48fb09	0.012266883
131	0x3c873a87	0.0165074
132	0x3e47a716	0.19497332
133	0xbd8582bd	-0.06519077
134	0xbcb1e060	-0.021713436
135	0xba1505ec	-0.00056847814
136	0x3e13ff80	0.14452934
137	0x3d3b1822	0.04567731
138	0x3e56c333	0.209729
139	0xbbaae3b0	-0.0052151307
140	0x3e605205	0.21906288
141	0x3e0c1f4e	0.13683817
142	0x3e2bc420	0.16774035
143	0x3d99f639	0.07517666
144	0x3e4f3a2e	0.20237038
145	0x3e2a5ec7	0.16637717
146	0x3e30da1d	0.17270704
147	0xbdb9c725	-0.09071187
148	0xbeb7dca9	-0.35910538
149	0xbe3ffeec	-0.18749589
150	0x3dd6f07f	0.1049509
151	0xbeac444a	-0.3364585
152	0x3e85ad92	0.26108986
153	0xbd8a6350	-0.067572236
154	0x3e700ffb	0.23443596
155	0xbe9c2e0f	-0.3050389
156	0xbed30f8b	-0.41222796
157	0xbb3366a5	-0.0027374413
158	0xbeadf030	-0.3397231
159	0xbda358e1	-0.07975937
160	0xbdc2868f	-0.09498321
161	0xbddf8d05	-0.10915569
162	0x3d819e0c	0.06328973
163	0x3dde76e4	0.1086252
164	0x3c919e29	0.017775612
165	0xbdf6478e	-0.12025367
166	0xbdcc4b0b	-0.09975251
167	0xbe64dfc0	-0.22350979
168	0xbe07be82	-0.13256267
169	0xbe07c6bc	-0.13259405
170	0xbde18416	-0.110115215
171	0xbde8a178	-0.11358923
172	0x3c3c4d7a	0.011493081
173	0x3dbe5a0f	0.09294521
174	0x3d76bb38	0.06023714
175	0xbd1623ea	-0.036655344
176	0xbe0d495b	-0.13797514
177	0xbcdbd50b	-0.026834985
178	0x3e1f7446	0.15571699
179	0xbcbfe7a7	-0.02342589
180	0xbe15757f	-0.14595602
181	0x3de51c7a	0.11187072
182	0xbd7bbcd4	-0.061459377
183	0xbd80cb3e	-0.06288765
184	0xbc9d9c01	-0.019239428
185	0xbdeaedc8	-0.114711344
186	0xbe07a342	-0.13245872
187	0x3dc6fcdd	0.097161986
188	0x3dd2698e	0.10274039
189	0x3df8714c	0.12130985
190	0xbd605980	-0.054772854
191	0x3de18eb8	0.110135496
192	0xbdcd0e15	-0.100124516
193	0xbe0f4352	-0.13990524
194	0xbdc22d4e	-0.094812974
195	0xbd2e662e	-0.042577915
196	0xbe0bae89	-0.13640799
197	0xbe37bca7	-0.17943059
198	0xbe124b2a	-0.14286485
199	0xbdb495b4	-0.08817616
200	0xbe9b77a5	-0.3036472
201	0xbe6e448b	-0.23268335
202	0xbdc7f7f2	-0.09764089
203	0xbd177ea9	-0.036986027
204	0x3d0d26f7	0.034460988
205	0xbe0709d8	-0.13187349
206	0xbe0607f3	-0.1308897
207	0x3dc289e5	0.094989575
208	0xbd49ef1c	-0.049300298
209	0xbc77df94	-0.015128989
210	0xbd923b53	-0.071402214
211	0x3eada8fd	0.3391799
212	0x3ea04fb6	0.31310815
213	0x3e044959	0.12918605
214	0x3e813c7d	0.2524146
215	0x3e7dbf90	0.24780107
216	0xbb41fd66	-0.00296005
217	0x3e2f7f42	0.17138389
218	0x3e431a40	0.19052982
219	0x3d41ce5b	0.047315937
220	0x3db1918e	0.086703405
221	0x3d8820c6	0.06646876
222	0xbc3586c2	-0.011079492
223	0xbda50113	-0.080568455
224	0x3d9dd283	0.077061675
225	0xbba314e8	-0.0049768575
226	0x3cf2cd8b	0.029639026
227	0x3dc0d851	0.09416259
228	0xbe10fecd	-0.14159699
229	0xbe3f7e9f	-0.18700646
230	0x3d259217	0.040422525
231	0x3d5df030	0.05418414
232	0x3d17778e	0.03697925
233	0x3b88e974	0.0041782204
234	0x3de6c4c6	0.11268
235	0xbc4186fc	-0.011811968
236	0xbd5bde60	-0.05367887
237	0x3e5be126	0.21472606
238	0x3c8ad2c3	0.016946202
239	0x3dbd0c4c	0.09230861
240	0xbd9e5b3e	-0.07732247
241	0xbdb03527	-0.08603888
242	0xbe09b754	-0.1344884
243	0xbd6e0dab	-0.058118504
244	0xbc6e9ad1	-0.014563278
245	0xbd972450	-0.07379973
246	0xbde67476	-0.11252682
247	0xbdf33a2c	-0.1187633
248	0x3db7ef8e	0.08981238
249	0x3d6a2d61	0.057172183
250	0xbdf8cab9	-0.12148041
251	0x3d51b76d	0.05120032
252	0x3d68aeef	0.056807455
253	0xbb5cc558	-0.0033686962
254	0xbdd31cad	-0.10308204
255	0x3dda03bc	0.106452435

ref_cov_fc1_fwd.bias f4 [32]
0	0x3dd3dc06	0.103447005
1	0xba374031	-0.0006990461
2	0x3c29078a	0.010316739
3	0xba9e536c	-0.0012079305
4	0xbe12c81c	-0.14334148
5	0x3ccf0d93	0.025275027
6	0xbf005110	-0.5012369
7	0xbd4f2ed9	-0.050581787
8	0x3d5eb0d7	0.054367866
9	0x3d371e6b	0.044706743
10	0x3cb81d19	0.022474812
11	0x3d6ffe5a	0.058592178
12	0xbbb3e38a	-0.0054897713
13	0xbc33eafb	-0.010981317
14	0x3cd2a689	0.025714176
15	0xbe01d445	-0.1267863
16	0xbe000cbf	-0.12504862
17	0x3cc18ea0	0.02362758
18	0xb98b49fa	-0.00026567263
19	0xbe1042ef	-0.14088033
20	0x3ddc5fab	0.10760435
21	0xbb8b0d7a	-0.00424355
22	0x3d7decb2	0.06199331
23	0xbb854560	-0.004067108
24	0xbd2cabb0	-0.04215592
25	0x3c33f694	0.010984082
26	0x3e13f2b7	0.14448057
27	0x3df44453	0.11927094
28	0x3cc1c440	0.02365315
29	0xbcf53135	-0.02993069
30	0x3e473522	0.19453862
31	0x3c149101	0.009067775

ref_cov_fc1_rev.weight f4 [32, 61]
0	0x3e3e9d29	0.1861464
1	0x3c6bf541	0.014401735
2	0x3e2eb42b	0.17060916
3	0xbd4b0a80	-0.04957056
4	0x3db3d6f6	0.08781235
5	0xbd8408e4	-0.06447008
6	0x3db64b58	0.089010894
7	0xbcd69472	-0.026193831
8	0xbe0ffefe	-0.14062116
9	0xbcbbcc9a	-0.02292471
10	0xbd5f91f2	-0.054582544
11	0xbe1410fb	-0.14459603
12	0xbe5e3886	-0.2170125
13	0xbe1597a9	-0.14608635
14	0x3c29f253	0.010372716
15	0xbd49317a	-0.04911945
16	0x3ca625cd	0.020281697
17	0x3cae94eb	0.021311244
18	0xbe72d862	-0.23715356
19	0xbd792086	-0.060822032
20	0xbd9d868c	-0.076916784
21	0xbe034d22	-0.12822393
22	0xbd8c03b2	-0.06836642
23	0xbe117e32	-0.14208296
24	0x3db4148e	0.08792983
25	0x3e2c45aa	0.1682345
26	0x3e8ff6ab	0.2811788
27	0x3e05f087	0.13080035
28	0x3e7a633d	0.24451919
29	0x3e89fd19	0.2695091
30	0x3d0b66d6	0.03403362
31	0x3ebbd2d3	0.36684284
32	0xbb9fc66a	-0.0048759477
33	0xbd1d9c95	-0.038479406
34	0xbb8e48c1	-0.004342169
35	0x3e33a8c0	0.17544842
36	0x3c8296d7	0.015941067
37	0x3dcf724a	0.10129221
38	0x3d39df36	0.045378886
39	0xbccfde63	-0.025374597
40	0xbe456270	-0.19275832
41	0xbe3fa03a	-0.18713465
42	0xbe525d6f	-0.20543455
43	0xbe0c9b1c	-0.13731045
44	0xbdd745e5	-0.10511378
45	0x3af400dc	0.0018615979
46	0xbd9dc22b	-0.0770305
47	0x3cc52624	0.024066038
48	0xbd13ca03	-0.036081325
49	0xbd88381a	-0.066513255
50	0xbd8bce00	-0.06826401
51	0xbe1434eb	-0.14473312
52	0x3d0838a9	0.03325716
53	0xbd998f91	-0.07498086
54	0x3bd56133	0.006511831
55	0x3da0ef99	0.078581996
56	0x3de1683a	0.11006208
57	0x3e0826d8	0.13296068
58	0xbd3d93da	-0.04628358
59	0xbcecbdae	-0.02889904
60	0x3d74df23	0.059783112
61	0x3d5c6173	0.053803872
62	0x3a8af43f	0.0010601355
63	0x3db7b301	0.08969689
64	0x3dc3e5d3	0.0956532
65	0xbd24acd4	-0.040203884
66	0x3e58629a	0.21131364
67	0xbd855bfc	-0.06511685
68	0x3d565951	0.052331273
69	0x3d2987c3	0.041389238
70	0x3df288ad	0.11842475
71	0x3e23fbd9	0.16014041
72	0x3dfc9cac	0.1233457
73	0x3dbdc55b	0.09266158
74	0x3da521ac	0.08063063
75	0x3e18b3b3	0.149123
76	0x3e47fd60	0.19530249
77	0xbc2b7568	-0.010465004
78	0x3e713de5	0.23558767
79	0x3cb3e82b	0.021961292
80	0x3e63c1c2	0.22241881
81	0x3d8831dc	0.06650135
82	0x3db0b472	0.08628167
83	0x3de3b49d	0.111184336
84	0x3e619d6e	0.22032711
85	0x3e4f1b60	0.20225286
86	0x3e615429	0.22004761
87	0x3d879337	0.06619876
88	0x3e8451fa	0.25843793
89	0x3e960389	0.29299572
90	0x3e1f8923	0.15579657
91	0x3e7d7db2	0.2475498
92	0xbe5c06ed	-0.21487017
93	0xbec87d11	-0.39157918
94	0xbead1d9b	-0.3381165
95	0xbe872f36	-0.26403207
96	0xbc852884	-0.01625467
97	0xbe014761	-0.12624885
98	0x3df7344f	0.12070524
99	0xbda73c7d	-0.08165834
100	0x3d548ed1	0.051894013
101	0xbe81eb7a	-0.25374967
102	0xbcb9f941	-0.022701861
103	0xbd1fdcf3	-0.039029073
104	0xbe02c298	-0.12769544
105	0xbd30b495	-0.043140966
106	0xbd57af91	-0.052657668
107	0xbda2f49d	-0.079568125
108	0xbd26f8fe	-0.0407648
109	0xbe8300de	-0.255866
110	0xbe825c6c	-0.25461137
111	0xbd051051	-0.032486264
112	0xbe79874b	-0.24368016
113	0xbd0b2db2	-0.033979125
114	0xbdb587b3	-0.08863773
115	0xbd87a7e5	-0.0662382
116	0xbd25dec8	-0.040495664
117	0xbdbccba5	-0.092185296
118	0xbe0d6ea2	-0.13811734
119	0xbe83c412	-0.25735527
120	0xbe9af540	-0.30265236
121	0xbe1fbf43	-0.15600304
122	0xbdff25a4	-0.12458351
123	0xbd550c8e	-0.052013926
124	0xbd44f682	-0.04808665
125	0xbe39aa56	-0.18131384
126	0xbe16d616	-0.14730105
127	0x3c77fb5d	0.015135613
128	0x3d14fbd8	0.03637299
129	0x3df81837	0.121139936
130	0xbe20713f	-0.156682
131	0x3da2d761	0.079512365
132	0x3d1c9202	0.03822518
133	0x3e13ef2b	0.14446704
134	0x3e38b673	0.18038349
135	0x3d3204f2	0.043461747
136	0xbd9324fd	-0.07184789
137	0xbe463537	-0.19356237
138	0x3e036ed0	0.1283524
139	0xbce5461f	-0.027987538
140	0x3d902ec7	0.07040172
141	0x3d73cd71	0.059522096
142	0x3e32b6b1	0.17452504
143	0x3d6ac4c0	0.05731654
144	0x3d1f55ff	0.03890037
145	0x3e462544	0.19350153
146	0x3e07ef94	0.13274986
147	0x3dc62154	0.096743256
148	0x3c019b8a	0.007910619
149	0x3e3069e4	0.17227894
150	0xbce942d5	-0.02847425
151	0x3cda9e80	0.026686907
152	0xbe768f60	-0.2407813
153	0x3d8fbadf	0.07018065
154	0x3e2223ad	0.15833922
155	0xbdb771c8	-0.08957249
156	0xbe0fde10	-0.14049554
157	0xbe347f30	-0.17626643
158	0xbe727d67	-0.2368065
159	0xbe2ac001	-0.16674806
160	0x3deb4049	0.11486871
161	0x3c1866e5	0.009301876
162	0xbdd713ee	-0.10501848
163	0x3d9244bd	0.07142017
164	0xbc4ceb65	-0.012507294
165	0x3e0684d5	0.13136609
166	0x3d0e5030	0.03474444
167	0xbd32a7e2	-0.043617137
168	0x3e246f4f	0.16058086
169	0xbd00c484	-0.031437412
170	0x3d3b10da	0.045670368
171	0xbbcff820	-0.0063467175
172	0xbd944ca3	-0.0724118
173	0xbd6f45b3	-0.05841608
174	0xbd0ce11e	-0.034394376
175	0x3c2d7352	0.010586577
176	0xbdfb885a	-0.12281866
177	0x3d35aae1	0.044352416
178	0x3da3cdba	0.079982236
179	0x3db566b6	0.08857481
180	0x3da4936e	0.080359325
181	0xbe08a8ed	-0.1334569
182	0x3c8c2498	0.017107293
183	0xbf0bc470	-0.54596615
184	0xbf00cbdb	-0.5031106
185	0xbef14225	-0.47120777
186	0xbf1bd177	-0.60866493
187	0xbecad11c	-0.39612663
188	0xbf123d2a	-0.5712458
189	0xbf135998	-0.57558584
190	0xbf076637	-0.5289034
191	0xbebc0871	-0.3672519
192	0xbecb3329	-0.3968747
193	0xbec706d8	-0.3887241
194	0xbecc1482	-0.39859396
195	0xbf039a83	-0.5140764
196	0xbed3ac39	-0.41342333
197	0xbf0f5749	-0.5599256
198	0xbeeedea3	-0.46654233
199	0xbec80356	-0.39065045
200	0xbeb9de8d	-0.36302605
201	0xbec94032	-0.3930679
202	0xbee6da63	-0.4508849
203	0xbec0c405	-0.3764955
204	0xbf122006	-0.57080114
205	0xbf4b0ab6	-0.7931322
206	0xbf305ffa	-0.6889645
207	0xbf3fe70a	-0.7496191
208	0xbf69eba1	-0.91375166
209	0xbef61401	-0.48062137
210	0xbec732f0	-0.3890605
211	0xbf4c3dbb	-0.79781693
212	0x3d8e6185	0.06952194
213	0xbe8293d3	-0.25503406
214	0x3d7ea58a	0.06216959
215	0xbe2a109a	-0.16607895
216	0xbda90dd1	-0.082545884
217	0xbdd29a25	-0.10283307
218	0xbf06aaa4	-0.52604127
219	0xbf330adf	-0.6993846
220	0xbefe1424	-0.4962474
221	0x3b819f69	0.0039557707
222	0xbc925e0f	-0.017867116
223	0x3e051118	0.12994802
224	0x3db2d7c0	0.08732557
225	0x3d3ddfea	0.04635612
226	0x3e309ddd	0.1724772
227	0x3d513d2d	0.051083732
228	0x3e3c29cc	0.18375319
229	0x3d5a891c	0.053353414
230	0x3e4fab8c	0.20280284
231	0xbd259d86	-0.04043343
232	0x3ccb7122	0.02483422
233	0xbc820e79	-0.015876042
234	0x3c8bb36d	0.01705333
235	0x3dc5bcde	0.09655164
236	0x3e00b690	0.12569642
237	0x3d8b4a80	0.06801319
238	0x3e121dca	0.14269176
239	0x3df6be2c	0.12047991
240	0x3df4d5fb	0.11954876
241	0xbd1b9ad0	-0.037989438
242	0x3cc56697	0.02409677
243	0x3cbd30ae	0.023094501
244	0xbd4122fa	-0.047152497
245	0xbcaa8fa8	-0.020820454
246	0xbdf163fa	-0.11786647
247	0x3d7c9603	0.0616665
248	0xbdb402b8	-0.08789581
249	0x3df6de35	0.120541014
250	0x3deb7f21	0.11498857
251	0x3d83125f	0.063999884
252	0xbd66adc2	-0.056318052
253	0x3dc2e33a	0.09515996
254	0x3c4c09c5	0.012453501
255	0xbde355ac	-0.11100325

ref_cov_fc1_rev.bias f4 [32]
0	0x3c689e33	0.014197874
1	0xbcae855b	-0.021303823
2	0x3deee129	0.1166404
3	0x3e1d827e	0.1538181
4	0xbd3a975a	-0.045554496
5	0xbe540856	-0.20706305
6	0x3dd3e72b	0.10346826
7	0x3d50977b	0.050925713
8	0x3d2f9fd8	0.04287705
9	0xbde3f355	-0.11130396
10	0xbb8d0d9f	-0.0043046023
11	0x3d2d6eed	0.042342115
12	0x3c90674c	0.01762738
13	0x3dcc1901	0.099657066
14	0x3cad2782	0.021137003
15	0x3ccee77e	0.025256868
16	0x3d9f2b22	0.07771899
17	0x3c88fcff	0.0167222
18	0xbdc94c28	-0.09828979
19	0x3d87a0be	0.06622456
20	0x3d85bfa3	0.065306924
21	0x3d090fa2	0.033462174
22	0x3daff0be	0.0859084
23	0x3da9a711	0.082838185
24	0x3dc81a6a	0.09770663
25	0xbd1f2aec	-0.038859293
26	0x3c4fc450	0.012681082
27	0xbab4875e	-0.0013773253
28	0x3c8453b5	0.016153196
29	0xbdf60d92	-0.12014307
30	0x3d06be53	0.03289635
31	0x3dea917b	0.114535294

ref_cov_fc2.weight f4 [16, 64]
0	0xbe19a89f	-0.1500573
1	0xbe3bdbdd	-0.1834559
2	0x3dc51b57	0.09624355
3	0xbd8480a6	-0.0646985
4	0x3de9c2ce	0.11414109
5	0x3e3a259a	0.18178406
6	0xbe9bce43	-0.30430803
7	0x3e2a9933	0.16660003
8	0xbd29cab7	-0.04145309
9	0xbde44ba0	-0.11147237
10	0xbe0fd098	-0.14044416
11	0x3cb71ac0	0.022351623
12	0xbe78235f	-0.24232243
13	0x3f03be1c	0.5146196
14	0xbf39a798	-0.7252135
15	0xbe8d33b0	-0.27578497
16	0xbca06fc8	-0.019584551
17	0xbf0d323d	-0.5515478
18	0xbe1696f2	-0.14706019
19	0x3b210dfc	0.0024574986
20	0xbd2d3f7b	-0.042296868
21	0xbe1775d5	-0.14791043
22	0x3d836c03	0.06417086
23	0x3b0605a6	0.0020450144
24	0xbdd8e858	-0.10591191
25	0xbf25e092	-0.6479579
26	0x3e30dacf	0.17270969
27	0x3e300a3c	0.17191404
28	0x3e92fa96	0.28706807
29	0xbd90c75a	-0.07069273
30	0xbdb484ca	-0.0881439
31	0xbd56c7df	-0.052436706
32	0xbe1e16ea	-0.15438429
33	0x3e43b1af	0.1911075
34	0x3e2f11a4	0.17096573
35	0xbe4cd342	-0.20002463
36	0xbd5eae4c	-0.05436544
37	0x3ce9981e	0.028514918
38	0x3d0e5997	0.03475341
39	0x3e2c4eba	0.16826907
40	0x3de408ac	0.111344665
41	0xbd1cecc9	-0.038311753
42	0x3d5139d7	0.05108055
43	0x3dff9b5d	0.12480805
44	0x3a326ee7	0.0006806687
45	0x3ddce36d	0.107855655
46	0xbf025144	-0.5090525
47	0xbf05afe6	-0.52221525
48	0x3dbf85b3	0.09351673
49	0x3dcc7113	0.09982505
50	0xbcde2fb3	-0.027122354
51	0xbe1d3be1	-0.15354873
52	0xbdc9b6cc	-0.09849319
53	0xbe100310	-0.14063668
54	0xbdbfb9e4	-0.09361628
55	0xbcae2a87	-0.021260513
56	0x3e1fb221	0.15595295
57	0x3e6f0917	0.23343311
58	0x3e1a2a40	0.1505518
59	0x3d2b5af6	0.041834794
60	0xbdcde92a	-0.10054238
61	0xbdbbba77	-0.09166425
62	0xbd879032	-0.066193
63	0xbc4900cd	-0.012268257
64	0x3de78afc	0.11305806
65	0x3e886006	0.2663576
66	0xbe35d36f	-0.17756437
67	0xbc590907	-0.013246781
68	0xb9c4750d	-0.00037471243
69	0x3e6efad7	0.23337875
70	0xbea19d16	-0.3156516
71	0xbebde771	-0.37090638
72	0xbd8d42eb	-0.06897529
73	0xbe992c2a	-0.29916507
74	0x3d82f710	0.0639478
75	0xbc537736	-0.01290684
76	0xbbaa7d2f	-0.0052029113
77	0x3addaefb	0.001691311
78	0xbf2739bd	-0.65322477
79	0xbf4ecf29	-0.8078485
80	0x3d6367d5	0.055518944
81	0xbd9d5cbd	-0.07683704
82	0xbe551ddc	-0.20812172
83	0x3e047926	0.1293684
84	0x3db2522e	0.08707081
85	0x3eb6a7f2	0.35675007
86	0xbe141aae	-0.14463302
87	0xbd975c6e	-0.073906764
88	0x3d33eec6	0.043928884
89	0xbf86ff02	-1.0546572
90	0x3e986e77	0.29771778
91	0xbd7480d1	-0.05969316
92	0x3de8a1d0	0.11358988
93	0x3d02e63e	0.031957857
94	0xbcc128e8	-0.023579076
95	0xbdfa4fb3	-0.12222233
96	0xbe8fa7db	-0.2805775
97	0x3dbf38ce	0.093370065
98	0x3e2d9cc4	0.16954333
99	0xbe80d8df	-0.2516546
100	0x3dc0d8bf	0.09416341
101	0xbe2a52d6	-0.16633162
102	0xbd52c16a	-0.051453985
103	0x3e33bc96	0.17552409
104	0x3e3c4605	0.18386085
105	0x3dc02824	0.09382656
106	0x3da757a1	0.08171011
107	0x3baa71be	0.0052015474
108	0x3dbbca69	0.09169466
109	0xbd7bf816	-0.06151589
110	0x3e453af3	0.19260769
111	0xbe241f62	-0.16027597
112	0x3e10e207	0.14148723
113	0xbdc94572	-0.09827699
114	0xbd9df66d	-0.077130176
115	0xbe1dfcf1	-0.1542852
116	0xbddc358c	-0.10752401
117	0xbd8fd079	-0.07022185
118	0x3cfaf982	0.030636553
119	0xbc931e07	-0.017958654
120	0x3d77ff4d	0.06054621
121	0x3e965709	0.29363278
122	0x3e100aa4	0.14066559
123	0x3e54ecc6	0.20793447
124	0x3d32b819	0.0436326
125	0x3c87f2d7	0.016595287
126	0xbc0896b5	-0.008336713
127	0x3d904936	0.07045214
128	0xbdcda8ae	-0.10041939
129	0xbd5fbdd2	-0.054624386
130	0xbf71c350	-0.9443865
131	0x3de72f2d	0.11288295
132	0x3df0bf08	0.11755186
133	0x3c4f46b8	0.012651138
134	0xbe569a34	-0.20957261
135	0xbd7c0a9a	-0.061533548
136	0x3d7ed6e7	0.062216666
137	0xbe0cada8	-0.1373812
138	0x3d26e77a	0.040748097
139	0x3da0fb54	0.07860437
140	0x3cb56651	0.022143515
141	0xbea99f83	-0.3312951
142	0xbf173a9a	-0.59073794
143	0xbf0915ad	-0.535487
144	0xbd0692f0	-0.032854974
145	0xbe50d461	-0.20393516
146	0x3d3de99a	0.046365358
147	0xbdca880c	-0.0988923
148	0x3e0db5cd	0.13838883
149	0x3d846dd2	0.06466259
150	0xbc9a27d2	-0.018817816
151	0x3d7b8856	0.061409317
152	0xbd342331	-0.043978874
153	0xbf95c472	-1.1700575
154	0x3e2c6a6c	0.16837472
155	0xbc9c8a58	-0.019108936
156	0xbe06de62	-0.1317077
157	0x3c7b5311	0.015339629
158	0xbd989329	-0.074499436
159	0xbc3ae8fa	-0.011408085
160	0x3a13586e	0.0005620782
161	0x3ac20e2f	0.0014805252
162	0x3d31e3ec	0.043430254
163	0x3d7e356b	0.062062662
164	0x3d90c873	0.07069483
165	0xbd4a1538	-0.049336642
166	0x3d06aba7	0.032878544
167	0x3cbd1385	0.023080597
168	0xbd1c833e	-0.0382111
169	0xbde47a35	-0.11156122
170	0xbdb7f171	-0.08981598
171	0xbf17df59	-0.59325176
172	0x3cd7ce5b	0.026343515
173	0x3b67b7d9	0.0035357384
174	0xbe5c9d04	-0.21544272
175	0xbf003959	-0.50087506
176	0x3da41df1	0.08013523
177	0xbb3a1bb8	-0.002839787
178	0x3c7d6057	0.015464864
179	0xbf5c4485	-0.8604205
180	0xbe842586	-0.25809878
181	0xbc14b63b	-0.00907665
182	0x3d31e3dd	0.043430198
183	0xbd6620b1	-0.05618352
184	0xbb7ec396	-0.0038873903
185	0x3e28183f	0.16415499
186	0xbda38e3d	-0.07986114
187	0x3b4a765e	0.0030893306
188	0x3d88726e	0.06662451
189	0xbddf1bca	-0.10893972
190	0xbb6492ef	-0.0034877618
191	0xbd61e642	-0.05515123
192	0xbc354258	-0.011063181
193	0x3bf8f889	0.007597987
194	0xbe019dc8	-0.12657845
195	0xbd06aa16	-0.03287705
196	0xbdcaa4db	-0.09894725
197	0x3ce0d23c	0.027443998
198	0xbd05c81a	-0.032661535
199	0xbeb93e0e	-0.36180156
200	0xbd645e12	-0.055753775
201	0xbdefa17b	-0.11700722
202	0x3cc217d2	0.023692999
203	0xbb62c56f	-0.0034602543
204	0xbd2889d0	-0.041147053
205	0x3d914011	0.07092298
206	0xbeb2997a	-0.34882718
207	0xbdc25430	-0.09488714
208	0xbdb8af3b	-0.090177976
209	0xbe6558f5	-0.22397216
210	0xbc7a7468	-0.0152865425
211	0xbde51c17	-0.11186998
212	0x3bc89473	0.006121212
213	0x3d8dc1f6	0.06921761
214	0x3c9c13b0	0.019052356
215	0xbda65c0e	-0.08123027
216	0x3d818624	0.063244134
217	0xbd90f63c	-0.070782155
218	0xbdae0123	-0.084963106
219	0x3e40988a	0.18808189
220	0x3c29d764	0.0103662945
221	0x3c28305f	0.010265439
222	0xbe11fccd	-0.14256592
223	0x3df43eb8	0.11926025
224	0x3da1d7ed	0.07902513
225	0xbdccd508	-0.1000157
226	0x3d816748	0.063185275
227	0x3e40da6f	0.18833326
228	0x3de8f6b3	0.11375179
229	0x3e1a9f72	0.15099886
230	0x3dad4398	0.08460158
231	0xbdd017bd	-0.10160778
232	0x3c4b6351	0.012413816
233	0xbdd7635c	-0.10516998
234	0x3d201b15	0.039088327
235	0xbf0be58f	-0.54647154
236	0x3cdcd339	0.026956188
237	0xbe4d6d1a	-0.2006115
238	0xbeb7e02a	-0.3591321
239	0xbf12b679	-0.5730968
240	0x3d7e4ec3	0.06208683
241	0x3e478b2e	0.19486687
242	0xbd689e9c	-0.056791887
243	0xbf47dbc6	-0.7806972
244	0xbe9e2e25	-0.3089458
245	0x3de19c22	0.11016108
246	0x3cccb09b	0.024986556
247	0x3df5666d	0.11982427
248	0xbd3cd801	-0.046104435
249	0x3ec4627d	0.3835639
250	0x3e10c358	0.14137018
251	0x3e00b56a	0.12569204
252	0x3e112871	0.14175583
253	0xbc91d984	-0.017803915
254	0xbe1ce8ca	-0.15323177
255	0x3db220dd	0.086976744

ref_cov_fc2.bias f4 [16]
0	0x3c9839ef	0.018582312
1	0xbc91c93f	-0.017796157
2	0x3e3045e9	0.17214169
3	0x3d5361d0	0.051606953
4	0xbd363007	-0.044479396
5	0xbd706d5f	-0.058698054
6	0x3db66ec0	0.08907843
7	0x3e48b1e1	0.19599105
8	0x3e1662bb	0.146861
9	0x3e0600d9	0.13086261
10	0x3e2c6810	0.16836572
11	0x3e051638	0.12996757
12	0xbd13ac29	-0.036052857
13	0xbdcc9fa2	-0.09991385
14	0x3d3cc040	0.04608178
15	0x3e3fbb8e	0.1872389
