model/phased_MASseq_PacBio_Revio_HG002.pth (torch, 891226 bytes, 34 tensors)

combined_conv1.weight f4 [64, 5, 4, 3]
-0.0031189278 -0.09695235 -0.26410568 0.058552183 -0.1702771 -0.15752126 -0.049774725 0.10871388
0.009744836 0.013773696 0.013284708 0.0009577974 -0.05627439 -0.062644154 0.06811578 -0.012247213
-0.040836878 0.012951323 0.0010770943 0.043038275 0.016177453 -0.019124456 0.006279195 0.08450503
-0.1469886 -0.14992811 0.020776602 0.16499609 0.057221666 0.015080146 -0.050435208 0.025240934
0.012686187 0.017595425 0.032016788 -0.05165304 0.09550377 0.09745787 -0.33202362 -0.033716258
-0.14686672 -0.046684064 -0.026179034 -0.023916118 -0.022233829 -0.14681818 -0.09944024 -0.05148494
-0.008044341 0.07531207 0.06936247 -0.1293511 -0.37673283 -0.3103608 0.033050347 -0.18516408
-0.22927788 -0.025034137 0.03499794 0.0019629607 -0.23456031 -0.08597677 0.07111337 0.13041705
-0.024785154 -0.29842526 -0.26296172 0.15005927 -0.034001492 -0.0056895493 -0.13529174 -0.043510206
-0.0057381038 -0.23294216 0.054671057 0.03088884 -0.008461262 0.0018396428 0.00414506 0.0023021125
0.025207588 0.0057310616 -0.06890431 0.010189542 -0.028547332 -0.0075626974 -0.03710074 0.004347547
0.017633667 -0.10745613 -0.10292722 0.080982395 0.020877624 -0.045538962 0.05360109 -0.037526432
0.29533452 0.13685529 -0.1413391 -0.10227215 0.03599677 0.27067772 0.2889967 -0.12588574
-0.009324994 0.004364225 0.2026255 0.019764291 -0.07617244 0.043922566 -0.066571146 -0.051170897
0.026205879 -0.2508587 0.047321342 -0.15547712 -0.14019755 0.06884597 0.05278016 -0.049734212
0.08782067 -0.00996088 0.0073061045 0.041212898 -0.31561568 0.05825412 -0.08674627 -0.10771055
0.039644293 -0.13620031 0.15756932 -0.041929085 -0.0656963 0.061836813 0.002710219 -0.03774144
-0.328254 -0.12648834 0.026010802 -0.15167038 -0.016431026 -0.10002673 0.09371321 0.018011136
0.043984104 -0.04615197 -0.037310973 0.010594691 -0.22857118 -0.13633224 -0.13035768 -0.10497825
0.0154347615 0.013535985 0.0045532463 0.00782631 -0.07776455 0.018493172 0.066859804 -0.08879011
0.23195343 0.026794901 -0.090608 -0.14006817 0.041294824 0.14638183 -0.24149601 0.09786279
-0.087815195 0.1190031 0.015981957 -0.07635989 -0.42461947 -0.09037979 0.009943426 0.13899991
-0.1205621 0.13774112 -0.045712873 0.016835006 0.0045426376 0.12066108 0.07086116 -0.26730382
-0.048683442 -0.22481337 0.15855731 0.19946158 0.0060853544 -0.10060629 -0.15651393 -0.28092623
0.02159001 -0.12484539 0.06869935 0.013063048 -0.03000442 -0.18838558 0.05133118 0.0015939618
0.061290033 -0.10013068 0.030065153 -0.09146914 0.09122768 -0.121669136 -0.044761427 0.16319974
0.15169156 -0.16906907 0.020038754 0.027510023 -0.033848874 0.04286554 0.10246583 0.12627836
-0.08058036 -0.055579733 -0.06290537 -0.39298093 -0.16199692 -0.21148932 -0.1909844 -0.09784753
-0.16836707 -0.0013048879 -0.40538752 -0.041906007 -0.33788478 -0.1379601 -0.17687777 -0.15044402
-0.117569976 -0.32028025 0.039975718 -0.09531721 -0.115532234 -0.24495728 -0.14511126 -0.41231808
0.09384729 -0.1738584 0.031876426 -0.0019914003 -0.005226841 -0.22529884 -0.12474853 0.111501776
-0.1854891 -0.19486648 0.05656877 0.017343279 0.016970338 0.024899282 -0.012159834 -0.030529872
00000000: ed66 4cbb f48e c6bd dc38 87be 6ad4 6f3d
00000010: 1f5d 2ebe 414d 21be 95e0 4bbd 62a5 de3d
00000020: cea8 1f3c 11ab 613c 1ba8 593c b214 7b3a
00000030: fa7f 66bd 944b 80bd 4980 8b3d 89a8 48bc
00000040: 9244 27bd c931 543c 4a2d 8d3a e748 303d
00000050: 9486 843c e4aa 9cbc b5c1 cd3b f910 ad3d
00000060: 2e84 16be c186 19be b133 aa3c bcf4 283e
00000070: 4461 6a3d b712 773c 2695 4ebd 13c6 ce3c
00000080: bad9 4f3c 4824 903c 0924 033d 2392 53bd
00000090: 7b97 c33d fe97 c73d 00ff a9be 0f1a 0abd
000000a0: 3b64 16be ca37 3fbd 6a75 d6bc bceb c3bc
000000b0: b823 b6bc 8157 16be 53a7 cbbd dfe1 52bd
000000c0: 69cc 03bc 373d 9a3d e90d 8e3d 9d74 04be
000000d0: 20e3 c0be 9ce7 9ebe cd5f 073d a79b 3dbe
000000e0: d2c7 6abe 6414 cdbc 005a 0f3d 04a5 003b
000000f0: 9430 70be 9714 b0bd e3a3 913d 0c8c 053e
00000100: 3c0a cbbc 32cb 98be eba2 86be 23a9 193e
00000110: 2645 0bbd 666f babb eb89 0abe c237 32bd
00000120: b406 bcbb 6488 6ebe c2ee 5f3d 980a fd3c
00000130: 1ba1 0abc 2b20 f13a 49d3 873b 0adf 163b
00000140: 2580 ce3c a1cb bb3b b41d 8dbd 09f2 263c
00000150: 18dc e9bc 81d0 f7bb f2f6 17bd de75 8e3b
00000160: 7b74 903c f611 dcbd 82cb d2bd 19da a53d
00000170: 8d07 ab3c 1087 3abd d18c 5b3d 51b5 19bd
00000180: 1636 973e cb23 0c3e 32bb 10be 1074 d1bd
00000190: 5971 133d 4596 8a3e 60f7 933e 31e8 00be
000001a0: dcc7 18bc c601 8f3b 0f7d 4f3e b9e8 a13c
000001b0: 4c00 9cbd 26e8 333d 7456 88bd 9398 51bd
000001c0: b6ad d63c 8d70 80be 06d4 413d 6535 1fbe
000001d0: f28f 0fbe 1eff 8c3d 0230 583d 1ab6 4bbd
000001e0: 53db b33d f532 23bc 0c68 ef3b dbce 283d
000001f0: 6198 a1be df9b 6e3d 07a8 b1bd 5997 dcbd
00000200: 0e62 223d 1878 0bbe da59 213e d5bd 2bbd
00000210: c88b 86bd 9948 7d3d ee9d 313b c596 1abd
00000220: e910 a8be 2986 01be 9b14 d53c 7b4f 1bbe
00000230: 5c9a 86bc d0da ccbd b6ec bf3d 178c 933c
00000240: ad28 343d d909 3dbd 64d3 18bd 5b95 2d3c
00000250: 900e 6abe ae9a 0bbe 7c7c 05be d6fe d6bd
00000260: 15e2 7c3c 09c6 5d3c 6633 953b ec39 003c
00000270: 0543 9fbd fe7e 973c cbed 883d 97d7 b5bd
00000280: 3385 6d3e fb80 db3c b090 b9bd 086e 0fbe
00000290: c324 293d 1ee5 153e bb4a 77be 496c c83d
000002a0: 74d8 b3bd e6b7 f33d 98ec 823c 9362 9cbd
000002b0: b967 d9be 0a19 b9bd c0e9 223c fe55 0e3e
000002c0: 43e9 f6bd 020c 0d3e 6c3d 3bbd 91e9 893c
000002d0: 68da 943b 281d f73d a81f 913d 0cdc 88be
000002e0: 4a68 47bd 7a35 66be d95c 223e a83f 4c3e
000002f0: a767 c73b ac0a cebd 3045 20be 90d5 8fbe
00000300: 88dd b03c f1ae ffbd 3fb2 8c3d 6506 563c
00000310: d4cb f5bc 26e8 40be a540 523d 7cec d03a
00000320: 420b 7b3d 5011 cdbd 324b f63c 2c54 bbbd
00000330: 94d5 ba3d ab2d f9bd c257 37bd d51d 273e
00000340: 0855 1b3e 7120 2dbe 5028 a43c b35c e13c
00000350: 1ea5 0abd c793 2f3d 9bd9 d13d 1d4f 013e
00000360: 5107 a5bd 93a7 63bd 88d4 80bd cc34 c9be
00000370: 85e2 25be a890 58be 6a91 43be 4964 c8bd
00000380: 6b68 2cbe c608 abba f48e cfbe a2a5 2bbd
00000390: 3cff acbe 6a45 0dbe 721f 35be ff0d 1abe
000003a0: 87c8 f0bd c6fb a3be 94bd 233d ab35 c3bd
000003b0: 2a9c ecbd 15d6 7abe 0c98 14be 5b1b d3be
000003c0: 0233 c03d f007 32be db90 023d 2782 02bb
000003d0: ec45 abbb bdb4 66be 287c ffbd 0b5b e43d
000003e0: dbf0 3dbe 148b 47be a8b4 673d 7e13 8e3c
000003f0: 6105 8b3c 94f9 cb3c 0a3a 47bc c819 fabc

combined_conv1.bias f4 [64]
0.07437132 -0.076083794 -0.019161245 -0.08087875 -0.024689564 0.028771497 -0.027901106 -0.099053845
-0.033344463 -0.09041286 0.05494345 -0.015233356 0.004815373 0.044201594 -0.06746815 -0.10415443
-0.050493453 -0.10606184 0.06490263 -0.020584006 -0.090065286 0.039517235 0.013166935 0.055690747
-0.033108637 0.031184822 -0.046026472 -0.100575745 -0.0019420752 -0.028514508 0.07643079 -0.047453992
-0.06805548 0.033664085 -0.032900505 -0.0025771717 -0.15368837 -0.10628786 -0.041352767 -0.12292912
0.045128237 -0.07160867 0.05284163 -0.05404021 -0.12119045 -0.07588997 0.03178058 0.0020609654
-0.023843504 -0.039308965 0.0198229 0.032200936 -0.024603294 -0.09707546 -0.06762132 -0.06512937
0.0056846924 -0.038469017 -0.09665204 0.031631567 0.006058289 0.024020506 0.031597644 -0.14003491
00000000: fe4f 983d d2d1 9bbd 0bf8 9cbc c2a3 a5bd
00000010: c541 cabc 34b2 eb3c dc90 e4bc bedc cabd
00000020: 3494 08bd 612a b9bd 620c 613d 5395 79bc
00000030: 47ca 9d3b bb0c 353d be2c 8abd eb4e d5bd
00000040: 39d2 4ebd f336 d9bd aceb 843d ca9f a8bc
00000050: 2674 b8bd d3dc 213d 21ba 573c fb1b 643d
00000060: ec9c 07bd 5077 ff3c 4186 3cbd a8fa cdbd
00000070: 3b8d feba 4297 e9bc bf87 9c3d 1e5f 42bd
00000080: ac60 8bbd 5ae3 093d aec2 06bd c4e5 28bb
00000090: 7c60 1dbe 73ad d9bd 8561 29bd 43c2 fbbd
000000a0: 63d8 383d 91a7 92bd 7770 583d 4459 5dbd
000000b0: b332 f8bd 336c 9bbd 5a2c 023d 4311 073b
000000c0: 7453 c3bc 7002 21bd a263 a23c 21e5 033d
000000d0: d98c c9bc 80cf c6bd 0c7d 8abd 8c62 85bd
000000e0: a846 ba3b b091 1dbd 81f1 c5bd 1a90 013d
000000f0: 9d84 c63b a7c6 c43c 886c 013d 5065 0fbe

combined_conv2.weight f4 [64, 64, 1, 3]
-0.024496827 -0.027545884 0.030910894 0.07492205 0.15444659 -0.055195786 -0.16490239 -0.06631955
-0.011075984 0.0095866155 0.096802264 -0.24084292 -0.08200701 -0.032064013 0.115329795 -0.0230616
-0.0060972488 0.079031974 0.16442348 -0.08172276 -0.034001682 0.20046167 0.0025066528 0.047961645
0.05243508 0.079262674 0.12772843 0.029832609 -0.09712193 0.023918193 -0.065532595 0.0119250305
0.09760539 -0.09746074 0.098345526 0.019216588 0.030204574 0.0021415157 -0.028684923 0.05690145
-0.06392222 -0.005083743 -0.13260642 -0.002752959 -0.15877458 0.075033434 -0.03371247 0.08407258
0.082090236 -0.1560324 0.10933679 0.028718406 -0.016477194 -0.022170693 -0.06325199 0.01817565
0.024838524 0.20326386 0.16246127 0.21072079 0.02530991 -0.074082755 -0.05225344 -0.014549103
-0.054883704 0.023116076 0.044168975 0.039020497 0.07507305 0.046356484 0.022883091 0.03357264
-0.043631803 -0.051059924 -0.07976355 0.032197833 -0.07201474 0.057298925 -0.00091594364 -0.05284059
-0.05856947 -0.09543171 -0.21725008 0.122753926 -0.039431185 0.052717052 0.07873145 0.008747831
0.005726443 0.010978151 -0.05565791 0.00014507383 0.008268333 -0.045552213 0.047475938 -0.024489442
-0.019381069 0.023832921 -0.0030683745 -0.088735074 -0.080450654 -0.038533214 -0.00024280166 -0.19857617
-0.12029881 -0.05159094 -0.10407815 -0.0864229 -0.015578941 -0.021299547 0.044832062 -0.073456235
0.05388075 -0.043341372 -0.06767092 0.03718621 -0.18586393 -0.09481622 0.05630787 0.036604784
-0.12517639 0.064499415 0.06623793 -0.14942272 -0.12780714 0.12514164 -0.22019221 -0.17757852
0.018218532 -0.097045794 -0.17084627 -0.03944596 -0.08492607 -0.09676651 0.080052406 -0.02562107
0.10607026 -0.050152734 -0.053032637 -0.42393628 -0.044710517 -0.0020552704 0.012621876 -0.026530966
0.018962575 -0.03849059 -0.12894484 -0.07249365 -0.017744647 -0.18917823 0.015318321 0.042987533
-0.15018706 -0.027014282 0.01564794 0.029710412 0.030243445 0.05097289 -0.053255584 0.08395245
-0.09034006 0.12672347 -0.14453453 -0.06357844 -0.058536608 -0.13293888 -0.012595885 -0.028857194
-0.11677515 -0.049125474 -0.03913546 0.031080563 -0.016858598 0.02419365 0.009434064 -0.03396096
-0.049631603 -0.025735306 -0.0009466365 0.03208771 0.014502153 0.013539104 0.058550905 0.047969345
-0.046954583 -0.020913929 0.05069897 0.09585284 -0.063336544 0.019956289 0.064607 -0.21666922
-0.033801213 -0.14561042 -0.14512518 0.029716883 -0.11480818 0.032013983 -0.026549887 -0.017525915
-0.0086899 -0.05813827 -0.25896522 0.02513754 -0.012240691 -0.09631928 0.07544018 -0.004015715
0.1118485 0.001225984 -0.048583835 0.05386667 0.03138157 0.25847867 -0.11565476 0.013960989
0.15188655 0.013605455 0.029966293 -0.02331216 0.0300066 -0.046207365 0.06440443 -0.014022195
0.0057286574 0.031052075 0.04418916 0.05482502 -0.0029581136 -0.047278773 0.015504021 0.08724835
-0.035556056 0.03451214 0.11568602 -0.10998477 -0.017653143 -0.032358762 -0.012548201 -0.053552285
0.08687834 -0.09974271 0.018141145 -0.01363751 0.013106648 -0.02960399 -0.010411976 -0.031922378
-0.092686124 0.09783499 0.18515584 0.15557125 -0.022895932 0.03163346 -0.12102751 0.01169473
00000000: 92ad c8bc e8a7 e1bc d838 fd3c bb70 993d
00000010: 3f27 1e3e fa14 62bd 2cdc 28be 8bd2 87bd
00000020: 0b78 35bc 2e11 1d3c 4440 c63d 879f 76be
00000030: 4bf3 a7bd 8e55 03bd 0732 ec3d aeeb bcbc
00000040: 6ecb c7bb 84db a13d a15e 283e 435e a7bd
00000050: 5945 0bbd d345 4d3e a846 243b 6e73 443d
00000060: 2bc6 563d 7854 a23d 3ecb 023e 8463 f43c
00000070: dde7 c6bd 16f0 c33c f435 86bd 3461 433c
00000080: 56e5 c73d 7f99 c7bd 6169 c93d 1b6c 9d3c
00000090: 956f f73c ac58 0c3b a5fc eabc 7f11 693d
000000a0: a7e9 82bd 8795 a6bb fac9 07be fd6a 34bb
000000b0: ce95 22be 21ab 993d 1616 0abd 3f2e ac3d
000000c0: ed1e a83d f5c6 1fbe f8eb df3d dd42 eb3c
000000d0: 2efb 86bc 509f b5bc 428a 81bd 1ae5 943c
000000e0: 297a cb3c 6724 503e 3f5c 263e 31c7 573e
000000f0: ba56 cf3c b3b8 97bd b407 56bd 5c5f 6ebc
00000100: bccd 60bd ed5d bd3c 87ea 343d f5d3 1f3d
00000110: e6bf 993d 4ce0 3d3d 5275 bb3c 7783 093d
00000120: 43b7 32bd 3624 51bd 125b a3bd e0e1 033d
00000130: 777c 93bd 47b2 6a3d f01b 70ba 606f 58bd
00000140: 8ae6 6fbd b371 c3bd ce76 5ebe 6966 fb3d
00000150: 9882 21bd d6ed 573d f43d a13d 1053 0f3c
00000160: e3a4 bb3b b4dd 333c 8cf9 63bd f61e 1839
00000170: e777 073c f594 3abd 2176 423d 159e c8bc
00000180: 0cc5 9ebc 423d c33c c816 49bb bcba b5bd
00000190: 50c3 a4bd 01d5 1dbd 9398 7eb9 8d57 4bbe
000001a0: 395f f6bd 0651 53bd ed26 d5bd 7dfe b0bd
000001b0: d13e 7fbc 637c aebc d3a1 373d 3970 96bd
000001c0: 10b2 5c3d b986 31bd 0d97 8abd 9150 183d
000001d0: 1d53 3ebe 022f c2bd 15a3 663d e6ee 153d
000001e0: 3d2e 00be 4518 843d c0a7 873d 4502 19be
000001f0: e0df 02be 2125 003e 117a 61be 25d7 35be
00000200: 083f 953c f2bf c6bd 53f2 2ebe 1692 21bd
00000210: b8ed adbd 852d c6bd 84f2 a33d 47e3 d1bc
00000220: 5d3b d93d f46c 4dbd c038 59bd 2d0e d9be
00000230: 6022 37bd b7b1 06bb fccb 4e3c 7857 d9bc
00000240: 6757 9b3c 4fa8 1dbd 1e0a 04be 8d77 94bd
00000250: 395d 91bc f0b7 41be b2f9 7a3c b213 303d
00000260: a3ca 19be 0e4d ddbc 1c30 803c 4063 f33c
00000270: 1ac1 f73c f3c8 503d 8722 5abd 43ef ab3d
00000280: 3604 b9bd ccc3 013e dc00 14be 6a35 82bd
00000290: 15c4 6fbd 2121 08be f95e 4ebc ec65 ecbc
000002a0: cf27 efbd cb37 49bd 814c 20bd aa9c fe3c
000002b0: 0b1b 8abc c331 c63c 5591 1a3c a61a 0bbd
000002c0: 824a 4bbd d9d2 d2bc b327 78ba 676e 033d
000002d0: 709a 6d3c 1ed3 5d3c 13d3 6f3d 817b 443d
000002e0: 7353 40bd b053 abbc b9a9 4f3d 7e4e c43d
000002f0: 97b6 81bd 5f7b a33c ad50 843d 89de 5dbe
00000300: 2473 0abd e61a 15be b29b 14be d270 f33c
00000310: 8d20 ebbd 1821 033d 267f d9bc 8292 8fbc
00000320: 1560 0ebc 6522 6ebd 1797 84be 3eed cd3c
00000330: 2e8d 48bc 0b43 c5bd 6280 9a3d 4296 83bb
00000340: d410 e53d 32b1 a03a d8ff 46bd 4ca3 5c3d
00000350: f689 003d 5157 843e 67dc ecbd a2bc 643c
00000360: 2688 1b3e 6ae9 5e3c df7b f53c 25f9 bebc
00000370: 67d0 f53c ef43 3dbd 78e6 833d 59bd 65bc
00000380: 76b7 bb3b ec60 fe3c b1ff 343d 3390 603d
00000390: e9dc 41bb 63a7 41bd 9404 7e3c 43af b23d
000003a0: 3aa3 11bd 9a5c 0d3d cbec ec3d b23f e1bd
000003b0: 539d 90bc 9f8a 04bd f896 4dbc a459 5bbd
000003c0: 45ed b13d e845 ccbd bd9c 943c dd6f 5fbc
000003d0: 44bd 563c 1184 f2bc fe96 2abc 0ac1 02bd
000003e0: 39d2 bdbd b65d c83d 7e99 3d3e 124e 1f3e
000003f0: 4090 bbbc 1692 013d 45dd f7bd 419b 3f3c

combined_conv2.bias f4 [64]
0.016293041 -0.04247866 -0.04644045 0.038525116 -0.038375393 -0.0010902565 0.01393374 -0.04106596
-0.04203061 -0.057634294 -0.042420648 -0.0085928785 -0.008498121 -0.009410016 -0.01832584 -0.0013425583
0.013481305 -0.015499805 -0.06766079 -0.033016723 -0.03367625 0.008696849 -0.010225613 -0.030611346
-0.02292674 -0.018960947 -0.011509682 -0.014729306 -0.05674649 -0.043813236 -0.013263898 0.028599765
-0.06791244 -0.01054648 -0.014996963 0.024343846 -0.027316397 -0.006146907 -0.043420464 0.011889809
0.014564327 -0.027436256 -0.025360549 0.004836643 0.034783594 -0.02819796 -0.08920511 -0.041230455
-0.016990148 -0.028519383 0.008108868 0.014519488 0.090726316 -0.018513665 -0.014533311 -0.033571333
-0.04768883 0.09832628 0.02085097 -0.0471143 -0.0324806 -0.033970036 -0.07509127 -0.036762554
00000000: fc78 853c 1afe 2dbd 5738 3ebd 83cc 1d3d
00000010: 842f 1dbd f0e6 8eba 574a 643c c834 28bd
00000020: 4a28 2cbd f011 6cbd 46c1 2dbd 25c9 0cbc
00000030: b43b 0bbc 782c 1abc 1220 96bc c8f8 afba
00000040: b1e0 5c3c e5f2 7dbc be91 8abd 8b3c 07bd
00000050: 1cf0 09bd 3b7d 0e3c 5489 27bc a5c4 fabc
00000060: dcd0 bbbc fd53 9bbc 1b93 3cbc 3053 71bc
00000070: 026f 68bd 8275 33bd d250 59bc 0e4a ea3c
00000080: ad15 8bbd 25cb 2cbc d2b5 75bc bf6c c73c
00000090: a3c6 dfbc fe6b c9bb a8d9 31bd 79cd 423c
000000a0: 379f 6e3c 00c2 e0bc edc0 cfbc b47c 9e3b
000000b0: 3e79 0e3d 69ff e6bc 2bb1 b6bd 44e1 28bd
000000c0: ec2e 8bbc 7ba1 e9bc 0fdb 043c 26e3 6d3c
000000d0: b8ce b93d f8a9 97bc 201d 6ebc 1882 09bd
000000e0: 5d55 43bd 4a5f c93d a7cf aa3c edfa 40bd
000000f0: 610a 05bd 2a24 0bbd 74c9 99bd 5594 16bd

snv_conv1.weight f4 [8, 4, 3, 1]
0.034505907 0.33538795 0.0361038 0.040583108 0.29790214 -0.089993484 -0.051794253 -0.2934563
0.58309704 -0.02025394 -0.42128268 -0.1680758 0.44973835 0.09605088 1.2696804 0.26002824
-0.09978997 0.12325076 0.4139932 -0.004487793 0.0030987158 0.47205314 0.12200859 0.45997775
-0.34350574 -0.19676788 -0.2816003 -1.6871538 0.038272895 0.17507248 -1.0918633 0.25349572
-6.759262e-05 -1.3058107 0.2687414 -0.0072726803 -0.0671546 -0.019941848 -0.27940533 -0.086276464
-0.16786642 0.059537064 -0.17340715 0.0031814594 -0.0030012054 -0.19413261 0.084917955 -0.15696071
-0.644934 0.25177 0.098898076 -0.26213276 -0.07181201 0.5696217 0.009206737 0.11850744
1.3144237 -0.0010494717 0.33546978 -0.33428094 -0.06354826 0.12616526 0.48024115 -0.34658867
0.3475878 -0.6004638 0.042140763 0.2919812 -0.2861129 0.038280614 -0.13909398 -0.973199
0.34987965 -0.034827005 -0.03946786 0.25424883 0.0002432233 0.02291571 -0.19265087 0.3328728
0.7599405 -0.25991943 0.35435715 -0.0061473213 0.40066776 -0.08752341 0.28101993 0.43949035
0.049233977 1.1117117 0.37008086 0.068908736 0.16841054 0.33224264 -0.010304822 0.054644633
00000000: 1156 0d3d f8b7 ab3e 94e1 133d 793a 263d
00000010: a186 983e 814e b8bd 3626 54bd e73f 96be
00000020: d945 153f 97eb a5bc 5db2 d7be 101c 2cbe
00000030: 1b44 e63e 53b6 c43d e384 a23f 6c22 853e
00000040: af5e ccbd e56a fc3d ebf6 d33e 560e 93bb
00000050: d313 4b3b f3b0 f13e a4df f93d 3482 eb3e
00000060: fcdf afbe 857d 49be ea2d 90be a8f4 d7bf
00000070: 0ac4 1c3d 3346 333e 2dc2 8bbf 31ca 813e
00000080: 83c0 8db8 ce24 a7bf 7998 893e aa4f eebb
00000090: 5a88 89bd 165d a3bc 370e 8fbe b7b1 b0bd
000000a0: 2de5 2bbe 23dd 733d a591 31be 0880 503b
000000b0: dfaf 44bb b3ca 46be 77e9 ad3d 4fba 20be
000000c0: 651a 25bf ffe7 803e 138b ca3d 4436 86be
000000d0: 2d12 93bd bad2 113f dbd7 163c 07b4 f23d
000000e0: 093f a83f 6d8e 89ba b2c2 ab3e df26 abbe
000000f0: 9725 82bd 7731 013e 2be2 f53e 1274 b1be
00000100: 07f7 b13e ffb7 19bf cb9b 2c3d 8f7e 953e
00000110: 647d 92be 22cc 1c3d a76e 0ebe 9223 79bf
00000120: 6d23 b33e c3a6 0ebd 0da9 21bd e72c 823e
00000130: c209 7f39 bab9 bb3c 4546 45be 4e6e aa3e
00000140: 768b 423f 2914 85be 4d6e b53e 786f c9bb
00000150: 5324 cd3e 793f b3bd d8e1 8f3e e104 e13e
00000160: 91a9 493d 924c 8e3f 3d7b bd3e 0620 8d3d
00000170: d073 2c3e b51b aa3e 8ed5 28bc 0dd3 5f3d

snv_conv1.bias f4 [8]
-0.02723475 -0.0015898945 0.010028054 -0.15049896 0.29360762 0.06804661 -0.11665385 0.097101375
00000000: 691b dfbc 0264 d0ba b54c 243c 661c 1abe
00000010: bd53 963e 055c 8b3d 37e8 eebd 16dd c63d

snv_fc1.weight f4 [20, 8]
0.5020708 0.11413815 0.101653285 -0.3292769 0.40697166 0.121561065 -0.51716703 0.08913372
-0.8509431 -0.2978344 0.17668995 0.26029316 -0.11194222 -0.069481045 -0.44496506 -0.46094882
-0.0638248 0.24887514 0.039949186 0.020056505 -0.021089764 -0.19617371 -0.808936 0.13903841
-0.32600254 0.1825493 0.5114199 0.26564854 0.031534385 -0.26159006 -0.36165348 0.29138651
-0.16742998 -0.17989118 0.279685 -0.12137188 0.41994047 0.20180902 -0.16176048 -0.10590775
-0.4117162 -0.17746878 0.25716454 0.2344198 0.12938075 0.3348209 -0.0025048177 0.37300587
-0.14056626 -0.17388585 -0.18870121 0.17477468 -0.20783335 0.21265534 -0.05401363 0.20004725
-0.072821654 -0.030432548 0.21506414 0.34410068 -0.0376001 0.025690176 0.26174805 0.45305473
-0.4166538 -0.25318602 -0.3841047 0.186847 -0.097365655 0.008169517 0.23691328 -0.19398919
-0.59331125 0.34423342 -0.601793 -0.20134637 0.12347087 -0.38606614 -0.06403645 0.24900213
0.48725042 -0.23437087 -0.29365 0.11913464 0.21276134 0.15891254 0.21941164 0.077458106
-0.08161509 0.29785398 0.48288694 -0.18050332 -0.15766357 0.06469078 -0.35276744 -0.25700027
-0.16563176 0.21780613 -0.15627623 -0.14843255 0.5183429 0.40431237 -0.5134186 0.4151913
-0.13886051 0.39542067 -0.38648483 -0.10867261 0.2019028 -0.0019319991 0.5833808 -0.060174283
0.1949919 0.059656452 0.2566748 0.0052553327 -0.36337525 -0.22074702 0.1495895 0.00042691815
0.16799524 -0.074765526 0.4024862 -0.01501709 0.027351912 0.27620688 -0.4699858 0.134999
0.1076808 0.4735721 0.033437952 -0.335685 -0.15988863 -0.24984002 -0.19434662 0.47903806
0.121377654 -0.23526606 0.06006836 0.24808179 -0.33978254 -0.3407273 0.09903953 -0.1432493
-0.6052359 -0.16376394 0.10681791 0.00045788335 -0.2743972 -0.24312934 -0.22495785 -0.23326123
0.09266498 0.5120301 0.20496577 0.14567502 -0.32806665 0.28976354 0.35276332 0.23617527
00000000: b687 003f 43c1 e93d 992f d03d fb96 a8be
00000010: 975e d03e 02f5 f83d 0f65 04bf bd8b b63d
00000020: 68d7 59bf c07d 98be 36ee 343e 2545 853e
00000030: f641 e5bd 144c 8ebd 76d2 e3be 7c01 ecbe
00000040: 94b6 82bd 20d9 7e3e c2a1 233d 8a4d a43c
00000050: 71c4 acbc c3e1 48be 6e16 4fbf 1660 0e3e
00000060: cee9 a6be 34ee 3a3e 6aec 023f 1603 883e
00000070: 332a 013d 22ef 85be a52a b9be 9d30 953e
00000080: c472 2bbe 6535 38be df32 8f3e d291 f8bd
00000090: 7002 d73e 06a7 4e3e 8aa4 25be 2ae6 d8bd
000000a0: 77cc d2be 60ba 35be 12ab 833e be0b 703e
000000b0: 637c 043e a56d ab3e de27 24bb a0fa be3e
000000c0: 9af0 0fbe 220f 32be e43a 41be 22f8 323e
000000d0: 44d2 54be 52c2 593e 653d 5dbd 30d9 4c3e
000000e0: 8523 95bd ae4d f9bc c639 5c3e f72d b03e
000000f0: 9002 1abd 3474 d23c d703 863e caf6 e73e
00000100: a653 d5be 99a1 81be 5fa9 c4be d254 3f3e
00000110: a567 c7bd 70d9 053c 6599 723e 1aa5 46be
00000120: 3fe3 17bf 5d3f b03e 1b0f 1abf be2d 4ebe
00000130: 4cde fc3d 76aa c5be 8b25 83bd 6afa 7e3e
00000140: e378 f93e ebfe 6fbe 4b59 96be ddfc f33d
00000150: 1cde 593e f8b9 223e 72ad 603e 5ba2 9e3d
00000160: d025 a7bd 5180 983e f53c f73e ddd5 38be
00000170: 8f72 21be 9a7c 843d ef9d b4be 8a95 83be
00000180: 5f9b 29be 9208 5f3e e006 20be b4fe 17be
00000190: 1fb2 043f 0802 cf3e 676f 03bf f493 d43e
000001a0: 7331 0ebe 9474 ca3e 57e1 c5be bf8f debd
000001b0: 9cbf 4e3e 223b fdba 7258 153f 4f79 76bd
000001c0: f5ab 473e 535a 743d e16a 833e ed34 ac3b
000001d0: 520c babe 820b 62be fd2d 193e fcd3 df39
000001e0: f206 2c3e ab1e 99bd ac12 ce3e 3e0a 76bc
000001f0: 1e11 e03c fd6a 8d3e fba1 f0be 2e3d 0a3e
00000200: c087 dc3d 0b78 f23e 3cf6 083d e8de abbe
00000210: d8b9 23be 10d6 7fbe cd02 47be 7a44 f53e
00000220: d994 f83d 96e9 70be 3e0a 763d 2709 7e3e
00000230: faf7 adbe cf73 aebe 3dd5 ca3d f2af 12be
00000240: bdf0 1abf bcb1 27be 59c3 da3d 1010 f039
00000250: ca7d 8cbe e6f6 78be 5a5b 66be 08dc 6ebe
00000260: 23c7 bd3d 6814 033f 8ce2 513e d52b 153e
00000270: 5af8 a7be e35b 943e 659d b43e eed7 713e

snv_fc1.bias f4 [20]
-0.15627775 0.2815352 0.17578498 0.08727142 -0.112245485 0.018532054 -0.28826836 -0.053293046
0.11814717 0.06322947 -0.058288846 0.14147356 -0.1994463 -0.06504498 -0.24183936 0.33880556
-0.05482472 -0.052201696 0.30356306 0.02598674
00000000: 4607 20be 6225 903e fa00 343e 5cbb b23d
00000010: f6e0 e5bd 89d0 973c e997 93be cf49 5abd
00000020: 25f7 f13d 747e 813d 49c0 6ebd 72de 103e
00000030: a73b 4cbe 4d36 85bd bda4 77be ec77 ad3e
00000040: e38f 60bd 72d1 55bd 9e6c 9b3e 25e2 d43c

ref_cov_fc1_fwd.weight f4 [32, 61]
-0.23502684 -0.2341877 -0.030339539 -0.17799355 0.14244582 -0.038679145 -0.13474786 0.15908313
0.1891942 0.102356546 0.1443268 0.070613526 0.23279032 0.1791661 0.10601894 0.013761937
0.24163283 0.1899271 0.214615 -0.0034139974 0.16567233 0.009158171 0.10521033 0.09739976
0.06490086 -0.025657289 0.21071029 0.059721276 0.14336991 0.21924892 -0.034326028 -0.068701126
-0.18877274 0.1376339 -0.14805987 -0.17430153 -0.1750204 -0.19372301 -0.11673901 -0.07877247
0.05659463 -0.20798229 0.0785458 -0.114699446 -0.037628174 -0.13177954 -0.15490961 -0.18312073
-0.015773984 -0.12261603 -0.05981331 -0.032132044 0.037400097 -0.05536795 -0.11957905 -0.11317634
0.0035346663 -0.02982101 -0.020358687 0.07912177 0.022631586 0.11799728 0.06444487 0.02816445
0.060617547 -0.057394773 -0.059581272 0.10907284 0.082994066 0.040053573 -0.117009886 -0.09155062
0.05865835 0.06679035 -0.021185135 -0.04312378 0.010434311 -0.013526525 -0.07539587 -0.09771811
-0.094574094 -0.103424095 -0.10545372 -0.092400014 -0.11460609 -0.119847186 -0.024676118 0.031301875
0.00097414444 -0.0138239 -0.032436725 -0.008897748 -0.095458314 -0.09986443 0.062137578 -0.11116082
-0.07599554 -0.11345143 -0.044645704 -0.021341171 -0.12330029 -0.0028393343 -0.07562214 -0.09254857
0.10294558 -0.012521994 0.068628825 -0.0035938392 -0.10662192 -0.00403435 -0.0809841 0.1104402
0.08580998 -0.09303922 -0.028820284 0.019572807 -0.100771554 -0.11361661 0.0021268334 0.066825695
0.12520538 0.099991925 -0.081644595 -0.15512767 -0.08320505 0.09207318 -0.16227363 0.034383573
-0.034233104 -0.09862381 -0.0510504 -0.13098508 0.040129732 0.017784566 0.057223 0.071356386
0.01998231 0.057473976 0.020346045 -0.10585561 0.0154654905 -0.0019696066 -0.10860971 -0.07302627
0.049462825 -0.029060459 0.04849164 -0.022590416 0.16603887 0.16863608 0.1862018 0.28427657
0.06543065 0.19294812 0.1438513 0.119874574 -0.06863979 -0.054448824 0.080334716 0.09007532
-0.098080344 -0.056558352 0.111964695 0.10511748 0.15619245 0.098914765 -0.08880875 0.04190029
0.03020414 -0.061035704 -0.10032419 0.08311122 0.07697555 -0.07223964 -0.054056026 0.14070144
0.122759566 -0.024884371 0.04621838 -0.06638017 0.053453784 -0.06474807 -0.0537637 -0.00049984053
0.051118523 0.08019437 -0.050836172 -0.16546324 0.05880411 0.10080522 0.03215131 -0.11941294
-0.030786324 0.02613778 0.00030657067 0.069287114 -0.07454298 0.03925788 -0.08175194 0.12825003
0.068550624 -0.063104 0.12071952 0.16504093 -0.057944242 0.16984375 0.076155245 0.021951396
-0.011609424 0.10874955 0.078344636 0.111044414 0.18313135 0.08856635 0.085132055 0.058139496
0.031506225 -0.078633614 -0.087454945 0.102578305 0.0677883 0.0066797766 0.1154853 0.018667148
-0.026726788 0.06802181 0.114234574 0.0854852 -0.0559919 0.11729745 0.097794846 -0.005058719
0.00910114 0.080565564 -0.060666174 -0.023793247 0.14845823 0.013516878 -0.038039498 -0.032163363
0.064232625 0.08609182 -0.097465925 -0.010137963 -0.023159927 0.03784296 0.15629399 0.16324128
0.016674917 -0.0052829664 0.0149578005 0.0135057345 0.04723713 0.033839475 -0.081378065 0.058608487
00000000: e0aa 70be e7ce 6fbe a08a f8bc f143 36be
00000010: 51dd 113e 066e 1ebd 58fb 09be b0e6 223e
00000020: 20bc 413e 4fa0 d13d 68ca 133e d39d 903d
00000030: 9660 6e3e 5177 373e 7520 d93d bf79 613c
00000040: 996e 773e 407c 423e 09c4 5b3e 5fbd 5fbb
00000050: 02a6 293e 270c 163c 8378 d73d 8679 c73d
00000060: beea 843d 3c2f d2bc 70c4 573e 4c9e 743d
00000070: 90cf 123e ca82 603e 7399 0cbd 2db3 8cbd
00000080: a44d 41be e7ef 0c3e 029d 17be 1a7c 32be
00000090: 8c38 33be 535f 46be dd14 efbd 7653 a1bd
000000a0: c5cf 673d 4ff9 54be 9fdc a03d 8be7 eabd
000000b0: 0020 1abd 37f1 06be a0a0 1ebe 0084 3bbe
000000c0: 7138 81bc 1d1e fbbd cdfe 74bd e49c 03bd
000000d0: d830 193d 81c9 62bd dce5 f4bd ffc8 e7bd
000000e0: dca5 673b 314b f4bc 43c7 a6bc 980a a23d
000000f0: e065 b93c 8fa8 f13d acfb 833d 22b9 e63c
00000100: 1b4a 783d c816 6bbd 7e0b 74bd 9561 df3d
00000110: cbf8 a93d 370f 243d e1a2 efbd e47e bbbd
00000120: bd43 703d 61c9 883d 738c adbc 90a2 30bd
00000130: acf4 2a3c 5c9e 5dbc 2669 9abd 6f20 c8bd
00000140: 10b0 c1bd 03d0 d3bd 1ff8 d7bd 383c bdbd
00000150: 99b6 eabd 7172 f5bd 9225 cabc 6536 003d
00000160: ba5d 7f3a a47d 62bc 5fdc 04bd dcc7 11bc
00000170: a67f c3bd b985 ccbd f983 7e3d 49a8 e3bd
00000180: 8da3 9bbd 3959 e8bd 6ade 36bd aed3 aebc
00000190: dd84 fcbd 2014 3abb c8df 9abd 1b8a bdbd
000001a0: 22d5 d23d 0d29 4dbc 458d 8c3d 9e86 6bbb
000001b0: 985c dabd 9532 84bb feda a5bd 792e e23d
000001c0: 25bd af3d 598b bebd 8418 ecbc 2757 a03c
000001d0: 5161 cebd d3af e8bd 5862 0b3b e9db 883d
000001e0: d735 003e 91c8 cc3d 4835 a7bd cad9 1ebe
000001f0: 6967 aabd dd90 bc3d 0f2b 26be cad5 0c3d
00000200: 0338 0cbd 48fb c9bd 391a 51bd f420 06be
00000210: 135f 243d f0b0 913c aa62 6a3d 4c23 923d
00000220: f1b1 a33c d569 6b3d c0ac a63c d3ca d8bd
00000230: f862 7d3c 8414 01bb c56e debd cc8e 95bd
00000240: 8899 4a3d 3310 eebc 2b9f 463d 890f b9bc
00000250: 1806 2a3e f0ae 2c3e afab 3e3e b38c 913e
00000260: 8100 863d 3194 453e c14d 133e cd80 f53d
00000270: 0593 8cbd bb05 5fbd 8786 a43d 6979 b83d
00000280: 59de c8bd bba9 67bd bf4d e53d d547 d73d
00000290: eaf0 1f3e d393 ca3d 5de1 b5bd a39f 2b3d
000002a0: ac6e f73c 9300 7abd c576 cdbd 3736 aa3d
000002b0: 5ba5 9d3d 60f2 93bd da69 5dbd 0a14 103e
000002c0: 5e69 fb3d 4fda cbbc 7c4f 3d3d 54f2 87bd
000002d0: 5bf2 5a3d a39a 84bd 5337 5cbd bb07 03ba
000002e0: a861 513d f23c a43d 9739 50bd 326f 29be
000002f0: 94dc 703d f872 ce3d 18b1 033d c68e f4bd
00000300: 9a33 fcbc e61e d63c 38bb a039 67e6 8d3d
00000310: fda9 98bd dfcc 203d 906d a7bd fa53 033e
00000320: 4564 8c3d ac3c 81bd cc3b f73d 7d00 293e
00000330: f156 6dbd 85eb 2d3e 48f7 9b3d 6ad3 b33c
00000340: 7435 3ebc 16b8 de3d 2773 a03d 416b e33d
00000350: c986 3b3e 4662 b53d b759 ae3d ae23 6e3d
00000360: ac0c 013d a90a a1bd 941b b3bd 9314 d23d
00000370: 98d4 8a3d 07e2 da3b 8f83 ec3d d9eb 983c
00000380: 23f2 dabc 054f 8b3d d1f3 e93d dd12 af3d
00000390: c357 65bd a539 f03d aa48 c83d 9cc3 a5bb
000003a0: f31c 153c 8fff a43d 187d 78bd 0eea c2bc
000003b0: 6f05 183e e575 5d3c 4ecf 1bbd bbbd 03bd
000003c0: 658c 833d e850 b03d 379c c7bd b319 26bc
000003d0: e3b9 bdbc 3801 1b3d 880b 203e b928 273e
000003e0: d699 883c bc1c adbb 9011 753c 2847 5d3c
000003f0: b97b 413d 439b 0a3d 8ba9 a6bd 740f 703d

ref_cov_fc1_fwd.bias f4 [32]
-0.08991305 -0.04097076 0.0429152 0.121805295 0.12642835 -0.11144537 0.03294909 -0.011929357
0.11458972 0.16843095 0.053949088 0.14106612 0.12219503 -0.093598835 -0.006414477 0.05974831
0.0031886047 0.09171666 -0.006954203 0.093776576 -0.35816187 0.039186932 0.022897411 0.034030303
-0.11569295 -0.033769164 0.026033754 0.052385762 -0.049274128 -0.007347258 -0.16125928 0.10286269
00000000: 5524 b8bd f5d0 27bd d9c7 2f3d 0e75 f93d
00000010: 6f76 013e 783d e4bd a0f5 063d 5a73 43bc
00000020: 04ae ea3d 2a79 2c3e b8f9 5c3d a373 103e
00000030: 6341 fa3d bfb0 bfbd 8830 d2bb a5ba 743d
00000040: e9f7 503b f2d5 bb3d 15e0 e3bb ef0d c03d
00000050: fe60 b7be 7a82 203d 5a93 bb3c 5c63 0b3d
00000060: 6df0 ecbd 8951 0abd bd44 d53c 7492 563d
00000070: abd3 49bd 44c1 f0bb 2721 25be ada9 d23d

ref_cov_fc1_rev.weight f4 [32, 61]
0.046148688 -0.07267448 0.13328768 -0.056013957 -0.10690593 -0.02656427 0.07215721 0.056822717
0.08803801 -0.002100663 0.0795001 -0.023349402 0.12915504 0.18457976 0.032023307 -0.010379395
0.001668164 -0.008022644 0.0006649138 0.016105102 -0.08780847 -0.11943351 -0.12815085 -0.06281682
0.15769526 0.022492047 0.081475705 0.14393313 0.1939708 0.32018596 -0.0032344072 0.018875778
0.06040699 0.068347074 0.0911731 0.03591982 0.07999949 -0.08826647 0.10758999 0.01193956
0.036650587 -0.074479386 0.07620738 -0.00633387 0.12998044 0.11188607 -0.0013126472 -0.115669206
-0.041362237 -0.11015271 -0.099065535 -0.031019932 0.11679182 -0.06306816 0.02580007 0.09928513
-0.06595265 0.187735 0.11044014 -0.07218691 0.08761213 -0.07073252 -0.007899826 -0.061609637
0.045304183 -0.06656585 -0.1116685 -0.039158616 -0.1067705 0.08313758 -0.04955064 -0.14211445
-0.13579229 -0.058143534 0.16310707 0.048462227 0.08228282 0.031734657 -0.038506147 -0.12394573
-0.026926773 -0.057278328 -0.09453159 -0.14027746 0.1328607 0.16184121 0.24131703 0.05847223
0.1717635 0.24575527 0.16862176 -0.017926253 0.06282948 0.0941094 0.020446109 0.039949283
0.16485196 0.03874309 0.04598676 -0.06304722 0.11785159 0.017380482 -0.08685823 -0.023014404
0.03681763 -0.018961616 0.05405439 0.061203368 -0.044820152 0.046682853 -0.02056152 0.0392778
0.075598545 0.12697394 0.0876904 0.013345904 -0.054937858 0.10764843 0.14024203 0.016326016
0.00870139 0.13460547 0.058985777 0.05358405 0.05935698 0.006582144 0.027624944 0.087465815
-0.117956586 -0.023503829 0.08708551 0.0088207815 -0.016411565 -0.11394177 -0.10227829 -0.065001726
-0.08714017 -0.08238892 -0.12039618 -0.069922455 0.028360438 -0.007047799 0.06786082 -0.072893284
-0.018031208 -0.051914923 0.08534391 0.018181233 -0.11647978 0.008436304 -0.014925743 -0.013991682
-0.018509122 -0.033160064 -0.121471606 -0.07894098 -0.010591165 -0.085246496 0.033081617 -0.06734261
-0.06440852 -0.076923095 -0.004105446 -0.054615404 -0.0087678125 0.092892244 0.05831423 -0.05213352
0.035774343 -0.018703485 -0.02881424 0.020753227 -0.062133837 0.015101451 -0.0599322 -0.021533884
0.05867273 -0.10815353 0.017106125 0.09953588 -0.095048055 -0.051486757 0.0866872 0.1039197
-0.0941595 -0.046020534 -0.014426757 0.002470465 0.09621026 -0.0037413628 -0.023376338 0.03183807
-0.003662031 -0.111215964 -0.08237863 -0.09365419 0.02081678 -0.05891298 -0.13352646 -0.082569696
0.017874813 -0.048036456 0.005518665 -0.021205895 0.029780637 -0.07630058 -0.057957508 0.14731243
0.058446627 -0.073114984 0.05061829 0.11596032 0.2756336 0.13098651 0.09144664 -0.07984368
0.014261407 -0.030151999 0.10076887 0.11032822 0.03233574 -0.052459937 -0.10100374 0.024386458
-0.09796868 0.04411897 -0.05842009 0.11574324 0.0935167 -0.00075869774 0.0486017 -0.11407129
-0.066314496 0.1401349 -0.041030407 0.017682489 -0.097919114 -0.06568728 0.056747653 -0.007145004
0.06101956 -0.010392483 0.0708512 -0.047723256 0.014029463 -0.10149857 0.04341239 0.12502953
0.17774038 0.028477155 0.05418454 0.07996691 0.06744382 0.1352903 -0.005212006 0.06821682
00000000: 6806 3d3d 5cd6 94bd 917c 083e e46e 65bd
00000010: 7ff1 dabd 509d d9bc 29c7 933d f0be 683d
00000020: 464d b43d 47ab 09bb f3d0 a23d 3f47 bfbc
00000030: 3841 043e 7a02 3d3e df2a 033d 570e 2abc
00000040: 4ca6 da3a 6871 03bc 9c4d 2e3a d9ee 833c
00000050: edd4 b3bd 8e99 f4bd fa39 03be 1ba6 80bd
00000060: de7a 213e 3e41 b83c bcdc a63d 3563 133e
00000070: 48a0 463e 6aef a33e 59f8 53bb 60a1 9a3c
00000080: 526d 773d 8df9 8b3d f6b8 ba3d a920 133d
00000090: c6d6 a33d 0dc5 b4bd 2458 dc3d 259e 433c
000000a0: ed1e 163d a688 98bd 9d12 9c3d 5a8c cfbb
000000b0: 9819 053e 8624 e53d 220d acba fae3 ecbd
000000c0: 736b 29bd be97 e1bd dfe2 cabd 831d febc
000000d0: 8d30 ef3d e129 81bd ab5a d33c 0156 cb3d
000000e0: 2f12 87bd 9b3d 403e 712e e23d bbd6 93bd
000000f0: fd6d b33d 36dc 90bd 466e 01bc 635a 7cbd
00000100: e190 393d ad53 88bd 74b2 e4bd c964 20bd
00000110: 7eaa dabd 0944 aa3d 9df5 4abd 7386 11be
00000120: 220d 0bbe ea27 6ebd 8a05 273e 5480 463d
00000130: e583 a83d 33fc 013d 9fb8 1dbd 42d7 fdbd
00000140: 8995 dcbc ae9c 6abd c799 c1bd e5a4 0fbe
00000150: a30c 083e b4b9 253e d01b 773e 9480 6f3d
00000160: c5e2 2f3e 45a7 7b3e 2fab 2c3e 14da 92bc
00000170: beac 803d 6ebc c03d 997e a73c dca1 233d
00000180: f4ce 283e 13b1 1e3d 9d5c 3c3d e71e 81bd
00000190: 2d5c f13d 8361 8e3c bae2 b1bd b488 bcbc
000001a0: 15ce 163d 6455 9bbc 2368 5d3d 62b0 7a3d
000001b0: 5695 37bd 8536 3f3d a270 a8bc c2e1 203d
000001c0: 69d3 9a3d 7505 023e 0697 b33d c7a8 5a3c
000001d0: 8506 61bd c876 dc3d 9b9b 0f3e 23be 853c
000001e0: 4690 0e3c 04d6 093e 129b 713d f37a 5b3d
000001f0: 4e20 733d 07af d73b b54d e23c 4721 b33d
00000200: 3993 f1bd 1a8b c0bc e359 b23d 0a85 103c
00000210: 8c71 86bc 4d5a e9bd 4877 d1bd a01f 85bd
00000220: 8c76 b2bd 86bb a8bd 4692 f6bd 8133 8fbd
00000230: 2654 e83c 39f1 e6bb 9dfa 8a3d 1349 95bd
00000240: 2fb6 93bc bea4 54bd cac8 ae3d cff0 943c
00000250: f38c eebd 6c38 0a3c 1b8b 74bc 5e3d 65bc
00000260: 71a0 97bc d9d2 07bd 1bc6 f8bd cfab a1bd
00000270: 9186 2dbc b795 aebd 9780 073d ecea 89bd
00000280: 9de8 83bd db89 9dbd fa86 86bb 67b4 5fbd
00000290: dfa6 0fbc 4a3e be3d e7da 6e3d f589 55bd
000002a0: 1e88 123d 0d38 99bc d70b ecbc ac02 aa3c
000002b0: 0d80 7ebd 146c 773c 777b 75bd d467 b0bc
000002c0: d152 703d 997f ddbd 2522 8c3c 78d9 cb3d
000002d0: 8ea8 c2bd c7e3 52bd 0f89 b13d dad3 d43d
000002e0: b2d6 c0bd 0780 3cbd 345e 6cbc 86e7 213b
000002f0: e309 c53d a731 75bb bc7f bfbc a368 023d
00000300: affe 6fbb 32c5 e3bd 21b6 a8bd c5cd bfbd
00000310: f487 aa3c bd4e 71bd 29bb 08be 4d1a a9bd
00000320: 336e 923c e0c1 44bd ebd5 b43b fcb7 adbc
00000330: 86f6 f33c 7a43 9cbd da64 6dbd 12d9 163e
00000340: bb65 6f3d 4fbd 95bd 2055 4f3d 9b7c ed3d
00000350: d91f 8d3e 5421 063e 6048 bb3d 1585 a3bd
00000360: ada8 693c 5301 f7bc e95f ce3d c3f3 e13d
00000370: 7b72 043d 3be0 56bd 0ddb cebd 1cc6 c73c
00000380: cea3 c8bd 18b6 343d e749 6fbd cb0a ed3d
00000390: af85 bf3d 58e3 46ba 9412 473d 359e e9bd
000003a0: e5cf 87bd 867f 0f3e 800f 28bd deda 903c
000003b0: d189 c8bd 0d87 86bd 3a70 683d a320 eabb
000003c0: a5ef 793d 3c45 2abc 6f1a 913d 7679 43bd
000003d0: d5db 653c 7bde cfbd 31d1 313d be07 003e
000003e0: 9301 363e ec48 e93c 9cf0 5d3d b1c5 a33d
000003f0: fc1f 8a3d 8a89 0a3e 7ac9 aabb 43b5 8b3d

ref_cov_fc1_rev.bias f4 [32]
0.04162728 0.03170161 -0.032955773 -0.22766799 0.12440325 0.110635005 0.0055638263 0.040905666
0.0901105 0.022020036 0.004301723 0.17749505 -0.16205345 -0.12437334 -0.0060628173 0.015614585
-0.058335807 0.11676875 -0.049906198 0.0600709 0.05308892 -0.0077578663 0.022473548 0.06875111
0.11322568 0.016437607 0.10420452 0.11050347 0.026483193 0.020535685 0.088555306 0.035389584
00000000: 5e81 2a3d 8cd9 013d a2fc 06bd cc21 69be
00000010: 22c7 fe3d 9b94 e23d c250 b63b b38c 273d
00000020: db8b b83d 5d63 b43c 78f5 8c3b 43c1 353e
00000030: 57f1 25be 73b7 febd 99aa c6bb 51d4 7f3c
00000040: 87f1 6ebd 7424 ef3d 716a 4cbd e70c 763d
00000050: c473 593d b335 febb 721a b83c 62cd 8c3d
00000060: dee2 e73d 29a8 863c 2e69 d53d a54f e23d
00000070: 48f3 d83c 743a a83c 7c5c b53d abf4 103d

ref_cov_fc2.weight f4 [16, 64]
-0.005316481 0.06721255 0.019815516 0.046909373 -0.08577427 0.039730534 -0.11899431 0.07039453
-0.07167578 -0.12850364 -0.089122795 -0.094291106 -0.061260186 -0.07806982 0.05465702 -0.06842369
-0.01370953 0.075855225 -0.053983442 -0.11030747 0.12006807 -0.037439846 0.012071013 -0.1295866
-0.06466844 -0.099403456 0.040422324 -0.0789375 0.008445352 0.05093483 -0.06451853 0.07729245
-0.045502357 -0.11486418 0.03237796 -0.025863118 0.094347216 -0.051147662 -0.1287973 0.020096175
0.08556192 0.0393072 -0.01712929 -0.06408374 -0.08941408 -0.08462325 -0.10799795 -0.10111395
-0.02373305 -0.015045989 -0.07940534 0.07307305 0.08286446 -0.029146176 0.070818186 -0.031071104
-0.020291615 -0.088249736 -0.0055208774 -0.0136175435 0.020240838 0.051348507 -0.082969815 0.05317646
0.18784268 0.02016414 -0.084809706 0.12451101 0.14943747 0.08388758 -0.09577613 -0.15809889
0.06922161 0.10043138 0.089479186 0.04449833 -0.00049865537 0.01995453 -0.090381384 0.014275027
0.1374902 0.10339915 -0.13902846 -0.08572864 0.101118356 0.010714087 0.21837243 0.13032341
-0.20320652 0.0391943 -0.020395106 -0.20854406 -0.0663767 -0.1833707 -0.17770113 0.14008382
-0.05315835 -0.100969106 -0.11743283 -0.26248425 0.13806722 0.15049587 -0.21589652 -0.1438094
0.06760958 0.29865366 0.044215098 0.032476578 -0.28766146 0.06653169 0.41264528 -0.03849424
0.09054162 0.1624086 -0.1260295 -0.003258768 0.11955932 -0.09846821 0.044133805 0.016629172
0.12923327 0.008864598 -0.050988168 0.1864675 0.055007227 -0.12693256 0.104056664 0.036297686
-0.065852515 0.08126809 -0.045058586 0.16103001 0.14233865 -0.02357332 -0.06560413 0.047587954
0.09953658 -0.01836102 -0.009106124 0.15848066 0.1445808 -0.072711475 -0.047833696 0.03814541
-0.2977962 0.06917102 -0.054850675 0.025687123 -0.4302923 -0.14349401 -0.41542262 -0.13512966
-0.055802368 -0.08972629 -0.120686695 -0.057331 -0.07623027 -0.002273338 -0.10157018 0.037422307
0.12431648 0.013155892 0.08042573 0.050682567 -0.16169833 -0.09868854 0.049713008 0.06932412
-0.396419 -1.0155516 0.10666971 -0.27687204 -0.18535826 0.028376907 0.12802278 0.13451338
0.021759659 -0.2432075 0.10802817 0.06086421 0.06309764 -0.01743665 -0.4138508 0.0012394888
0.13621496 0.061735574 -0.00563209 -0.12775713 0.17476615 -0.058999345 -0.32980996 -0.3678459
0.21221961 0.019117506 -0.13352561 -0.0023350439 -0.030975578 0.10955918 -0.09904352 -0.112091154
0.09359179 0.0071841488 0.17385288 0.059503894 0.0626819 0.0641259 -0.08730339 0.044035684
0.28864872 -0.13451976 -0.23549362 0.060367446 0.084749706 -0.02679773 0.1412547 0.11178587
-0.1879721 -0.020809159 0.13528483 -0.045001008 0.097966716 -0.025660768 -0.066246934 0.08532562
0.022433383 -0.16076605 0.07707136 -0.065723814 -0.03153319 0.09202799 -0.1723775 0.065067805
0.061730098 0.27453923 -0.012687016 0.033068255 -0.226018 -0.046179935 0.31241834 -0.10656103
0.080138944 0.1423987 0.06676019 0.012536417 0.05738615 -0.015587061 0.13554692 -0.087531224
0.124541245 -0.17321056 0.042566393 0.09398906 -0.1033965 -0.06263839 0.115151405 0.27885556
00000000: e035 aebb bca6 893d 2654 a23c 0b24 403d
00000010: 6caa afbd 7cbc 223d 4ab3 f3bd 022b 903d
00000020: c0ca 92bd 7596 03be 0386 b6bd b21b c1bd
00000030: f6eb 7abd 12e3 9fbd 0ae0 5f3d b821 8cbd
00000040: f09d 60bc fc59 9b3d be1d 5dbd e2e8 e1bd
00000050: 40e6 f53d 865a 19bd 80c5 453c 5ab2 04be
00000060: e370 84bd 0a94 cbbd e191 253d fca9 a1bd
00000070: 605e 0a3c 0aa1 503d 4b22 84bd 814b 9e3d
00000080: ae60 3abd e93d ebbd c09e 043d e4de d3bc
00000090: 1d39 c13d 3680 51bd 70e3 03be bca0 a43c
000000a0: 173b af3d 9600 213d ba52 8cbc 563e 83bd
000000b0: bb1e b7bd f44e adbd 072e ddbd d514 cfbd
000000c0: d06b c2bc 7483 76bc 449f a2bd 53a7 953d
000000d0: d8b4 a93d f6c3 eebc 2009 913d d488 febc
000000e0: 9a3a a6bc 47bc b4bd 7ae8 b4bb 1e1c 5fbc
000000f0: 1dd0 a53c d052 523d 14ec a9bd 8fcf 593d
00000100: d559 403e 442f a53c b6b0 adbd a1ff fe3d
00000110: 2306 193e 40cd ab3d 4726 c4bd ade4 21be
00000120: 0fc4 8d3d f8ae cd3d dd40 b73d e243 363d
00000130: 32b8 02ba af77 a33c e019 b9bd cee1 693c
00000140: 3bca 0c3e efc2 d33d 7a5d 0ebe 7f92 afbd
00000150: 2417 cf3d 238a 2f3c 069d 5f3e 8073 053e
00000160: 5f15 50be 348a 203d a313 a7bc 938c 55be
00000170: 82f0 87bd 87c5 3bbe 49f7 35be 2272 0f3e
00000180: 92bc 59bd e4c8 cebd a080 f0bd 5664 86be
00000190: 7e61 0d3e 971b 1a3e fa13 5dbe c542 13be
000001a0: e476 8a3d 22e9 983e e41a 353d 2906 053d
000001b0: 5d48 93be c441 883d 3e46 d33e 23ac 1dbd
000001c0: e36d b93d 714e 263e e10d 01be 0e91 55bb
000001d0: 84db f43d b3a9 c9bd a6c5 343d e739 883c
000001e0: ba55 043e d23c 113c f8d8 50bd 56f1 3e3e
000001f0: 424f 613d 9cfa 01be a91b d53d e2ac 143d
00000200: afdd 86bd e26f a63d 5a8f 38bd 0de5 243e
00000210: 39c1 113e d61c c1bc 755b 86bd 96eb 423d
00000220: d6d9 cb3d da69 96bc da31 15bc c148 223e
00000230: fd0c 143e c1e9 94bd 44ed 43bd 5d3e 1c3d
00000240: be78 98be 89a9 8d3d 1aab 60bd cd6d d23c
00000250: 464f dcbe 18f0 12be 46b2 d4be 6e5f 0abe
00000260: 0691 64bd 6bc2 b7bd 962a f7bd e9d3 6abd
00000270: 9e1e 9cbd 48fc 14bb 0704 d0bd 2248 193d
00000280: a399 fe3d cf8b 573c 3fb6 a43d 8698 4f3d
00000290: 3f94 25be 381d cabd de9f 4b3d cef9 8d3d
000002a0: 6ef7 cabe 98fd 81bf a675 da3d 2cc2 8dbe
000002b0: 8ece 3dbe b076 e83c 6718 033e e0bd 093e
000002c0: 5041 b23c 630b 79be e03d dd3d c04c 793d
000002d0: 5639 813d 4ed7 8ebc 41e4 d3be 5876 a23a
000002e0: ef7b 0b3e 71de 7c3d 658d b8bb c4d2 02be
000002f0: e6f5 323e 4ca9 71bd dadc a8be 4c56 bcbe
00000300: 1950 593e 519c 9c3c f0ba 08be 8907 19bb
00000310: 7fc0 fdbc 9060 e03d 54d7 cabd 0c90 e5bd
00000320: 0dad bf3d 0269 eb3b 7d06 323e 5bba 733d
00000330: 5e5f 803d 7154 833d 1fcc b2bd c35e 343d
00000340: c4c9 933e 8cbf 09be 3d25 71be db43 773d
00000350: 4191 ad3d ea86 dbbc 12a5 103e fdef e43d
00000360: c27b 40be f877 aabc 1b88 0a3e fa52 38bd
00000370: c6a2 c83d 8836 d2bc 79ac 87bd 33bf ae3d
00000380: 37c6 b73c db9f 24be 97d7 9d3d 359a 86bd
00000390: f228 01bd 2c79 bc3d ba83 30be 4542 853d
000003a0: b3d8 7c3d 6890 8c3e 34dd 4fbc 9472 073d
000003b0: 4371 67be 2c27 3dbd 4cf5 9f3e ab3c dabd
000003c0: e31f a43d f7d0 113e 91b9 883d 8b65 4d3c
000003d0: bd0d 6b3d df60 7fbc d0cc 0a3e 9243 b3bd
000003e0: 7b0f ff3d 1c5e 31be 195a 2e3d 567d c03d
000003f0: 8bc1 d3bd 8e48 80bd 80d4 eb3d 28c6 8e3e

ref_cov_fc2.bias f4 [16]
-0.096335515 0.043522578 0.17207542 0.17429899 0.08447415 0.09394203 0.12601653 0.0055297716
0.1728818 -0.07531028 0.10281161 -0.012211836 0.059075095 0.03021461 0.16318576 0.10064889
00000000: 8e4b c5bd bb44 323d 8a34 303e 6f7b 323e
00000010: c800 ad3d ae64 c03d 7a0a 013e 1633 b53b
00000020: ed07 313e 473c 9abd e58e d23d 2714 48bc
00000030: baf8 713d a184 f73c 2b1a 273e 0121 ce3d

alt_cov_fc1_fwd.weight f4 [32, 61]
-0.24304745 -0.103442006 -0.18810093 -0.2315704 -0.12682982 -0.029226797 -0.019648036 -0.1088365
-0.05334982 0.03241825 -0.011880161 0.076995656 0.086418554 0.14037506 -0.10485023 0.23636244
0.14633359 -0.034306753 0.11254032 0.08011613 -0.038047176 -0.06430318 -0.036057208 -0.051618725
0.14553657 0.16043286 -0.09618872 -0.11214412 0.068620555 -0.11958093 0.14289634 0.14162521
0.03308994 0.08574882 -0.105373755 -0.09180405 0.06700499 0.05351607 -0.01729075 0.02929391
-0.017754111 -0.0388039 0.10767982 0.19481537 0.076666094 0.08224793 -0.003998995 -0.05580594
-0.11665604 -0.032439996 0.08627606 0.07954944 0.1499475 0.06317988 -0.08495682 0.049482383
-0.09411464 -0.05772303 -0.2803356 -0.2537376 -0.32116085 0.005899906 -0.15677318 -0.046310887
-0.015979659 -0.08937495 0.0919057 0.04655897 -0.0036664647 -0.11926231 0.008837968 0.0031676288
0.039653078 0.08830964 -0.06334272 -0.050346784 0.07827021 0.001814046 0.08153288 -0.12550592
0.053251665 0.08194292 0.117742315 -0.08380739 -0.0018875981 0.1499502 0.08482666 0.083975874
0.112884134 0.19975367 0.15611432 0.13749063 -0.04185049 0.08783324 -0.012936215 0.0062767356
-0.09080957 -0.07175193 0.13846765 0.070638224 0.094314046 0.10907481 0.015567889 0.045910932
0.118128516 0.03687233 0.062289137 -0.017555077 -0.02963114 -0.079318956 0.08491822 -0.07731041
0.07615931 -0.11392399 -0.025583858 0.034755465 -0.09964046 0.08113841 0.07071368 0.08695739
-0.03844246 0.0072775 -0.0462654 -0.12306174 0.048377685 0.014405546 -0.0139224315 0.027663367
0.074109934 -0.032243006 -0.047415048 -0.047707804 -0.083378635 -0.04061344 0.013055551 0.052313417
-0.09780123 0.048767615 0.050530147 -0.031212276 -0.031199226 -0.056462362 -0.0026769016 -0.03180953
-0.054107834 0.11112132 0.08309813 0.05790456 0.09855412 0.016406706 -0.08129257 -0.068615876
-0.08125728 -0.094081424 -0.07691207 -0.06612487 0.092402965 -0.09675022 -0.009991602 -0.00660171
0.0053756484 -0.11794386 0.022955451 -0.107594416 -0.026449941 -0.082692094 -0.07327407 -0.11529132
0.009868108 -0.01656419 -0.022760937 -0.12021058 -0.03548593 0.074523255 0.09034144 0.032407712
-0.06336142 0.029675633 0.08195844 -0.105248675 -0.0019016251 0.005583365 0.008695254 0.04668572
-0.08604363 -0.15422037 -0.14649852 -0.017296778 -0.06063943 0.07277751 0.080721006 0.01740817
-0.10268315 -0.034659084 0.022010671 0.09391783 -0.013287401 0.017853577 -0.027912483 -0.07863641
0.09983033 0.051574863 0.038851157 0.112378776 -0.018012268 -0.022927595 0.12020795 -0.043221474
0.011655472 0.0115270475 0.031655177 0.20422167 0.17027809 0.067499876 -0.01890674 -0.041694228
0.1290819 0.0455316 0.08355773 0.009544978 0.006988243 0.08332716 0.026503459 -0.00011206185
0.064290226 0.04118304 -0.026037198 0.013380948 0.10982502 0.08990725 -0.0062266886 0.0437946
0.0477094 -0.11470785 0.047607634 0.048281558 0.08778656 0.059291128 -0.03792957 -0.06597918
0.063195 -0.12526953 -0.054234415 0.04298003 -0.030206434 -0.039704442 -0.02857427 0.01126431
0.06511487 -0.1522894 -0.011745208 0.052836467 -0.049049452 -0.13463262 0.0759524 -0.167503
00000000: 6ee1 78be 67d9 d3bd 889d 40be ca20 6dbe
00000010: addf 01be 096d efbc ebf4 a0bc ace5 debd
00000020: 5785 5abd 00c9 043d 02a5 42bc e6af 9d3d
00000030: 36fc b03d 7bbe 0f3e b8bb d6bd ff08 723e
00000040: 79d8 153e 3d85 0cbd 8a7b e63d ed13 a43d
00000050: 5bd7 1bbd 63b1 83bd b9b0 13bd 286e 53bd
00000060: 8a07 153e 8348 243e 97fe c4bd d1ab e5bd
00000070: ef88 8c3d d9e6 f4bd 6b53 123e 3306 113e
00000080: 5189 073d 149d af3d 32ce d7bd c303 bcbd
00000090: ea39 893d ab33 5b3d 55a5 8dbc c8f9 ef3c
000000a0: 1271 91bc d7f0 1ebd 3d87 dc3d ae7d 473e
000000b0: 1d03 9d3d 9a71 a83d 000a 83bb c594 64bd
000000c0: 5de9 eebd cddf 04bd 81b1 b03d d1ea a23d
000000d0: d68b 193e 7464 813d d7fd adbd 0aae 4a3d
000000e0: 2dbf c0bd fc6e 6cbd 2688 8fbe e5e9 81be
000000f0: 326f a4be 0054 c13b 2689 20be 7cb0 3dbd
00000100: c6e7 82bc 370a b7bd 0e39 bc3d 9eb4 3e3d
00000110: 1249 70bb cc3f f4bd 20cd 103c fe97 4f3b
00000120: 446b 223d afdb b43d d4b9 81bd 6e38 4ebd
00000130: 224c a03d 48c5 ed3a b6fa a63d a084 00be
00000140: 6b1e 5a3d b1d1 a73d e222 f13d 35a3 abbd
00000150: 4869 f7ba 8c8c 193e 9ab9 ad3d 8bfb ab3d
00000160: cc2f e73d 3a8c 4c3e 6fdc 1f3e 58ca 0c3e
00000170: 6b6b 2bbd eae1 b33d 6bf2 53bc 13ad cd3b
00000180: 5efa b9bd adf2 92bd 77ca 0d3e c6aa 903d
00000190: b927 c13d 9d62 df3d 7610 7f3c 1a0d 3c3d
000001a0: 5ded f13d 7107 173d e522 7f3d aacf 8fbc
000001b0: 01bd f2bc fa71 a2bd 9be9 ad3d ec54 9ebd
000001c0: 6af9 9b3d fb50 e9bd 3d95 d1bc bf5b 0e3d
000001d0: 4c10 ccbd e52b a63d 55d2 903d b716 b23d
000001e0: d775 1dbd 1878 ee3b ca80 3dbd cb07 fcbd
000001f0: ae27 463d 3d05 6c3c e91a 64bc 499e e23c
00000200: f3c6 973d 3e11 04bd 4836 42bd 4269 43bd
00000210: 6bc2 aabd 475a 26bd f3e6 553c 9846 563d
00000220: 034c c8bd 8dc0 473d b3f8 4e3d e3b0 ffbc
00000230: 8595 ffbc 1445 67bd f56e 2fbb b64a 02bd
00000240: 2da0 5dbd 9393 e33d 5a2f aa3d 552d 6d3d
00000250: bed6 c93d 5b67 863c b87c a6bd 7b86 8cbd
00000260: 386a a6bd c3ad c0bd 1384 9dbd 7a6c 87bd
00000270: c43d bd3d fb24 c6bd d1b3 23bc 2853 d8bb
00000280: 3526 b03b 8d8c f1bd 120d bc3c 765a dcbd
00000290: 8cad d8bc 795a a9bd b710 96bd db1d ecbd
000002a0: d8ad 213c a0b1 87bc 2575 babc f730 f6bd
000002b0: b259 11bd a69f 983d ef04 b93d f3bd 043d
000002c0: a2c3 81bd 501a f33c d4d9 a73d 9e8c d7bd
000002d0: f33f f9ba a9f4 b63b 8a76 0e3c 8739 3f3d
000002e0: a537 b0bd f2eb 1dbe b503 16be f9b1 8dbc
000002f0: 0d61 78bd 600c 953d 0e51 a53d 949b 8e3c
00000300: 8b4b d2bd aff6 0dbd b94f b43c fe57 c03d
00000310: 66b3 59bc aa41 923c b8a8 e4bc 200c a1bd
00000320: d873 cc3d 2a40 533d 6422 1f3d d826 e63d
00000330: 778e 93bc a7d2 bbbc 962f f63d 0009 31bd
00000340: 98f6 3e3c f1db 3c3c dca8 013d 7c1f 513e
00000350: 615d 2e3e 603d 8a3d 4fe2 9abc 91c7 2abd
00000360: 0c2e 043e 587f 3a3d 5120 ab3d 8a62 1c3c
00000370: a2fd e43b 6ea7 aa3d c81d d93c bf02 ebb8
00000380: 98aa 833d 8caf 283d f64b d5bc c43b 5b3c
00000390: f1eb e03d 4b21 b83d 4009 ccbb f761 333d
000003a0: ef6a 433d f3eb eabd 3900 433d e2c2 453d
000003b0: 71c9 b33d 41db 723d 095c 1bbd 1820 87bd
000003c0: 616c 813d a846 00be e824 5ebd d40b 303d
000003d0: 7c73 f7bc 20a1 22bd 9614 eabc f18d 383c
000003e0: f25a 853d c1f1 1bbe f96e 40bc 0d6b 583d
000003f0: 14e8 48bd 22dd 09be ef8c 9b3d e885 2bbe
