model/phased_dRNA_nanopore_R104_HG002.pth (torch, 891226 bytes, 34 tensors)

combined_conv1.weight f4 [64, 5, 4, 3]
0	0xbd8905ef	-0.06690585
1	0x3d108766	0.035285376
2	0xbca5cf8d	-0.02024057
3	0xbe5194fb	-0.20466988
4	0xbdd9d002	-0.106353775
5	0xbd050978	-0.032479733
6	0x3d665b6b	0.056239527
7	0xbdc9d537	-0.09855121
8	0x3d2c370a	0.042044677
9	0xbdd591bc	-0.10428187
10	0xbe3420e1	-0.17590667
11	0x3d7626f3	0.06009574
12	0x3e4348bc	0.19070715
13	0xbd4f46c7	-0.050604608
14	0x3d8b5ff3	0.0680541
15	0xbe25a1d9	-0.16175021
16	0x3db30b5f	0.08742403
17	0x3d9bd1e0	0.0760839
18	0x3d688b25	0.056773324
19	0x3aaaaa49	0.001302072
20	0x3e82b7c6	0.25530833
21	0xbce884b5	-0.028383592
22	0xbce6090e	-0.02808049
23	0x3d4f1808	0.050560027
24	0x3d353ae5	0.04424562
25	0xbe1143b6	-0.14185986
26	0xbc358a3a	-0.011080319
27	0xbd9fb40f	-0.07798015
28	0x3e02949a	0.12752
29	0x3d2982fb	0.04138468
30	0x3e094acf	0.13407443
31	0xbe9dabd3	-0.30795154
32	0x3da420b9	0.08014054
33	0xbe01cc0f	-0.12675498
34	0x3dac82a6	0.08423357
35	0x3d94d8a4	0.072678834
36	0xbdfd425e	-0.12366174
37	0xbe761c09	-0.24034132
38	0x3c8e6462	0.01738185
39	0xbed1030d	-0.4082264
40	0xbc991e0c	-0.018691085
41	0x3e589bf0	0.21153235
42	0xbddc17f6	-0.10746758
43	0x3e1abf4b	0.15112035
44	0x3d998c63	0.0749748
45	0x3e3955f3	0.18099193
46	0xbd58814a	-0.052857675
47	0xbd6471ef	-0.055772718
48	0x3e01dc2e	0.12681648
49	0xbd3cfd3c	-0.04613994
50	0x3e236228	0.15955412
51	0xbdb37a50	-0.08763564
52	0xbcdcc8f0	-0.026951283
53	0x3d910db7	0.07082694
54	0x3a516736	0.0007988097
55	0x3df2af92	0.11849894
56	0x3db26f15	0.087125935
57	0x3e3eb693	0.18624334
58	0x3d90e627	0.07075148
59	0x3ddf1385	0.10892395
60	0xbeacc3ac	-0.33743036
61	0xbd424f48	-0.04743889
62	0xbddb5a02	-0.10710527
63	0x3e11369c	0.14180988
64	0x3d3e2fac	0.046432182
65	0xbd51855a	-0.051152565
66	0xbc1bdbd9	-0.009512865
67	0x3c4382a0	0.011932999
68	0x3caff879	0.021480786
69	0xbc20cf15	-0.009814997
70	0xbe9d2279	-0.30690363
71	0x3cd05a11	0.025433572
72	0x3e2573fd	0.16157527
73	0x3d5d44f8	0.05402085
74	0xbb20c627	-0.002453217
75	0xbdd502b5	-0.10400907
76	0x3c150920	0.009096414
77	0x3d94af8b	0.07260045
78	0xbd08d66e	-0.03340762
79	0x3d725532	0.05916328
80	0xbc70a545	-0.014687841
81	0xbd14100d	-0.03614812
82	0x3e66660f	0.2249987
83	0xbd54ac7b	-0.051922303
84	0x3d8a54b5	0.06754438
85	0x3d89b10a	0.06723221
86	0xbce24739	-0.027621852
87	0xbe0aa362	-0.13538888
88	0xbd78b1e4	-0.060716525
89	0xbe427ac4	-0.18992144
90	0xbd6c68f1	-0.057717267
91	0x3dd4173e	0.103559956
92	0xbda4b07b	-0.080414735
93	0xbda30fb7	-0.07961982
94	0x3e0c0c7a	0.13676634
95	0xbbfb1459	-0.0076623377
96	0xbe546156	-0.20740256
97	0xbddc77d6	-0.107650444
98	0xbdf3a095	-0.11895863
99	0xbced8a1b	-0.028996518
100	0x3da4adf2	0.0804099
101	0xbdcdc050	-0.10046446
102	0x3d472507	0.048619296
103	0x3d90e2f2	0.070745364
104	0xbe229b5a	-0.15879574
105	0xbbe8e1c2	-0.0071069906
106	0xbddae477	-0.106881075
107	0x3b6c2127	0.0036030503
108	0xbe059c71	-0.13047959
109	0x3d53b004	0.051681533
110	0x3da7601f	0.081726305
111	0xbdc9517a	-0.098299935
112	0x3e065ed1	0.13122107
113	0xbf1e1d98	-0.61763906
114	0x3d57d07f	0.05268907
115	0x3b4490c8	0.0029993523
116	0xbd1e83b8	-0.038699836
117	0x3d041270	0.032244146
118	0xbe1e3f62	-0.15453866
119	0x3d4e9ba8	0.050441414
120	0xbdaa2afc	-0.0830898
121	0x3cfa441c	0.030550055
122	0xbe7463ae	-0.2386615
123	0xbcb8d3e4	-0.022561975
124	0xbd5b49b3	-0.053537082
125	0xbda4fc4d	-0.08055935
126	0xbcdef86a	-0.027218062
127	0xbdeedbb7	-0.11663001
128	0x3da20e3f	0.079128735
129	0xbd32a805	-0.043617267
130	0xbe81059b	-0.2519959
131	0xbd17e247	-0.03708103
132	0x3e419057	0.18902718
133	0xbdf62fad	-0.12020812
134	0x3d7bbd77	0.061459985
135	0x3d1d98b2	0.0384757
136	0xbd69caa5	-0.057078023
137	0xbc1064c1	-0.008813084
138	0xbd1c05af	-0.038091358
139	0x3b4bc97f	0.0031095443
140	0xbe04be77	-0.12963282
141	0x3dd5ddc7	0.10442691
142	0x3d70561f	0.05867588
143	0xbd5b5367	-0.053546336
144	0xbd0225e8	-0.03177443
145	0x3cb1e90a	0.021717567
146	0x3e37ee65	0.17962034
147	0xbcd3300e	-0.02577975
148	0x3d18e90e	0.037331633
149	0xbd29ea00	-0.041482925
150	0x3cf60b26	0.030034613
151	0x3e1630b7	0.1466702
152	0xbd931059	-0.071808524
153	0xbd4f2883	-0.050575744
154	0x3e4cd802	0.20004275
155	0xbd956fb7	-0.072966985
156	0xbda9c29e	-0.082890734
157	0x3d866fd9	0.06564302
158	0xbe66564d	-0.22493859
159	0x3d8bb839	0.06822247
160	0x3de8a3cd	0.113593675
161	0x3c9e1a2e	0.019299593
162	0x3a8500d4	0.0010147342
163	0x3dafacfc	0.08577916
164	0xbcc5b574	-0.024134375
165	0x3e123073	0.14276294
166	0xbe00115a	-0.12506619
167	0xbd2f62a3	-0.042818677
168	0x3d27a05a	0.040924408
169	0xbaa65ed3	-0.0012693055
170	0xbde9322c	-0.11386523
171	0x3d8521dd	0.065005995
172	0x3e1b0447	0.1513835
173	0x3d3f3bd9	0.046687935
174	0xbdccd87e	-0.1000223
175	0xbe1221ff	-0.14270781
176	0x3da5406c	0.08068928
177	0xbe1d6c82	-0.15373424
178	0xbf01854c	-0.5059402
179	0x3d786961	0.060647372
180	0x3d4518b2	0.048119254
181	0x3db144bb	0.086556874
182	0x3dc415ca	0.095744684
183	0xbe783dc1	-0.24242307
184	0x3d20498b	0.039132636
185	0x3de3918f	0.111117475
186	0xbd89139a	-0.06693192
187	0xbc8888e1	-0.016666831
188	0xbe1880a1	-0.14892818
189	0xbcbc0754	-0.022952713
190	0xbe90c5c2	-0.28275877
191	0xbb8a2ff3	-0.004217142
192	0xbc4fe4ba	-0.01268881
193	0xbdb5ce19	-0.08877201
194	0x3d891dc2	0.06695129
195	0xbd123f17	-0.0357047
196	0xbc430c13	-0.011904734
197	0x3d4d380c	0.05010228
198	0x3dca3361	0.09873081
199	0x3c71f12f	0.014766975
200	0xbd87542d	-0.06607852
201	0xbc289adb	-0.010290827
202	0xbe616ac0	-0.22013378
203	0x3d04db0f	0.032435473
204	0x3a1ffbed	0.00061029085
205	0x3dc034d0	0.09385073
206	0xbd2626e0	-0.040564418
207	0xbb9c1815	-0.004763613
208	0xbc97f104	-0.018547542
209	0x3d3609e8	0.04444304
210	0xbc8f7a2b	-0.017514309
211	0x3d4287a9	0.047492657
212	0xbc62ba6d	-0.013838393
213	0xbd5eac46	-0.05436351
214	0x3d1e8239	0.03869841
215	0x3d55c4f5	0.052189786
216	0xbe2c6331	-0.16834714
217	0xbe9028e5	-0.281562
218	0xbc6fea0f	-0.014643206
219	0x3e477278	0.1947726
220	0xbd6e395c	-0.05816017
221	0x3d87d1a2	0.06631781
222	0xbc7ff051	-0.015621261
223	0xbdb1bc40	-0.08678484
224	0xbee5514a	-0.4478858
225	0xbd95cc45	-0.07314352
226	0x3dbf7441	0.093483455
227	0xbe8298e4	-0.2550727
228	0x3c5b2b48	0.013377018
229	0xbe0c2c56	-0.13688788
230	0xbdaa4231	-0.08313406
231	0x3e540e34	0.20708543
232	0x3caa29d5	0.0207719
233	0xbdef3467	-0.11679917
234	0x3dcbf7f3	0.09959402
235	0x3cd8fb9e	0.026487168
236	0x3e731eda	0.23742238
237	0x3dba0a09	0.09083945
238	0x3e85aae2	0.26106936
239	0x3686f0dc	4.021551e-06
240	0xbcfe82dc	-0.031068258
241	0x3dc6b856	0.09703128
242	0xbc37d213	-0.011219519
243	0x3d3419ad	0.0439698
244	0xbe29163f	-0.16512392
245	0xbe0d73c0	-0.13813686
246	0xbed2fa27	-0.41206476
247	0x3e3838d0	0.17990422
248	0xbb1f1f0d	-0.0024279982
249	0x3dd5cd3d	0.10439537
250	0x3d2f4b77	0.04279658
251	0xbaa53124	-0.0012603146
252	0xbc4bda1f	-0.012442141
253	0x3d874869	0.06605608
254	0xbd0cef42	-0.03440786
255	0x3ce5315d	0.02797764

combined_conv1.bias f4 [64]
0	0xbe6941ff	-0.22779082
1	0x3d6bf249	0.057604108
2	0x3cbcb054	0.023033299
3	0xbe08c6ee	-0.13357136
4	0xbe099934	-0.13437349
5	0xbde87312	-0.11350073
6	0x39819739	0.00024717467
7	0xbdadad93	-0.08480372
8	0xbda855f8	-0.08219522
9	0xbde79022	-0.11306788
10	0x3cf10442	0.029420976
11	0xbdbc8a60	-0.092060804
12	0x3b884b9e	0.004159405
13	0xbcdef0f9	-0.027214514
14	0xbda00f9b	-0.078154765
15	0xbdead6a1	-0.114667185
16	0x3d67c70c	0.05658631
17	0xbe37c692	-0.17946842
18	0x3d375868	0.044762045
19	0xbe16dcfc	-0.14732736
20	0xbe0430e0	-0.1290927
21	0xbdfba485	-0.12287239
22	0xbc5acf19	-0.01335504
23	0x3d753c7e	0.059872143
24	0x3c641b53	0.01392253
25	0xbd60ae87	-0.054853942
26	0xbbfd0f61	-0.0077227806
27	0xbd328479	-0.043583367
28	0x3d5e32fb	0.054247838
29	0xbdfee205	-0.124454536
30	0xbda8ccfb	-0.08242222
31	0x3d79aa25	0.060953278
32	0x3d1813d8	0.0371283
33	0xbe091eff	-0.1339073
34	0xbddbe648	-0.10737282
35	0x3d82f671	0.06394661
36	0x3c9f990b	0.019482156
37	0x3d504076	0.050842725
38	0x3d3ced1f	0.046124574
39	0x3d5b3342	0.05351568
40	0x3c1c6d1e	0.0095475
41	0xbd88c594	-0.0667831
42	0x3d3a8b7a	0.04554317
43	0xbd65bf7b	-0.056090813
44	0x3d81c1c8	0.06335789
45	0x3d5bcc9b	0.053661924
46	0x3d539743	0.051657926
47	0xbd33a15a	-0.04385505
48	0xbda31034	-0.07962075
49	0xbcedf1d3	-0.029045975
50	0xbe10b5d6	-0.14131865
51	0x3c909052	0.017646942
52	0xbd16898d	-0.036752272
53	0xbe1147d7	-0.14187561
54	0x3db0e840	0.08638048
55	0xbde4ba75	-0.11168376
56	0xbdfe18f8	-0.12407106
57	0xbd065d38	-0.032803744
58	0x3c7e8ae5	0.015536045
59	0xbbbe6307	-0.005810145
60	0xbd22f867	-0.039787676
61	0xbd3adbea	-0.045619883
62	0xbd092c83	-0.033489715
63	0xbdb2cbe6	-0.08730297

combined_conv2.weight f4 [64, 64, 1, 3]
0	0x3d3742a3	0.044741284
1	0x3d696f88	0.05699113
2	0xbb94a995	-0.0045368173
3	0x3d4aad36	0.049481593
4	0xbd3314c8	-0.04372099
5	0xbc9ca0da	-0.019119669
6	0xbdc3d6a2	-0.09562422
7	0xbcad5ff7	-0.021163924
8	0xbdce9998	-0.100878894
9	0x3aa1d15a	0.0012345717
10	0x3d235fc0	0.039886236
11	0x3d975224	0.07388714
12	0x3dc5682b	0.09639009
13	0x3c1f027f	0.009705185
14	0xbcd8a62e	-0.026446428
15	0xbe7f5253	-0.24933748
16	0xbcb25492	-0.021768842
17	0x3e66277d	0.22476001
18	0x3e112198	0.14172971
19	0xbccfbafd	-0.025357718
20	0xbd4161b6	-0.047212325
21	0x3d4f78c9	0.0506523
22	0xbe233b76	-0.15940651
23	0xbd0bc808	-0.03412631
24	0xbd343da4	-0.044004098
25	0x3dd326db	0.103101455
26	0xbde4bb1c	-0.11168501
27	0xbd88d3dd	-0.06681035
28	0xbd5bd5f1	-0.053670827
29	0xbe1a91b6	-0.15094647
30	0x3c6484f2	0.013947712
31	0xbe1dc88c	-0.15408534
32	0x3d08fd17	0.03344449
33	0x3d5af4b4	0.053456023
34	0xbddadf58	-0.10687131
35	0xbd0141b9	-0.03155682
36	0xbd8b86a5	-0.06812791
37	0xbd0bcc3c	-0.03413032
38	0xbc887d07	-0.01666118
39	0x3ca18327	0.019715859
40	0x3d7f41ab	0.062318485
41	0xbd2b36fd	-0.041800488
42	0x3bd3a104	0.0064584035
43	0xbdaeda7c	-0.08537766
44	0xbc35cf3d	-0.011096773
45	0x3e0a73e8	0.13520777
46	0xbcba1d46	-0.022719037
47	0xbbc99720	-0.0061520487
48	0xbcaecd95	-0.021338264
49	0xbd5fed99	-0.05466995
50	0xbd373f89	-0.044738326
51	0x3cf7d0bd	0.030250901
52	0x3d5cb85f	0.053886767
53	0x3b5c636d	0.0033628598
54	0x3d77a6e8	0.06046191
55	0xbd7e7a16	-0.06212815
56	0x3becd71a	0.0072277905
57	0xbc319d8b	-0.010840784
58	0xbbdd01c2	-0.0067445943
59	0xbd0a764c	-0.033804223
60	0xbc03ae78	-0.008037202
61	0xbd0e69b0	-0.03476876
62	0xbd08b19c	-0.033372506
63	0x3bb304ca	0.0054632174
64	0xbd2f82b1	-0.042849246
65	0xbd827b08	-0.063711226
66	0xbdacb56d	-0.08433042
67	0xbd8f8b1e	-0.070089564
68	0xbd05d8bb	-0.032677393
69	0x3baa8e6c	0.0052049663
70	0x3cd30b5c	0.025762253
71	0xbd5ba1da	-0.05362115
72	0xbdd21a33	-0.10258903
73	0xbdc3ca56	-0.09560077
74	0x3c796ec0	0.015224159
75	0x3ca251b8	0.019814357
76	0xbdaefe30	-0.08544576
77	0xbd1de774	-0.03855081
78	0xbd940b70	-0.07228744
79	0xba949380	-0.0011335462
80	0x3d8d18b7	0.068894796
81	0xbd9e0f20	-0.077177286
82	0xbd39da74	-0.04537435
83	0xbd401a57	-0.04690012
84	0x3d2c6aec	0.042094156
85	0x3d156b96	0.036479555
86	0xbd3a6093	-0.045502257
87	0x3ca7c301	0.020478727
88	0xbd84b58f	-0.06479942
89	0xbdb9539d	-0.09049151
90	0x3e271fe9	0.16320767
91	0x3c69d998	0.01427307
92	0x3dd3f791	0.10349954
93	0x3dadd8f5	0.08488647
94	0x3d4cd690	0.05000931
95	0x3ce2c561	0.027682008
96	0xbc5d2629	-0.013497868
97	0xbd90af31	-0.07064665
98	0x3d0616b8	0.03273651
99	0x3c8d19f3	0.017224288
100	0xbe2735de	-0.16329142
101	0x3c3cf037	0.011531881
102	0x3dd52f7a	0.10409446
103	0x3d837253	0.0641829
104	0x3d065e9d	0.032805074
105	0x3d19fe02	0.037595756
106	0x3d9d3c60	0.07677531
107	0x3d2f1e2b	0.04275338
108	0xbc179ae0	-0.009253234
109	0x3df02791	0.11726297
110	0xbbd1f732	-0.006407642
111	0x3c16daf7	0.009207479
112	0x3d85312c	0.065035194
113	0x3cc53b02	0.024075989
114	0x3d49fb1d	0.049311746
115	0xbc373251	-0.01118143
116	0x3ce365b5	0.027758459
117	0x3b290ffc	0.002579688
118	0xbcf3da3c	-0.029767148
119	0x3bcff66d	0.006346515
120	0xbd8d4462	-0.068978086
121	0xbdb60d55	-0.08889262
122	0x3d07c337	0.033145156
123	0xbd0b33bb	-0.03398488
124	0xbd060dfa	-0.032728173
125	0xbd9486dc	-0.07252285
126	0xbe03287a	-0.1280841
127	0x3dfe5e25	0.124203004
128	0xbd1f4f48	-0.038893968
129	0x3cc58968	0.024113372
130	0x3ca306da	0.019900728
131	0xbc568172	-0.013092386
132	0x3d8b791c	0.06810209
133	0x3d821654	0.06351915
134	0xbd2411fe	-0.04005622
135	0x3c2e5fef	0.01064299
136	0xbcfc011c	-0.030762248
137	0xbd124b88	-0.035716563
138	0x3d6f1ce7	0.058377173
139	0xbd4e2fbd	-0.050338496
140	0xbc2db5da	-0.010602439
141	0x3df69e04	0.12041858
142	0xbc864175	-0.016388634
143	0x3da5d3e8	0.080970585
144	0x3d0473bb	0.03233693
145	0xbd8ccf63	-0.068754934
146	0xbd003104	-0.031296745
147	0xbcdb0b0c	-0.026738666
148	0x3d5e33f7	0.054248776
149	0xbc21fcf6	-0.009886971
150	0x3df422a4	0.1192067
151	0xbc7900c5	-0.015197937
152	0xbdb3486e	-0.08754049
153	0xbd20d8c4	-0.039269224
154	0x3ca0de80	0.019637346
155	0xbce5ea9d	-0.028065974
156	0xbc205cce	-0.009787751
157	0xbda5f965	-0.08104209
158	0xbd0c357b	-0.03423069
159	0x3d3503f3	0.04419322
160	0xbc38d231	-0.011280582
161	0xbdb649c8	-0.089007914
162	0xbbeb63ac	-0.0071835127
163	0xbd9959cd	-0.07487831
164	0xbdea7892	-0.11448778
165	0x3dca57f8	0.0988006
166	0xbd96d7d4	-0.07365385
167	0x3e033dbb	0.12816517
168	0x3d8cfe2e	0.068844184
169	0x3d93c934	0.07216111
170	0x3bf20f22	0.007387058
171	0x3d81189a	0.063035205
172	0xbd01c7b4	-0.031684592
173	0xbd34362e	-0.043996982
174	0xbcddfbbe	-0.02709758
175	0xbc8714df	-0.016489444
176	0xbc688d6f	-0.014193877
177	0x3d12dbe6	0.035854243
178	0xbc226826	-0.009912526
179	0xbcc3c192	-0.023896012
180	0xbbdbd583	-0.006708802
181	0xbe0adf76	-0.13561806
182	0xbbf165f0	-0.007366888
183	0xbd0f2fbe	-0.03495764
184	0xbd96ef85	-0.073699035
185	0xbd5d2297	-0.053988066
186	0x3db4542f	0.08805119
187	0xbd0deaf5	-0.0346479
188	0xbd3b5c3b	-0.045742255
189	0x3bba5511	0.0056864102
190	0xbd21c81e	-0.039497487
191	0xbd0dad74	-0.034589246
192	0x3dcc8c21	0.09987665
193	0x3c972828	0.018451765
194	0x3d0a753b	0.033803206
195	0xbcd07a2c	-0.025448881
196	0xbbdc92b4	-0.0067313556
197	0xbe02a303	-0.12757497
198	0xbcdaabd7	-0.026693268
199	0xbdcd59c1	-0.10026885
200	0xbc34cc3c	-0.011035021
201	0xbd2b4e8e	-0.041822962
202	0xbd2f6e22	-0.04282964
203	0x3bc3c3cd	0.005974269
204	0xbbe77914	-0.007063994
205	0x3d29c3db	0.041446548
206	0xbb15cb72	-0.0022856859
207	0xbd874430	-0.066048026
208	0x3df21a2f	0.118214004
209	0x3e0bb5bc	0.13643545
210	0xbd2b4255	-0.041811306
211	0xbbfc4bed	-0.0076994807
212	0x3d781f7c	0.0605769
213	0xbd9193d1	-0.07108272
214	0xbd897328	-0.067114174
215	0x3c30550c	0.010762464
216	0x3d36666a	0.044531263
217	0x3d141eba	0.036162116
218	0x3d58ded6	0.052946888
219	0xbd060151	-0.0327161
220	0xbdbc5839	-0.09196515
221	0x3bb2d566	0.005457568
222	0xbd081801	-0.033226017
223	0xbe257dab	-0.1616122
224	0x3d8c49e6	0.068500325
225	0x3d756990	0.059915125
226	0xbd301eba	-0.042998053
227	0x3cd8b5d7	0.026453895
228	0x3ca581a5	0.02020342
229	0x3d6270e5	0.055283446
230	0x3d91d046	0.07119803
231	0xba52e4ec	-0.0008044976
232	0x3b9b0afd	0.0047315345
233	0x3d4ce9bc	0.050027594
234	0x3d836fe3	0.06417825
235	0xbd6fa569	-0.058507357
236	0x3d9a0a4e	0.07521497
237	0xbde1fd10	-0.11034596
238	0xbe026046	-0.12732038
239	0xbdd30024	-0.10302761
240	0x3d87c03e	0.06628464
241	0xbb8cfceb	-0.004302611
242	0x3d70ff50	0.058837235
243	0xbce580de	-0.02801555
244	0xbd00c8cc	-0.031441495
245	0xbc211d57	-0.009833655
246	0x3d22d017	0.03974923
247	0x3d08d6ab	0.03340785
248	0xbd3526df	-0.044226523
249	0xbe3f89ba	-0.18704882
250	0xbe5dbcc3	-0.21654038
251	0xbdfe939d	-0.12430499
252	0xbc5ada11	-0.013357655
253	0xbc6f2245	-0.014595573
254	0xbe2a3079	-0.16620053
255	0x3c76f1f2	0.015072333

combined_conv2.bias f4 [64]
0	0x3b76dd68	0.003766859
1	0xbd8c9057	-0.06863468
2	0x3cbc772b	0.023006042
3	0x3d303d7e	0.043027394
4	0x3d133c30	0.03594607
5	0x3d32e811	0.043678347
6	0x3c8258a5	0.01591141
7	0xbbead34e	-0.0071663028
8	0x3cb38513	0.02191404
9	0xbc95f2c9	-0.018304246
10	0xbcd861c0	-0.026413798
11	0xbd953158	-0.07284802
12	0x3b813158	0.00394265
13	0xbc902a82	-0.017598394
14	0x3ce1f1f2	0.027581189
15	0xbdc36bf1	-0.095420726
16	0xbd804beb	-0.0626448
17	0xbc08d4a4	-0.008351479
18	0xbc929677	-0.017894013
19	0x3d153b07	0.036433246
20	0xbd58b8ab	-0.052910488
21	0x3cfab4f9	0.030603873
22	0x3d31de01	0.04342461
23	0xbceda376	-0.029008608
24	0xbdbc1b03	-0.091848396
25	0xbd061512	-0.032734938
26	0x3df4ef08	0.11959654
27	0x3d0d9f4a	0.034575738
28	0x3a5c2979	0.0008398514
29	0xbc02cee5	-0.007983898
30	0xbc85ccb3	-0.01633296
31	0x3d0971c9	0.03355578
32	0xbdc2ffd8	-0.095214546
33	0xbcf657b2	-0.030071113
34	0xbd82c562	-0.06385304
35	0xbbf779eb	-0.0075523756
36	0x3a92d105	0.0011201209
37	0x3b6cad02	0.0036113863
38	0x3d1f66e4	0.038916484
39	0xbb337284	-0.002738149
40	0x3bc2e52a	0.0059477286
41	0x3d4f6ef2	0.050642915
42	0x3d7e8af2	0.062144227
43	0xbc72bd9d	-0.014815715
44	0xbd8ada58	-0.06779927
45	0xbc7ea62c	-0.015542548
46	0x3c6b8f36	0.014377406
47	0xbd82fa97	-0.063954525
48	0xbd3664ad	-0.044529606
49	0xbd3caede	-0.046065204
50	0xbd2ddf66	-0.042449377
51	0xbcff41f7	-0.031159384
52	0x3d40fc1d	0.047115434
53	0xbb3fba77	-0.0029255429
54	0xbcd9d912	-0.026592765
55	0xbd53c5c2	-0.05170227
56	0xbd1f880d	-0.038948108
57	0xbcf752ec	-0.030190907
58	0xbd1d556d	-0.038411546
59	0x3d21fe28	0.039549023
60	0xbd441220	-0.047868848
61	0x3d3dad62	0.04630793
62	0xbd85caf6	-0.06532852
63	0x3d314642	0.043279894

snv_conv1.weight f4 [8, 4, 3, 1]
0	0xbfb9bbdd	-1.4510456
1	0x3d855a2e	0.06511341
2	0x3d86a268	0.06573945
3	0xbd6b4acd	-0.057444382
4	0x3ee52936	0.44758004
5	0x3d972858	0.07380742
6	0xbea075ce	-0.31339878
7	0x3e86c013	0.26318416
8	0xbe4b9c9e	-0.19883963
9	0x3df2bc56	0.118523285
10	0xbe344c8c	-0.17607325
11	0xbf2e61d6	-0.68118036
12	0xbe0004b8	-0.125018
13	0xbe8e4e1a	-0.27793962
14	0x3b8ad15a	0.0042363824
15	0xbd7d4f30	-0.061843097
16	0xbe4f695a	-0.20255032
17	0xbe8b2a2b	-0.2718061
18	0xbe8343a7	-0.25637552
19	0xbe91c701	-0.2847214
20	0xbe0cca25	-0.13748987
21	0x3e18d745	0.14925869
22	0xbe45ac2c	-0.1930396
23	0x3c84b54f	0.016199736
24	0xbe33cb5e	-0.17558047
25	0x3e75e63f	0.24013613
26	0x3da430d2	0.08017124
27	0xbef9b465	-0.48770443
28	0xbd86857d	-0.065684296
29	0x3e8b2b9e	0.27181715
30	0xbe59fe4d	-0.21288414
31	0x3ee0306c	0.43786943
32	0xbe5fee59	-0.21868266
33	0xbe7a9278	-0.24469936
34	0x3e4edd03	0.20201497
35	0x3e4db623	0.20089011
36	0xbd8f38e2	-0.069932714
37	0xbf89fc56	-1.0780132
38	0xbebbb921	-0.3666468
39	0xbf4013fb	-0.7503049
40	0xbf248c74	-0.64276814
41	0xbf1bd553	-0.6087238
42	0xbf7f8a50	-0.99820423
43	0x3c135275	0.008991827
44	0x3f5132f1	0.81718355
45	0xbf0daece	-0.55344856
46	0xbf19e5a7	-0.60116047
47	0x3e8f3607	0.27970907
48	0xbf0af302	-0.5427705
49	0x3d72b85f	0.05925786
50	0x3e1a6629	0.15078034
51	0xbf52bfca	-0.82323897
52	0x3e520ffe	0.20513913
53	0xbee430c3	-0.44568452
54	0x3e31c8d6	0.17361769
55	0xbe16999a	-0.14707032
56	0x3effd908	0.4997027
57	0x3de491be	0.111606106
58	0x3e975e54	0.29564154
59	0xbb410324	-0.0029451335
60	0xbe78f0a9	-0.24310555
61	0x3ed6631f	0.41872498
62	0x3d9256ae	0.07145439
63	0xbe2ef92e	-0.17087242
64	0x3e4f3cc2	0.20238021
65	0x3bb5a714	0.005543599
66	0x3e6f5f67	0.23376237
67	0x3da89744	0.08231977
68	0x3dff7be5	0.12474803
69	0x3e844ec6	0.2584135
70	0xbee5da15	-0.44892946
71	0x3e84445b	0.258334
72	0x3cb6e1d6	0.022324484
73	0x3e942183	0.28931817
74	0x3ed029d6	0.40656918
75	0xbe029beb	-0.1275479
76	0x3e1bd5cf	0.1521828
77	0x3e64104a	0.22271839
78	0xbd6bfb5d	-0.057612766
79	0x3e58f360	0.2118659
80	0x3f59a623	0.8501913
81	0x3d41babb	0.04729722
82	0x3ed61ce8	0.4181893
83	0x3dbada49	0.09123666
84	0x3e3776b8	0.17916381
85	0xbe62eef5	-0.22161467
86	0x3f1291c7	0.5725369
87	0x3d11a92f	0.035561737
88	0xbdaf0941	-0.08546687
89	0x3e77863d	0.24172302
90	0xbf08d7c1	-0.53454214
91	0xbef71e3c	-0.48265254
92	0xbe9d25b1	-0.3069282
93	0x3d9bbe47	0.07604652
94	0x3eacac87	0.33725378
95	0x3f04d423	0.51886195

snv_conv1.bias f4 [8]
0	0xbd90dd3e	-0.070734486
1	0xbe459c45	-0.19297893
2	0x3c6b8654	0.014375288
3	0x3eb270ee	0.34851784
4	0x3e0161e2	0.12634996
5	0xbd269b13	-0.040675234
6	0x3c89ba64	0.01681251
7	0xbe803f12	-0.2504812

snv_fc1.weight f4 [20, 8]
0	0x3e60bebd	0.21947761
1	0xbd9df59a	-0.077128604
2	0xbe1817d9	-0.14852847
3	0xbf39c304	-0.72563195
4	0x3e937306	0.28798693
5	0x3e8a847f	0.27054211
6	0x3eef8f9d	0.46789256
7	0x3f1d3ca6	0.6142067
8	0x3e80410b	0.25049624
9	0xbe4dbdcf	-0.20091937
10	0xbeedf68e	-0.4647717
11	0x3d6952a7	0.05696359
12	0xbe02220c	-0.127083
13	0xbeee46df	-0.46538445
14	0x3e53a298	0.20667493
15	0x3efa56fc	0.4889449
16	0xbea331cd	-0.31873932
17	0x3d22de54	0.03976281
18	0xbe58d12a	-0.2117354
19	0x3e90f4fe	0.28311914
20	0xbe7b098b	-0.24515359
21	0x3da1b51a	0.078958705
22	0xbeac9004	-0.33703625
23	0x3cb63244	0.022240765
24	0x3e39a674	0.18129903
25	0x3daebdd4	0.085323006
26	0xbe6585ad	-0.22414275
27	0xbd9fdb39	-0.07805485
28	0x3e9e748a	0.30948287
29	0x3e5f7878	0.21823299
30	0x3e2a165a	0.16610089
31	0x3c567864	0.013090227
32	0x3eec8bbc	0.4620036
33	0x3cda32df	0.026635585
34	0x3e24cab8	0.16092956
35	0x3e487693	0.19576482
36	0x3e341777	0.17587076
37	0x3d6dc39a	0.05804787
38	0xbea222ff	-0.31667325
39	0xbe07c6d3	-0.13259439
40	0x3defa7cf	0.11701929
41	0xbe72457c	-0.23659319
42	0x3e05f6bf	0.13082407
43	0xbea74f0f	-0.32677504
44	0xbe9efcdf	-0.310523
45	0x3b28f0c5	0.0025778275
46	0x3d9121f4	0.07086554
47	0xbe8de1fb	-0.27711472
48	0x3ebf9a0b	0.37422213
49	0x3e2cca7a	0.16874114
50	0x3ecd74f5	0.40128294
51	0xbc2441c1	-0.010025443
52	0x3ed90900	0.4238968
53	0x3e2561d9	0.16150607
54	0x3dad298c	0.0845519
55	0x3d88946e	0.06668936
56	0xbe966d55	-0.2938029
57	0x3e282d20	0.16423464
58	0xbeb3b95c	-0.35102355
59	0x3ebaf350	0.36513758
60	0xbe534fc5	-0.20635898
61	0x3eab766e	0.33488792
62	0xbf39eb49	-0.7262464
63	0x3e595b08	0.21226132
64	0xbe2f3a04	-0.17111975
65	0xbb8326d8	-0.0040024333
66	0xbf02acb6	-0.51044786
67	0x3e55817f	0.2085018
68	0xbeafa01c	-0.3430184
69	0xbde54a1c	-0.11195776
70	0xbf22a210	-0.6352854
71	0xbddb1844	-0.10697988
72	0xbe5d00bd	-0.21582313
73	0xbe1d0bd9	-0.15336551
74	0x3db858c0	0.09001303
75	0xbe335054	-0.17511111
76	0x3e39276c	0.18081445
77	0x3e23a6ac	0.15981549
78	0x3eb8b892	0.36078316
79	0xbef7f8ca	-0.48431998
80	0x3ea804fa	0.32816297
81	0x3ea8522e	0.32875198
82	0x3ddd7eeb	0.10815223
83	0xbd142389	-0.0361667
84	0xbe33aaf6	-0.17545685
85	0xbd70ac7d	-0.058758248
86	0x3e5108f9	0.20413579
87	0x3deb48a3	0.11488464
88	0x3ecdc80f	0.40191695
89	0x3e7329b4	0.23746377
90	0x3d027b25	0.03185572
91	0x3e092b0e	0.1339533
92	0xbe59f8e3	-0.21286349
93	0xbded0903	-0.115739845
94	0xbe43b565	-0.19112165
95	0xbe46d791	-0.1941817
96	0xbe8802f5	-0.26564756
97	0xbe8ced32	-0.27524716
98	0xbf45a855	-0.7720998
99	0x3e03089e	0.12796256
100	0xbe11352f	-0.14180444
101	0x3f00aea5	0.50266486
102	0xbf252d10	-0.64521885
103	0xbe3e23ed	-0.18568392
104	0xbee82cd9	-0.45346716
105	0xbd592253	-0.05301125
106	0x3f02abfa	0.51043665
107	0x3d3e72a8	0.046496063
108	0xbcc0a1a7	-0.023514582
109	0xbdddb0ac	-0.10824713
110	0x3e299059	0.1655897
111	0x3e7e58df	0.24838589
112	0xbde24f2e	-0.110502586
113	0xbe8b50cc	-0.2721008
114	0x3ee32051	0.44360593
115	0xbebc2b73	-0.367519
116	0x3e84ee25	0.2596294
117	0xbd0d3387	-0.03447297
118	0xbd298cfc	-0.04139422
119	0x3ecac911	0.39606526
120	0x3df68326	0.12036733
121	0x3e090213	0.13379698
122	0x3ea0ff5b	0.3144482
123	0xbeb3f11d	-0.35144892
124	0x3ebf2d8d	0.3733944
125	0xbdad5d3f	-0.08465051
126	0x3e5ea2dc	0.21741813
127	0x3e46aa8a	0.19400993
128	0xbdf4c43e	-0.11951493
129	0x3dd91d2d	0.10601268
130	0x3db7c46d	0.08973012
131	0xbe0fc634	-0.14040452
132	0x3cf80f4c	0.030280732
133	0xbf2ebbc0	-0.68255234
134	0xbda076d2	-0.07835163
135	0xbe35f44e	-0.17768976
136	0xbcb661ab	-0.022263369
137	0xbe8582e7	-0.26076433
138	0x3ee86476	0.45389146
139	0x3da26aa6	0.07930498
140	0x3eb7f41d	0.3592843
141	0x3e788e4d	0.24273033
142	0x3e7ae51e	0.24501464
143	0xbe1f3dc1	-0.15550901
144	0xbddd9503	-0.10819437
145	0x3eb33df0	0.35008192
146	0xbe477738	-0.19479072
147	0x3dc1fc65	0.094719686
148	0xbe8e1e73	-0.27757606
149	0xbea1864d	-0.31547776
150	0xbe2f7fee	-0.17138645
151	0xbe0b7057	-0.13617073
152	0xbdc21f44	-0.0947862
153	0x3eac0f66	0.33605498
154	0xbe87100d	-0.26379433
155	0xbe54596e	-0.2073724
156	0x3e35faa0	0.17771387
157	0x3dd2444e	0.10266934
158	0xbc61f20a	-0.013790617
159	0xbe6bbe89	-0.23021902

snv_fc1.bias f4 [20]
0	0xbe2af7b1	-0.1669605
1	0xbb1e8b73	-0.0024192005
2	0xbe4a780b	-0.19772355
3	0x3e92ef69	0.2869828
4	0x3e6ff21f	0.23432206
5	0xbe76a8ec	-0.24087876
6	0xbe0dfd64	-0.13866192
7	0x3e221bc6	0.15830907
8	0x3ea93b64	0.33053124
9	0x3dc6bd09	0.09704024
10	0x3e9ceefe	0.30651087
11	0x3cd5268b	0.026019355
12	0x3e6858f6	0.22690186
13	0xbe2976ea	-0.16549268
14	0x3aba42af	0.0014210547
15	0x3d4649b8	0.048410147
16	0x3e2c6d28	0.16838515
17	0xbd8e4be2	-0.06948067
18	0xbe8d7c94	-0.27634108
19	0xbe74b924	-0.2389875

ref_cov_fc1_fwd.weight f4 [32, 61]
0	0x3e020b39	0.12699594
1	0x3db251b0	0.08706987
2	0x3c25451e	0.01008728
3	0xbda195fe	-0.07889937
4	0xbc83b020	-0.016075194
5	0x3e1f71e2	0.15570787
6	0xbce946a9	-0.028476076
7	0x3dc33509	0.095316
8	0xbd54b18a	-0.051927127
9	0x3e16536d	0.14680262
10	0x3d0c9942	0.034325846
11	0xbd81c108	-0.06335646
12	0x3d9a3f4b	0.075316034
13	0x3e18de87	0.14928637
14	0xbdb9d0ee	-0.09073053
15	0xbdcea032	-0.100891486
16	0x3cf2f37a	0.029657114
17	0x3ce569cb	0.028004548
18	0xbd80c1e9	-0.062869854
19	0x3d07d57b	0.033162575
20	0x3e0d8a3c	0.13822263
21	0x3df35b7c	0.11882684
22	0x3c621b7d	0.013800499
23	0x3dbe98ae	0.09306465
24	0x3d672a70	0.056436956
25	0x3d6ebfc4	0.05828835
26	0xbd8f5ecf	-0.07000505
27	0x3c27341d	0.010205296
28	0x3d02eea0	0.03196585
29	0x3c9764af	0.018480627
30	0xbd77b0d3	-0.060471367
31	0x3e10005b	0.14062636
32	0x3d933171	0.071871646
33	0xbdc519dd	-0.09624074
34	0x3e2b52b0	0.16730762
35	0x3d10f5d2	0.035390683
36	0x3d768bd9	0.060191963
37	0x3c4e71a9	0.012600341
38	0x3e1dedbb	0.15422718
39	0x3cbfac85	0.023397693
40	0xbc1ed984	-0.009695414
41	0x3de255f8	0.110515535
42	0x3de91515	0.11380974
43	0x3d5edda7	0.054410603
44	0x3ae5633a	0.0017500885
45	0xbc1c6711	-0.009546057
46	0xbd277f75	-0.040893037
47	0xbd8fd2f4	-0.07022658
48	0x3da97b94	0.08275524
49	0xbda9f4ba	-0.08298631
50	0xbcf56edd	-0.02996009
51	0x3df35e0f	0.11883175
52	0x3d0cca0d	0.03437238
53	0x3dc11ee6	0.094297215
54	0x3dd85e28	0.10564834
55	0x3ca27732	0.019832227
56	0x3d2ab62a	0.04167763
57	0x3d367f94	0.04455526
58	0x3d66b004	0.056320205
59	0xbcc586cc	-0.024112128
60	0x3e058513	0.13039045
61	0x3c47ef42	0.01220304
62	0xbe0aff49	-0.13573946
63	0xbbbd117e	-0.0057699075
64	0x3cefd555	0.02927653
65	0x3d92d85f	0.07170176
66	0xbd4187c3	-0.047248613
67	0x3d0eba2f	0.034845527
68	0xbcf2fefc	-0.029662602
69	0x3dc7691d	0.09736846
70	0x3da3831e	0.07983993
71	0x3db17498	0.086648166
72	0x3e01e650	0.12685513
73	0x3de42b12	0.111410275
74	0x3d1a001f	0.03759777
75	0xbda7f924	-0.08201817
76	0xbd2a0524	-0.04150881
77	0x3d4dc433	0.05023594
78	0x3c743a38	0.014906459
79	0x3d2f695b	0.042825084
80	0x3ca5dc73	0.02024672
81	0x3ddebca3	0.10875823
82	0xbd4cabbc	-0.049968466
83	0x3da38c15	0.07985703
84	0xbd98a2d6	-0.074529335
85	0xbce4ab6a	-0.027913768
86	0x3e0889cc	0.13333815
87	0xbd814e7d	-0.063137986
88	0xbdb30e85	-0.08743004
89	0x3dc0ca3a	0.09413572
90	0x3e0f1e4a	0.13976398
91	0xbe214420	-0.15748644
92	0xbd948f29	-0.07253868
93	0x3ddf7778	0.10911459
94	0xbdb5e28a	-0.088810995
95	0x3d26dc56	0.040737472
96	0x3dab9486	0.08377938
97	0x3da53d73	0.08068361
98	0x3dd13051	0.10214294
99	0x3c88522e	0.016640749
100	0x3e0efd82	0.13963893
101	0x3df17181	0.11789227
102	0xbdc1f6f8	-0.09470934
103	0xbd9a319b	-0.07528993
104	0x3d8437b0	0.06455934
105	0x39da219a	0.00041605235
106	0x3d5e58e1	0.05428398
107	0x3dfb1441	0.122597225
108	0x3c874477	0.016512139
109	0x3e084f51	0.13311507
110	0x3e2053b1	0.15656926
111	0x3cc723c2	0.024309043
112	0x3b9ea3da	0.00484131
113	0x3d116517	0.035496797
114	0x3de76b56	0.112997696
115	0x3c50aba5	0.012736236
116	0x3d9322fe	0.071844086
117	0x3d71ae08	0.05900386
118	0x3c1d3932	0.009596156
119	0x3e060186	0.13086519
120	0x3de7a3e8	0.113105595
121	0xbde19dd9	-0.11016435
122	0xbdba5850	-0.090988755
123	0xbdbe039e	-0.09278034
124	0x3d13a5b5	0.036046702
125	0x3d92a38e	0.07160102
126	0xbdfa3996	-0.12218015
127	0x3de747aa	0.11292966
128	0xbe0228a3	-0.12710814
129	0xbdc9d316	-0.098547146
130	0xbd735b76	-0.059413396
131	0xbe063599	-0.13106383
132	0x3d0c4868	0.03424874
133	0x3c03dfd3	0.008048969
134	0x3dc6e422	0.09711482
135	0xbdfcea53	-0.12349381
136	0x3d7743a4	0.06036724
137	0x3cc31605	0.02381421
138	0xbe004f3a	-0.12530223
139	0x3dea668d	0.11445341
140	0xbd87f0e2	-0.066377416
141	0x3de4ffae	0.111815795
142	0xbdeca380	-0.11554623
143	0xbd763038	-0.06010458
144	0xbdc49b41	-0.09599925
145	0x3d86f6a8	0.06590015
146	0xbe06cc9d	-0.13163991
147	0x3b2e9991	0.0026641826
148	0x3d344407	0.04401019
149	0xbda500e3	-0.0805681
150	0x3dbae475	0.09125606
151	0x3d77718d	0.060411025
152	0xbdc499b3	-0.09599628
153	0xbc490c4f	-0.012271001
154	0xbd84ef77	-0.06490987
155	0x3c3eee40	0.011653483
156	0x3b1572db	0.0022804055
157	0x3dc45586	0.09586625
158	0x3b807d4f	0.003921188
159	0x3d8bda08	0.068286955
160	0xbd2571a0	-0.040391564
161	0xbe0c3937	-0.136937
162	0xbd022d0d	-0.031781245
163	0xbdd2ce85	-0.10293297
164	0x3cd920f4	0.026504971
165	0xbdac38e4	-0.084092885
166	0xbd277b0a	-0.040888824
167	0x3c0bac88	0.008525021
168	0x3d2b8650	0.041876137
169	0x3b6c065e	0.0036014537
170	0x3cbf1c27	0.023328854
171	0xbd8beffd	-0.068328835
172	0x3ce8f713	0.028438127
173	0x3d1d0d30	0.038342655
174	0x3b91bc6c	0.0044475105
175	0xbd3b3d22	-0.045712598
176	0xbc8d15de	-0.017222341
177	0xbdf6f188	-0.12057787
178	0xbd95a68c	-0.07307157
179	0x3a465077	0.0007565091
180	0xbdbb9094	-0.091584355
181	0xbbc0ee5f	-0.005887791
182	0x3d1a3046	0.037643693
183	0x3d15cc48	0.03657177
184	0x3dcd6519	0.100290485
185	0xbd17b427	-0.03703704
186	0xbd829040	-0.0637517
187	0x3dd7493d	0.10512016
188	0xbd8e3ab3	-0.0694479
189	0xbc8b4c5c	-0.017004184
190	0x3d1861b8	0.037202567
191	0xbc86c555	-0.016451517
192	0x3d7dd97d	0.06197499
193	0x3b912252	0.00442914
194	0xbcdd995b	-0.027050665
195	0xbd587729	-0.052848015
196	0xbd88f667	-0.066876225
197	0xbd2842d2	-0.04107935
198	0xbe03a8fd	-0.12857433
199	0xbdcdaecf	-0.10043108
200	0x3d8e00ae	0.069337234
201	0x3e06986e	0.13144085
202	0xbc8d513c	-0.01725065
203	0x3e30ebdb	0.17277472
204	0xbdc6e5c8	-0.09711796
205	0x3e04b787	0.12960635
206	0x3c49c323	0.012314591
207	0x3c34fe11	0.011046902
208	0xbd5c1af5	-0.053736646
209	0xbd9d5d10	-0.07683766
210	0xbd8ef815	-0.06980912
211	0x3e291e58	0.16515481
212	0x3e4474e3	0.19185214
213	0xbd9e8d51	-0.07741798
214	0xbc8e0aaf	-0.017339079
215	0x3add2284	0.0016871248
216	0x3bb4f085	0.005521836
217	0x3ddc9a8d	0.10771666
218	0xbd1cf940	-0.03832364
219	0x3dad3fb9	0.0845942
220	0xbc843aef	-0.016141383
221	0x3e0f3da5	0.1398836
222	0x3e00a27d	0.12561984
223	0xbd9f6143	-0.07782223
224	0xbd94b447	-0.07260948
225	0x3ca9ff91	0.020751746
226	0xbccb04cc	-0.02478256
227	0x3ded36b0	0.115826964
228	0x3d8ddff7	0.069274835
229	0x3dd8d3cc	0.10587272
230	0x3d3d4111	0.04620463
231	0xba2f9927	-0.00066985417
232	0xbd6d21c0	-0.057893515
233	0xbdcd0fc6	-0.10012774
234	0xbd4c625d	-0.049898494
235	0xbd68a671	-0.056799356
236	0xbd23793c	-0.03991054
237	0x3df2dd43	0.118586086
238	0x3dd78041	0.10522509
239	0x3dbf33f5	0.09336082
240	0xbde64959	-0.11244459
241	0xbdc6c281	-0.097050674
242	0x3d2494e2	0.04018105
243	0xbe0f3d97	-0.13988338
244	0xbbdf5dcc	-0.0068166014
245	0x3dfbd025	0.1229556
246	0x3d9e9d1a	0.077448085
247	0x3c909f4f	0.01765409
248	0x3da2b324	0.079443246
249	0x3dfd14f5	0.12357513
250	0x3de30cab	0.110864006
251	0x3da52ef3	0.080655955
252	0x3dc713dd	0.097205855
253	0x3cdbb634	0.02682028
254	0xbd99e5dc	-0.07514545
255	0xbcdd94b7	-0.027048452

ref_cov_fc1_fwd.bias f4 [32]
0	0x3d170555	0.03687032
1	0xbb8ff3c8	-0.0043930747
2	0xbda6066b	-0.08106693
3	0xbcadd236	-0.0212184
4	0xbca18bff	-0.019720076
5	0x3d62e704	0.055396095
6	0xbd54294c	-0.051797196
7	0x3af42348	0.0018626237
8	0xbcc7e1c6	-0.02439965
9	0x3d0741a0	0.03302157
10	0x3da78f85	0.08181671
11	0x3d9e92cd	0.07742844
12	0xbcdf5d8f	-0.027266292
13	0x3d102a43	0.035196554
14	0x3e0f1b73	0.13975315
15	0xbd02f912	-0.031975813
16	0xbd58994a	-0.052880563
17	0x3d5b24ee	0.053502016
18	0xbce91b4c	-0.028455399
19	0x3cb25c1f	0.021772442
20	0x3e043b66	0.12913284
21	0xbd59c69e	-0.05316793
22	0xbe52e422	-0.20594838
23	0x3d9cd347	0.076574855
24	0x3d25404b	0.040344518
25	0x3dd530c8	0.10409695
26	0x3bb4ca9a	0.005517316
27	0x3d5e9215	0.054338533
28	0xbde6362c	-0.11240801
29	0x3d7fd763	0.06246127
30	0xbc347f46	-0.0110166725
31	0x3dbbe305	0.0917416

ref_cov_fc1_rev.weight f4 [32, 61]
0	0xbd9a8905	-0.07545666
1	0xbd3c56ff	-0.045981403
2	0x3d7f86fd	0.062384594
3	0xbdc48c1f	-0.095970385
4	0x3d84f8d9	0.064927764
5	0xbcd4ee6d	-0.025992597
6	0xbda4837e	-0.08032893
7	0xbc99a42a	-0.018755037
8	0x3d9f1af9	0.077688165
9	0xbcc5d927	-0.024151398
10	0x3cf8110c	0.030281566
11	0x3d9eb5a2	0.077494875
12	0x3d2cce71	0.042189065
13	0xbd82efdd	-0.063934065
14	0x3ddc24f1	0.107492335
15	0xbdf6d18e	-0.12051688
16	0xbcc8f703	-0.024531847
17	0xbdfdf9ad	-0.124011375
18	0x3dacb88a	0.084336355
19	0x3e0286a1	0.1274667
20	0xbdef4c13	-0.11684432
21	0xbc34fa26	-0.011045968
22	0xbd981062	-0.07425
23	0x3de98110	0.1140157
24	0xbdd08346	-0.101812884
25	0x3d20840c	0.03918843
26	0xbdaa848d	-0.08326063
27	0xbdc16ff2	-0.0944518
28	0x3df02b7b	0.11727043
29	0xbcc93e7d	-0.02456593
30	0xbdef6250	-0.116886735
31	0xbdfdcbb8	-0.12392372
32	0xbcfb1457	-0.030649347
33	0x3d9b9867	0.07597428
34	0x3bd2518f	0.006418414
35	0x3c5f9152	0.013645487
36	0x3dc5c20d	0.09656153
37	0xbd5984d4	-0.05310519
38	0x3dfe3e6c	0.1241425
39	0xbcb4812f	-0.022034256
40	0xbdbd6e0f	-0.09249508
41	0x3d3c1d6d	0.0459265
42	0xbca05381	-0.019571068
43	0xbd92abe4	-0.07161692
44	0xbdd4d5ec	-0.10392365
45	0x3d1f85d4	0.038945988
46	0xbdf6771d	-0.12034438
47	0x3db376f9	0.087629266
48	0x3c99113e	0.01868498
49	0xbcdd1ade	-0.02699035
50	0xbdc59611	-0.096477635
51	0xbdf537da	-0.119735435
52	0x3d9321e0	0.071841955
53	0x3dec070a	0.1152478
54	0x3d355716	0.044272505
55	0xbdb2b3dc	-0.08725712
56	0xbdd7b4c0	-0.10532522
57	0xbd2aeb01	-0.041728023
58	0xbdd52fa3	-0.104094766
59	0x3d274d9e	0.040845506
60	0x3df34ff8	0.11880487
61	0x3d739989	0.059472594
62	0x3d80434d	0.062628366
63	0x3dced4bf	0.10099172
64	0x3de6f373	0.11276903
65	0xbcb3c582	-0.021944765
66	0xbc61c4b2	-0.013779806
67	0xbd58d486	-0.052937053
68	0xbc8ebb82	-0.017423395
69	0x3afcab8d	0.00192772
70	0x3e2db5a0	0.16963816
71	0x3e0de769	0.13857807
72	0x3e24c099	0.16089095
73	0x3dcf5eaf	0.10125481
74	0x3dd28bad	0.10280547
75	0x3e292e6b	0.16521613
76	0x3c8d3870	0.017238826
77	0x3d9e8cd1	0.07741702
78	0xbd430db7	-0.0476205
79	0x3cdc97e7	0.026927901
80	0x3dca2957	0.09871166
81	0xbde42299	-0.111394115
82	0xbdccb838	-0.099960744
83	0x3c9cbf82	0.019134287
84	0xb951eecc	-0.00020020752
85	0xbcdf103f	-0.027229426
86	0xbbe7f04a	-0.0070782052
87	0xbe6ecd87	-0.2332059
88	0xbe7b8068	-0.24560702
89	0xbe9dbfe6	-0.3081047
90	0xbf03ed36	-0.5153383
91	0x3dc1c8ac	0.09462103
92	0xbdf1e925	-0.11812047
93	0xbe586518	-0.21132314
94	0xbe61bbbc	-0.22044271
95	0x3d12bdf0	0.03582567
96	0xbdb47b40	-0.088125706
97	0x3d7a34d2	0.06108553
98	0x3dc3f277	0.09567731
99	0x3e08f6db	0.13375418
100	0x3d101b09	0.035182033
101	0xbdb5152b	-0.08841928
102	0x3d92d8bc	0.07170245
103	0x3dc61a2c	0.09672961
104	0x3e25c9b5	0.16190226
105	0x3de25dfc	0.11053082
106	0x3dac1fc9	0.084045
107	0x3e372a26	0.17887172
108	0x3d21c05d	0.039490093
109	0xbd1f033a	-0.038821436
110	0x3e417ea4	0.18895966
111	0x3ddd1fb5	0.10797063
112	0x3e46bb79	0.19407453
113	0x3e3057d7	0.17221008
114	0x3e3591c2	0.17731383
115	0xba69565c	-0.0008901113
116	0xbdad3be6	-0.0845869
117	0xbdbf11b8	-0.093295515
118	0xbdb28542	-0.08716823
119	0x3d88ff35	0.06689302
120	0x3dee41a7	0.11633616
121	0x3c944063	0.018097108
122	0xbe94708e	-0.28992122
123	0xbe22b6f5	-0.15890105
124	0xbe8527bd	-0.2600688
125	0xbe848508	-0.25882745
126	0xbe95a90f	-0.29230544
127	0xbe14efe5	-0.14544638
128	0xbe8a9459	-0.27066305
129	0xbe88303e	-0.26599306
130	0xbe00160b	-0.12508409
131	0xbe6b0c5d	-0.22953935
132	0xbe924b17	-0.28572914
133	0xbdeb97b6	-0.11503546
134	0xbe78b418	-0.2428745
135	0xbe7e01cf	-0.24805377
136	0xbe741716	-0.23836932
137	0xbe88ddc7	-0.26731703
138	0xbe697ba8	-0.22801077
139	0xbead872f	-0.338922
140	0xbe38924f	-0.18024562
141	0xbe8fe891	-0.28107122
142	0xbe6fff51	-0.23437239
143	0xbe60bb09	-0.21946348
144	0xbead01a9	-0.3379033
145	0xbe679b3a	-0.22617808
146	0xbeaaf8bc	-0.33392894
147	0xbe7dca5d	-0.24784227
148	0xbe5e2b6e	-0.21696255
149	0xbe560b6c	-0.20902795
150	0xbea0a5c5	-0.31376472
151	0xbea54eac	-0.32286584
152	0xbea1a4f3	-0.3157116
153	0xbe8d497c	-0.27595127
154	0xbe9ad4a0	-0.30240345
155	0xbe803cf0	-0.25046492
156	0xbe26b229	-0.162789
157	0xbec12c92	-0.37729317
158	0xbebc367a	-0.36760312
159	0xbe8b3fa3	-0.27196988
160	0xbeb21dea	-0.34788448
161	0xbead319e	-0.33826917
162	0xbeaf1e48	-0.3420279
163	0xbe4dedc8	-0.20110238
164	0xbe807197	-0.25086662
165	0xbe5d65bd	-0.21620841
166	0xbdf39f86	-0.11895661
167	0xbe451f71	-0.19250275
168	0xbe8547f8	-0.2603147
169	0xbe37314e	-0.17889902
170	0xbe84bce5	-0.25925365
171	0xbe845b0d	-0.25850716
172	0xbe5920bc	-0.21203893
173	0xbe166a51	-0.14688994
174	0xbeae3adf	-0.3402929
175	0xbe9c4a42	-0.30525404
176	0xbe4a19ac	-0.19736356
177	0xbe7af66d	-0.24508066
178	0xbe1330b8	-0.14374053
179	0xbe6a619f	-0.22888802
180	0xbe233fac	-0.15942258
181	0xbde1d113	-0.11026206
182	0xbe19a4d9	-0.1500429
183	0x3c4e7a60	0.012602419
184	0x3d308ba2	0.043101914
185	0x3d989dc7	0.07451969
186	0x3b246404	0.0025084028
187	0x3d696b97	0.05698737
188	0x3d5a2d99	0.05326614
189	0xbc223973	-0.009901392
190	0x3de3d6ec	0.111249775
191	0x3db5a589	0.08869464
192	0x3e333c91	0.17503573
193	0xbd2299cd	-0.039697457
194	0x3cb78ff3	0.022407508
195	0x3e04e804	0.12979132
196	0x3e3330e0	0.17499113
197	0xbd8ab641	-0.067730434
198	0x3a3c63be	0.00071864936
199	0x3db5f49d	0.08884547
200	0x3b9b728a	0.0047438787
201	0x3e095834	0.13412553
202	0xbc04d541	-0.008107484
203	0xbc167ec6	-0.009185499
204	0xbdb0b318	-0.086279094
205	0xbd0b6859	-0.03403506
206	0xbda09b96	-0.07842176
207	0xbcdbc703	-0.026828295
208	0xbe25077d	-0.16116138
209	0xbe48a188	-0.1959287
210	0xbe4720c4	-0.19446093
211	0xbe83b812	-0.25726372
212	0xbe98e129	-0.29859284
213	0x3d945a91	0.07243837
214	0xbdd68931	-0.10475386
215	0xbe85f850	-0.2616601
216	0xbe43ad0d	-0.19108982
217	0xbd8f8f49	-0.07009751
218	0xbdcb22ff	-0.09918784
219	0x3d1690af	0.036759075
220	0xbd620c28	-0.055187374
221	0x3e171154	0.14752704
222	0x3cc31452	0.0238134
223	0xbd188d69	-0.037244234
224	0x3df36c0f	0.11885845
225	0x3e072115	0.13196214
226	0x3de61d04	0.11236003
227	0x3e566581	0.20937158
228	0x3e78201e	0.24231002
229	0x3e003ce9	0.12523235
230	0x3c2e6b3c	0.010645684
231	0x3dd46a41	0.10371829
232	0x3e4ae53e	0.19814011
233	0x3ce71ee2	0.028212968
234	0x3e44620a	0.19178024
235	0x3e812e0d	0.25230446
236	0x3d3b2a0f	0.045694407
237	0x3d68d082	0.056839474
238	0xbd5eb540	-0.054372072
239	0xbd33d7e1	-0.04390705
240	0xbd8dbcf9	-0.06920809
241	0x3b650a8b	0.003494891
242	0x3d7b298c	0.06131892
243	0x3bf163ca	0.007366632
244	0xbd02a693	-0.03189714
245	0x3d249941	0.040185217
246	0x3d4f4c19	0.05060968
247	0xbd00d199	-0.031449888
248	0xbc92df68	-0.017928794
249	0xbe0ee40d	-0.13954182
250	0x3b93ab23	0.004506485
251	0x3d9d4590	0.076792836
252	0x3dddf6f2	0.10838117
253	0xbd5bf571	-0.053700868
254	0xbde4b64f	-0.11167585
255	0x3cb52d3f	0.022116302

ref_cov_fc1_rev.bias f4 [32]
0	0xbdfbed6e	-0.123011455
1	0x3df58075	0.11987392
2	0x3c8ef4cc	0.017450713
3	0x3d360c7d	0.044445504
4	0xbd7cb54f	-0.061696347
5	0xbe117d90	-0.14208055
6	0x3dae492d	0.08510051
7	0xbceff969	-0.029293733
8	0xbb1c1627	-0.0023816915
9	0xbe0e2a82	-0.13883403
10	0x3d07c2f6	0.033144914
11	0x3ce8954e	0.028391507
12	0xbd7decda	-0.061993457
13	0xbb1169f3	-0.0022188395
14	0x3ce3ac2a	0.027792055
15	0x3df6d8ce	0.12053071
16	0xbc189042	-0.0093117375
17	0x3e18fb56	0.14939627
18	0x3e0b1d66	0.13585433
19	0x3dae7899	0.08519096
20	0xbdeb67f8	-0.1149444
21	0x3d5a9645	0.053365964
22	0x3cd7b59b	0.026331713
23	0xbdb1c9fd	-0.08681104
24	0x3d76a650	0.0602172
25	0x3d73fa41	0.059564833
26	0xba739415	-0.00092917803
27	0x3ba8b119	0.005148065
28	0xbd23183b	-0.03981803
29	0x3dfb00bb	0.12255999
30	0xbda450f1	-0.08023251
31	0x3df09d76	0.11748783

ref_cov_fc2.weight f4 [16, 64]
0	0x3d3f5dfb	0.046720486
1	0xbc8fd9c6	-0.017559897
2	0x3dc8c7d7	0.098037414
3	0xbdd40c23	-0.103538774
4	0xbd2ea5d1	-0.042638604
5	0xbcb90998	-0.022587582
6	0xbdbf4280	-0.09338856
7	0x3e256769	0.16152729
8	0x3eb93c36	0.3617875
9	0xbdb87ddd	-0.090083815
10	0xbd162a65	-0.036661524
11	0x3be55db7	0.006999697
12	0xba79e900	-0.0009533316
13	0xbdcaa339	-0.098944135
14	0x3db3c34e	0.08777486
15	0xbef136c6	-0.471121
16	0xbd43e52b	-0.047825973
17	0x3ca80502	0.0205102
18	0x3da27129	0.0793174
19	0xbc5d11e9	-0.01349304
20	0x3e06f5fa	0.1317977
21	0x3da4676d	0.080275394
22	0x3ce542de	0.027985986
23	0xbd15598e	-0.03646236
24	0x3d764127	0.060120728
25	0xbd55b209	-0.05217174
26	0xbe3052cb	-0.17219083
27	0x3d56ddd2	0.052457638
28	0x3cc8fad8	0.024533674
29	0xbd563d76	-0.052304707
30	0xbd8b5eb9	-0.06805176
31	0xbcb8179b	-0.022472193
32	0xbdf8eb80	-0.12154293
33	0xbe17f58f	-0.14839767
34	0x3c6edd4a	0.014579127
35	0xbe8cc851	-0.2749658
36	0xbc339fd9	-0.010963404
37	0x3e816bbb	0.25277504
38	0x3c4ba5d3	0.012429672
39	0x3c95e912	0.018299613
40	0x3c91c668	0.017794803
41	0xbb879795	-0.004137943
42	0xbe38e063	-0.18054347
43	0x3e149efd	0.14513774
44	0xbd8f0faa	-0.069854096
45	0x3e14df89	0.14538397
46	0xbe8b0ce9	-0.27158287
47	0x3d1733ad	0.036914516
48	0x3f2daf79	0.67845875
49	0x3de00b89	0.109397
50	0xbdefd9e1	-0.11711479
51	0xbe3b39c6	-0.18283758
52	0xbf26147f	-0.64875025
53	0xbca2b540	-0.019861817
54	0x3e54d033	0.20782547
55	0x3c0d8b67	0.008639193
56	0xbd4b30d1	-0.0496071
57	0xba7b5cec	-0.00095887366
58	0x3d60b33e	0.05485844
59	0xbd9d9eba	-0.0769629
60	0x3d945bde	0.07244085
61	0x3da63d62	0.081171766
62	0x3d7acbad	0.061229397
63	0xbd8a5861	-0.06755138
64	0x3d0be338	0.03415224
65	0x3d9ed127	0.077547364
66	0xbd03cf8b	-0.03218035
67	0x3d7cc01c	0.061706647
68	0x3daafea0	0.08349347
69	0xbe870259	-0.2636898
70	0xbcbee8ad	-0.023304308
71	0xbd0e3b13	-0.034724306
72	0x3f79f772	0.97643197
73	0x3dcd6ff1	0.10031117
74	0xbe5ea263	-0.21741633
75	0xbe2b9b92	-0.16758564
76	0xbdb484a3	-0.08814361
77	0xbc5a444d	-0.013321948
78	0x3e078652	0.13234833
79	0xbe84670f	-0.25859877
80	0x3da1b98d	0.07896719
81	0x3d26e430	0.04074496
82	0x3f46fc0c	0.77728343
83	0xbd9881db	-0.07446643
84	0xbdf33c87	-0.11876779
85	0x3cf603b1	0.030031057
86	0x3c00213d	0.007820425
87	0xbda5e7a6	-0.08100824
88	0x3d9ed9ac	0.07756361
89	0x3d3d7e05	0.04626276
90	0x3d254f8b	0.04035906
91	0xbe1361fa	-0.14392844
92	0xbbe644c0	-0.0070272386
93	0xbe140f11	-0.14458872
94	0x3e12dcc6	0.14342031
95	0x3be14e14	0.0068757627
96	0xbca7a170	-0.020462722
97	0xbdaa5ac6	-0.08318095
98	0xb8dd32bd	-0.00010547552
99	0xbe6f4cd8	-0.23369157
100	0x3cd78d28	0.026312426
101	0x3d914d65	0.0709484
102	0x3d8b9f42	0.068174854
103	0xbdbb024b	-0.09131297
104	0x3e008a44	0.12552744
105	0xbdafad08	-0.08577925
106	0xbc502d80	-0.012706161
107	0x3bdfa08d	0.006824559
108	0x3d3cda58	0.046106666
109	0x3c7b3678	0.015332811
110	0xbdd47c32	-0.10375251
111	0x3d828ffe	0.063751206
112	0x3e7e65d4	0.24843532
113	0x3d8ca6a7	0.06867724
114	0xbd87183d	-0.0659642
115	0xbe404ff6	-0.18780503
116	0xbea33fd6	-0.3188464
117	0xbd9e4983	-0.07728865
118	0x3d29c48c	0.041447207
119	0xbda1e25f	-0.07904505
120	0x3c096564	0.00838599
121	0x3dd2ba08	0.10289389
122	0xbe2a6a6f	-0.16642164
123	0x3d970216	0.07373445
124	0xbda2346d	-0.07920156
125	0x3ca9101b	0.020637562
126	0x3ac88fd1	0.001530165
127	0xbda25a0f	-0.079273336
128	0x3c529d23	0.012854847
129	0xbc9d7add	-0.019223625
130	0xbda6415b	-0.08117934
131	0x3e2582fa	0.16163245
132	0x3da8053d	0.08204124
133	0xbd77689f	-0.06040251
134	0xbd000312	-0.031252928
135	0x3d9bcf93	0.07607951
136	0x3f57b5be	0.8426169
137	0x3e26633d	0.16248794
138	0xbb6359e0	-0.003469102
139	0xbd10e67b	-0.035376053
140	0xbdaf5530	-0.0856117
141	0x3da21d6a	0.079157665
142	0x3be332fe	0.006933569
143	0x3e07abc2	0.13249114
144	0xbd5f5e64	-0.054533377
145	0x3dd86a90	0.105672
146	0xbdd05931	-0.10173262
147	0x3d9f356b	0.077738605
148	0xbdfa4d2e	-0.12221752
149	0x3caf407d	0.021393055
150	0xbe479c8d	-0.19493313
151	0xbdec3cb0	-0.11535013
152	0x3d1cc9da	0.03827844
153	0xbd5d82e9	-0.054079924
154	0x3d929e0d	0.07159052
155	0xbe6eaa19	-0.23307075
156	0x3dd5a3cc	0.104316324
157	0x3d805ef4	0.06268111
158	0xbd77bd0d	-0.060483027
159	0x3ca4fd6a	0.020140368
160	0xbd9c2e5a	-0.07626028
161	0xbe4c23cd	-0.19935532
162	0x3d38c7e4	0.045112506
163	0xbd558ddb	-0.052137237
164	0xbca10d4c	-0.01965966
165	0x3ce962e2	0.028489534
166	0x3dddbe6f	0.10827338
167	0x3d50d9f9	0.050989125
168	0xbcad2f84	-0.021140821
169	0x3cb9daba	0.022687305
170	0xbcc1d5f0	-0.023661584
171	0xbbd5fcce	-0.006530381
172	0x3dacb96e	0.084338054
173	0xbd0f7177	-0.035020318
174	0xbe03138b	-0.12800424
175	0xbbc67fab	-0.0060576997
176	0x3f59c8ed	0.85072213
177	0x3e12d91c	0.14340633
178	0xbd936ee9	-0.07198889
179	0x3d32cf9a	0.043655016
180	0xbee2d9d2	-0.4430681
181	0x3d57eee8	0.052718073
182	0x3e160c04	0.14653021
183	0xbd1e9403	-0.038715374
184	0x3db82ed4	0.08993307
185	0x3d00ce9a	0.03144703
186	0x3e046481	0.12928964
187	0xbc958def	-0.018256156
188	0x3d6301d2	0.055421658
189	0xb98afdb3	-0.00026510432
190	0xbdf7c30d	-0.1209775
191	0x3cfd7777	0.030940754
192	0xbdc07042	-0.093964115
193	0x3c36e3e7	0.011162735
194	0xbc635da1	-0.013877303
195	0x3ced684b	0.028980395
196	0xbb5fc5fc	-0.0034145107
197	0x3e6a442a	0.22877565
198	0xbd4549dd	-0.048166145
199	0xbc5abf93	-0.013351339
200	0x3eff9cad	0.49924222
201	0x3d167597	0.036733236
202	0x3cb10010	0.021606475
203	0x3e2b03ca	0.16700664
204	0xbdd7d688	-0.105389655
205	0xbdcf0389	-0.10108096
206	0x3e17c0fb	0.1481971
207	0x3ecf39fa	0.4047392
208	0xbe0c9c59	-0.13731517
209	0x3b5950e4	0.0033159787
210	0x3e80d841	0.2516499
211	0xbe04b9c4	-0.12961489
212	0x3d0ee84e	0.03488951
213	0xbdb3f20b	-0.087864004
214	0xbe233f1d	-0.15942045
215	0x3e5e8aea	0.21732679
216	0xbd7e3c81	-0.06206942
217	0x3acaff4c	0.0015487461
218	0xbe4a7889	-0.19772543
219	0x3cff2043	0.031143313
220	0x3de8acd8	0.11361092
221	0x3dba57e0	0.09098792
222	0xbc32536e	-0.010884149
223	0xbd10ea1c	-0.035379514
224	0x3dbe330e	0.09287082
225	0xbe508bb4	-0.20365793
226	0xbd88dd5f	-0.06682848
227	0xbea736b8	-0.32658935
228	0xbd13e5b2	-0.036107726
229	0x3d6fe0c9	0.05856398
230	0x3d7d7e24	0.061887875
231	0xbd625104	-0.055253044
232	0xbd6a2360	-0.057162642
233	0x3db51a24	0.088428766
234	0xbf28b5be	-0.65902317
235	0x3d146b81	0.036235336
236	0xbcbbb618	-0.022913978
237	0x3d78f2a7	0.060778286
238	0xbfb81988	-1.4382792
239	0x3e32a9a2	0.17447522
240	0x3e20b176	0.15692696
241	0xbd1dcfa9	-0.03852812
242	0xbf46f051	-0.77710444
243	0xbf35d342	-0.7102548
244	0xbf381b37	-0.71916527
245	0x3e1186fe	0.14211652
246	0x3d0bbbe6	0.03411474
247	0xbbced0f6	-0.006311531
248	0x3e2dd0e0	0.1697421
249	0x3dea7ff8	0.11450189
250	0xbeac9a5b	-0.33711514
251	0x3da896d6	0.08231895
252	0x3d8ac41c	0.06775686
253	0x3e0fb72f	0.14034723
254	0xbd813d38	-0.06310505
255	0x3e1ccf53	0.15313463

ref_cov_fc2.bias f4 [16]
0	0x3d019dc3	0.031644594
1	0x3d90b102	0.070650116
2	0xbc1c8b47	-0.009554691
3	0x3e16369e	0.14669272
4	0x3de40308	0.11133391
5	0xbe5625ee	-0.20912907
6	0x3cdfbb65	0.027311036
7	0x3c3714ae	0.011174364
8	0x3e05fa21	0.13083698
9	0xbcfc8218	-0.030823752
10	0xbd4d8dd4	-0.050184086
11	0xbceb120f	-0.028695134
12	0xbc8c7380	-0.017144918
13	0x3dc7823d	0.09741638
14	0x3e530a93	0.20609502
15	0xbd8dc87d	-0.06923006
