model/unphased_cDNA_nanopore_R104_HG002.pth (torch, 693210 bytes, 32 tensors)

combined_conv1.weight f4 [64, 5, 4, 3]
00000000: 1681 cbbf 2698 0dbd 344e 5b3b 63a7 9fbf
00000010: 22b2 60be f439 80be 07f6 2a3e ad8e 453d
00000020: a184 a13d ffe9 f6bd 1aae dbbd 5328 23be
00000030: d423 293f ab7b e13c d6b6 893c 9249 1c3f
00000040: 4123 503c 83bf 503d 67b8 57bd 1eb1 093d
00000050: b986 6d3c d825 e4be 1203 223d 87c0 56bd
00000060: 8059 483f 0701 09bc 75c7 eb3c afed 1a3f
00000070: 5a20 0dbd b87a 04bc e0b0 1ebd e49a e53b
00000080: 254d 3b3d f0c3 c1be 5bea 9bbc 7c53 5b3c
00000090: 0f20 30bf 33fb 273d 9485 b1bc 6f34 00be
000000a0: 22c6 193e 5fcb 94bb ec9d 3f3d 6543 c43b
000000b0: d816 32bd 63df c13d 7ad1 18bc dea7 cf3c
000000c0: 8a97 76bf c7a8 92bd 3bcc 80bd fc04 20bc
000000d0: 6fba 63bd bed5 aa3d 3623 b43d 1bea 15bd
000000e0: ce06 93bc b811 393e f934 383c f90b e8ba
000000f0: 2f08 2dbf ce85 833d 2d43 91bd e513 143e
00000100: 7ea3 083d 37d4 c7bd af42 203e 1f9b 143e
00000110: 8243 34be aa6b 52bf b1be 16bf b7f1 72bd
00000120: e536 30bf 6128 31bd eb4d 163b 4a48 503d
00000130: f2d1 23bd cbc0 e03b 35b3 073d a440 07bc
00000140: ac21 143d 4630 abbe 9526 1fbd 366e ae3b
00000150: 6b5a e5be a1e1 63bc 1b5c 14bd 9c90 403d
00000160: 62f5 ecbb 95bf f4bc 44cc 9e3d 8216 77bd
00000170: 5b38 c3bc e9ee 4dbe 6fbb bfbc 1684 9abc
00000180: a7aa 823e d210 953a a890 d73d 4e47 2ebe
00000190: d5f3 d13b da76 063e ae6e 3dbe fe59 91bd
000001a0: 6c8a 303e 5219 753e 2d54 c13e 6406 be3d
000001b0: 6e04 693e 0fba 25bd e257 0b3e 33d4 f6bd
000001c0: ccd6 d7bc 7bab 1c3e 74f7 22be 46d1 f8bd
000001d0: b631 623e 8d7c 973e 49e5 513e d722 0e3e
000001e0: 8c1e 053e 9435 bbbc 342e d53c 21cb 4abf
000001f0: 4548 8dbd 2432 1f3d ef8e 21bf 50bf 52bd
00000200: a8dc ac3b e342 1f3e 72c0 0fbc 2739 e9bb
00000210: a8f6 b73b d0f0 e0bb e5fb 8c3c 4820 49bd
00000220: d7ac 0bbc a530 f43b c7a6 15bf 3032 e63a
00000230: a344 c63c a087 81ba eca3 91ba 3809 e33b
00000240: 5eb3 ecbb 0754 da3b f2b3 583b 52da 4abf
00000250: 027a 0e3c 0b18 183b 055c f4bd 9647 333b
00000260: 3aa8 2e3c 7c33 e73b b7b4 6ebb 844c 813c
00000270: b004 313c 0aae 34bc 209e 583c 4b1f e83e
00000280: 519d c0bb d4e6 31bc 2cf7 d13e d564 bb3b
00000290: ea75 88bc b173 82bc 6d6f 57bc ef8b ca3c
000002a0: 4394 e43b 1587 583a 30fb 12bd fe43 e93e
000002b0: d177 483d 6055 12bd 5b23 c33e b819 0f3d
000002c0: c184 5ebc db16 323c b7ce a53c b294 dcbc
000002d0: 5ae8 0c3d 290a 463e b408 c0bd 1baf 48be
000002e0: 504c 193e ea53 c5be 3ed0 b4bc a183 dfbe
000002f0: 21de 0d3e 4710 3f3c 1188 2bbf 6885 adbe
00000300: e893 17bd c499 2abc 80eb 083c 4b87 cbbf
00000310: f126 82bb 2eae 3ebc 61e4 99bc 7c5c 2bbb
00000320: af43 a53c 194f 91bc 9154 c2bf 06c9 a3bf
00000330: a9c6 d93c 2de3 11bd aed7 7cbd fda0 04c0
00000340: 3816 183a b4e0 36bf 5662 853d cc84 ddbd
00000350: c829 f93c 64b4 a73d 4268 4abe 5aea d93d
00000360: 86ef fcbc 1e8c acbe 3113 c13d f918 89bf
00000370: a85d e8bd 0a1d 8ebd 8348 8fbd a2d0 413e
00000380: dd02 bdbd 9555 49bd 6041 7ebe a173 08bf
00000390: 1870 6abe d2cb 1bbf 44f9 593d d15c 80bf
000003a0: bd27 0ac0 1960 85be 740a 3f3d 88ea 763e
000003b0: 9d13 163e 6a2e bf3b 2540 62bd 0ef9 86be
000003c0: f2f9 a5bd 9028 0f3e 22a7 91bd bddc 063e
000003d0: ae24 b83d acca a4bd 58bb 62bf 9b2b 1bbf
000003e0: 814c eebd 6885 10be 54ac dc3d 0f45 92bd
000003f0: 1aa2 a6bc 5585 453d 0607 80bc 480a 92bc
-1.5898769 -0.03456893 0.003346336 -1.2472957 -0.21942952 -0.25044215 0.16695414 0.04823177
0.07886625 -0.1205635 -0.107265666 -0.15933351 0.66070294 0.02752479 0.016810816 0.6104976
0.012703718 0.05096389 -0.052666094 0.033616178 0.014497452 -0.44560122 0.03955371 -0.052429702
0.78261566 -0.008362061 0.028781632 0.60518926 -0.03445468 -0.008085899 -0.0387429 0.00700699
0.045727868 -0.378448 -0.019032648 0.013386603 -0.6879892 0.041011047 -0.02167014 -0.12520002
0.15016988 -0.0045408453 0.046781465 0.0059894794 -0.043478817 0.09466436 -0.009327287 0.0253486
-0.9632498 -0.07161098 -0.06288954 -0.009766813 -0.05559772 0.08341549 0.087957785 -0.036600213
-0.01794758 0.18073165 0.011243098 -0.0017703763 -0.6759061 0.064220056 -0.07092891 0.14460714
0.033359043 -0.09757274 0.15650438 0.14512299 -0.17603877 -0.8219553 -0.5888472 -0.05931255
-0.6883376 -0.0432514 0.0022934626 0.05085019 -0.03999514 0.00685892 0.03312989 -0.008255158
0.036164925 -0.33435267 -0.038855154 0.0053231968 -0.44795546 -0.013908775 -0.03622065 0.04701291
-0.0072314003 -0.02987651 0.07753804 -0.0603242 -0.023830583 -0.20110668 -0.023404805 -0.018861812
0.25520822 0.0011372811 0.10525638 -0.17019388 0.006407241 0.13131276 -0.18499252 -0.07097243
0.17240304 0.2393544 0.37759534 0.09278563 0.22755596 -0.040460642 0.13607743 -0.120521925
-0.02634754 0.1529979 -0.15914708 -0.12149291 0.22089276 0.29587212 0.20497622 0.13880478
0.12999934 -0.022852696 0.026023008 -0.792162 -0.0689855 0.038866177 -0.63108724 -0.05145198
0.0052753277 0.15552859 -0.00877391 -0.007117409 0.0056141205 -0.0068646446 0.017209956 -0.04910305
-0.008525095 0.007452088 -0.5845761 0.0017562564 0.02420265 -0.0009882338 -0.0011111475 0.006928589
-0.0072235307 0.006662849 0.003306624 -0.7923938 0.008696081 0.002320769 -0.11931614 0.00273559
0.0106602255 0.007055698 -0.0036423632 0.015783556 0.01080434 -0.011027822 0.013221294 0.45336375
-0.0058781286 -0.010858256 0.4100889 0.005718807 -0.016657788 -0.015924307 -0.013149125 0.024724929
0.006975682 0.0008259875 -0.035884082 0.45559686 0.04894239 -0.03572595 0.38112912 0.034936637
-0.013581456 0.010869707 0.02024017 -0.026926372 0.034401275 0.19339813 -0.0937666 -0.19598047
0.14970517 -0.38540584 -0.022071954 -0.43655112 0.13854267 0.011661596 -0.67004496 -0.33890843
-0.03700629 -0.010412637 0.008356929 -1.5900663 -0.0039719273 -0.011638207 -0.018785657 -0.0026147654
0.020173876 -0.017737912 -1.5182058 -1.2795722 0.026583986 -0.035617042 -0.061729126 -2.072326
0.00058016507 -0.7143662 0.06512897 -0.108163446 0.03041543 0.08188704 -0.19766334 0.10640402
-0.030875932 -0.3370065 0.094274886 -1.0710746 -0.113459885 -0.069391325 -0.069962524 0.18927243
-0.09229062 -0.049153883 -0.24829626 -0.53301436 -0.22894323 -0.6085788 0.053216234 -1.0028325
-2.1586754 -0.2604988 0.04664083 0.24112904 0.1465592 0.0058343904 -0.055236954 -0.2636189
-0.08104314 0.13980317 -0.07111956 0.13170142 0.08991371 -0.08046469 -0.88567114 -0.6061341
-0.11635686 -0.1411339 0.107750565 -0.07142078 -0.020340968 0.04822286 -0.015628349 -0.017827168

combined_conv1.bias f4 [64]
00000000: d1e7 1dbe e0f3 1abe ebc8 25be d6fd bcbc
00000010: a646 3b3c 4820 d13a 01dc fabd 3c3e 2e3d
00000020: 8dbb 10be 13e5 8ebd c6b9 45bd 7a4b 94b9
00000030: 29b9 8bbd d0a6 b9bd 5c4e c5bd 888a 16be
00000040: 969f 1cbe 0cf9 03be ace7 0abe 8267 d3bc
00000050: 1715 8cbe de72 4abd c194 e0bd 495e cebc
00000060: 384b 21be 10cb b4bd 1b9a 22be 14c8 5c3b
00000070: d94c 35be b02f f6bd 36c6 64bd 8561 96bd
00000080: d8cf f3bd b58e 3ebe 3c6c 32be 4811 d2bd
00000090: addc 1abd 66c9 04be b0a4 94bd 60f9 09be
000000a0: a645 52be 77f9 acbd 159d 6abe 6465 25be
000000b0: b241 4abe 3ffc 043d 405f ecbd 17c8 863d
000000c0: 47f1 3fbc 6d97 13bd c2a4 bebb 3bd0 59be
000000d0: 71e4 51be ddf1 24bd 42e1 c5bc cb8d 0abe
000000e0: b0b5 313c 90ba 33bc 1cca 35bd 4863 2cbd
000000f0: 9413 173d 519d fdbd 574e e5bd 2832 4abe
-0.15420462 -0.15132093 -0.16189925 -0.023070257 0.011430418 0.0015955055 -0.12248994 0.04253982
-0.14134045 -0.06977286 -0.04827287 -0.00028284994 -0.06822426 -0.0906502 -0.096340865 -0.14701283
-0.15295252 -0.12887973 -0.13564938 -0.025806192 -0.2735984 -0.049425952 -0.109658726 -0.025191443
-0.1575135 -0.088277936 -0.15879099 0.0033688592 -0.17705096 -0.120208144 -0.05585309 -0.07342819
-0.119048774 -0.18609126 -0.174241 -0.102572024 -0.03780811 -0.12967452 -0.07257974 -0.13474035
-0.20534381 -0.08446019 -0.22911485 -0.16151959 -0.19751623 0.032467123 -0.11541605 0.06581133
-0.01171524 -0.036033083 -0.0058179805 -0.2127084 -0.204973 -0.04026972 -0.024155263 -0.13530652
0.01084654 -0.010969773 -0.0443822 -0.04208687 0.036883906 -0.12383521 -0.11196583 -0.19745696

combined_conv2.weight f4 [64, 64, 1, 3]
00000000: a77d 01be 34eb 25bf 5cfb 7fbe 965e 09be
00000010: 0810 11bc 4718 8abb a306 cdbb 7660 a23c
00000020: 9898 4fbd a39f d53b 9ee5 8dbf 5838 acbc
00000030: df2f ce3d 637f 493d b1fd b93b 73a2 36be
00000040: bc42 f1be 348b a8bd f673 23bc 20f2 f2bf
00000050: 699d 173d 1249 8bbc b85d 5dbe 6c94 833c
00000060: b4ad 7bbd 75e9 6c3c 6f9f 0f3d eda3 82be
00000070: 4f2f 8bbc 0169 bd3d 35c9 08be fe22 53bc
00000080: 22f7 48bd 4b48 bf3c 8705 23be 9680 16bc
00000090: 2b1a 51bc 150a 183d 90d3 cabd 543d 12be
000000a0: 17fa 7ebe d256 afbc 04e4 9e3d c689 e3be
000000b0: 5498 babd 5fcd d8bc d777 3ebc 26bf 2e3d
000000c0: fce5 8c3c 80bf 733d 592e 703c fe92 e5bd
000000d0: f386 573d 8cdd bebc 40c6 713d 8eb5 893d
000000e0: b020 b0be 30f0 9dbd 8f16 75be b329 b9bd
000000f0: 32c7 503d 395a 833d a0dd 7cbc b8bd 053e
00000100: 3abf a13d e313 1abe 9524 13bd bce6 a23d
00000110: 7cba 54bc 9414 29bc 5c68 16bd 3165 183e
00000120: bc19 b13d b9dc 4b3d e82e c9bc d8f9 f23c
00000130: 049e 82bd 35f8 b7bd cff2 273d dfda 6abd
00000140: 97c1 07bb 030e 38bc 9274 75bd 5185 20bc
00000150: ccea 79ba 81cf f63d 492d 8fbc 0c6e 8ebd
00000160: 6afd 2abd b24c 5abd 5ff4 c6bd 2619 dabc
00000170: ebdf bebc 2a46 523b 285b 883d 4f6f f1bb
00000180: 6aac 803d 956a a2bd 60c1 16bd ab6f f93b
00000190: 7bb1 fabc 710b 1c3d 2707 b43d 7526 58bd
000001a0: 7e4b 5e3c 8aac 36be d7e9 1b3d 06f2 ab3d
000001b0: 0547 febb 1797 03bd b1fb a73d 76d5 d33c
000001c0: 2748 3a3e 35ae 60b9 bf06 093c 8945 bfbd
000001d0: 8410 98bd 3b83 88bc 9c17 f03d 55eb 50be
000001e0: 584f b5bc 5bb3 8fbd 2238 bbbe e338 abbd
000001f0: 7b99 c03c b5aa 2b3d 2a02 3d3e e70b 093e
00000200: 8696 0f3e 8f97 1cbd 356c 6bbc bf92 ab3d
00000210: bf89 febd 4e6e 253e e44f 7d3d b2df 98ba
00000220: b4b3 a4bc 5700 b9bd b7ea 6b3c 7633 e5be
00000230: 06a9 c2bd 70b0 6bbe 82be 41be 1eff a3bc
00000240: b2b6 403c 9194 b6be 0ac8 b33d 7a5b 99be
00000250: d487 72bc f40e d9be 3dfc 30be 2671 20be
00000260: f2ba 533d 1c4c 183e 3158 77bf ae9a 6bbd
00000270: 8487 c83d 046e 803c efb5 f9bd 96b4 b53c
00000280: e613 b33c 4502 8abd c7f4 25bd 1cb7 8c3d
00000290: 6a29 1dbd c723 d8ba d857 23bd 167e fe3c
000002a0: e888 18be 17e4 c9bc adef d2bd 7d3a abbd
000002b0: 683e 92bd 850d bfbc 8199 d33a 059c 92bc
000002c0: 42c3 a83d 7127 653d 20de 443c 6baf 913d
000002d0: 19a7 4e3d 9612 113e a915 cebb 5283 19bd
000002e0: 73c5 233d dd45 06bd bbea 10bd 06d9 bebf
000002f0: 8ce6 1fbe 53e7 9f3c 1a52 3d3c f5fc d73d
00000300: 6e57 473c 10b4 dfbc 4cfd 20bf 2c70 d53d
00000310: 057d 473c 7f0d a5bd c21f 2bbc a623 6c3c
00000320: 5434 e5bc 9c31 073e 305f cc3d 2539 2fbd
00000330: 3ed1 0fbe 15b2 aeb9 1b72 aabd d74a b4bd
00000340: a0a3 dbbd 38fc 3ebb a100 60bf b692 debc
00000350: d587 0b3e 5693 93bc d387 52bf f3f1 66be
00000360: bc6e 66bc 6efb 24bb 42e2 cbbb a2de 163d
00000370: d435 fbbb 21cb eebd 1e99 433d 0dc8 40be
00000380: 6d4d f23c ea0e 353d 3ee7 173e cc32 853d
00000390: 10bd 2e3d 673d 3dbf dc5a b4bc 0402 17be
000003a0: ddc0 333b 6ad3 a53d 6c9b 5dbd cfda 45bc
000003b0: 4017 773c 85a4 49bd b8d7 39be 2421 b7bc
000003c0: da14 d03d ca95 92bf 94f5 ecbb f2cc 4a3d
000003d0: d358 573c 7a85 16bd 58a7 ddbc 490e 8cbd
000003e0: 0084 ebbd 190c 73be 81ce d6bc 4335 f93c
000003f0: 61c2 aa3d 94a8 cf3d 3a2f e2bc a15d f0bc
-0.12645589 -0.64812016 -0.2499823 -0.13414988 -0.00885392 -0.00421432 -0.0062568947 0.019821387
-0.050682634 0.0065192743 -1.1085699 -0.02102296 0.100677244 0.04919375 0.0056759943 -0.17835407
-0.47121227 -0.08229676 -0.009976378 -1.8980141 0.037015352 -0.017002616 -0.21617782 0.016061984
-0.061444953 0.014459957 0.035064157 -0.2551569 -0.016990332 0.092485435 -0.13358004 -0.012886761
-0.04906381 0.023349902 -0.15920077 -0.009185931 -0.012762587 0.03711899 -0.099036336 -0.14281207
-0.24900089 -0.021403704 0.07758334 -0.4444105 -0.091110855 -0.026465116 -0.011625252 0.042662762
0.017199509 0.0595088 0.014659488 -0.11209677 0.052618932 -0.023299001 0.059026957 0.06724082
-0.3439994 -0.07711828 -0.23934387 -0.090411566 0.050971217 0.06413693 -0.015433699 0.13060653
0.07897802 -0.15046649 -0.03592356 0.07954165 -0.012983914 -0.010319848 -0.03672062 0.14882351
0.086474866 0.049771044 -0.0245585 0.02966015 -0.06377795 -0.089828886 0.041003045 -0.057337638
-0.0020714754 -0.011233809 -0.059925623 -0.00979741 -0.00095335837 0.12051297 -0.017477648 -0.069545835
-0.04174558 -0.0532958 -0.09714579 -0.02662332 -0.023300132 0.0032085278 0.06658012 -0.0073680053
0.062828854 -0.07930485 -0.03680551 0.007612189 -0.030602207 0.03809685 0.08790427 -0.05277105
0.013567803 -0.17839256 0.038064804 0.08395772 -0.007759931 -0.032126512 0.08202303 0.025858622
0.18191586 -0.00021427202 0.008363425 -0.09339435 -0.07425025 -0.016664138 0.11723253 -0.20402272
-0.02213256 -0.07016631 -0.36566263 -0.0836046 0.023510685 0.041910846 0.18457857 0.13383447
0.14022264 -0.038230475 -0.01436906 0.08377599 -0.12428617 0.16155359 0.061843768 -0.0011663346
-0.02010522 -0.09033268 0.014399222 -0.44765824 -0.09504895 -0.23016524 -0.18920329 -0.02001911
0.011762308 -0.35660222 0.08778389 -0.29952604 -0.014802892 -0.4239422 -0.17283721 -0.15668163
0.051691957 0.14872783 -0.96618944 -0.05752056 0.097914726 0.01567746 -0.12192904 0.022180837
0.021860074 -0.06738714 -0.04051664 0.06870863 -0.038369574 -0.0016490155 -0.039878696 0.031065982
-0.14895976 -0.024644895 -0.10299621 -0.08360765 -0.07140809 -0.023321876 0.001614377 -0.017896662
0.082403675 0.055945817 0.012015849 0.071135364 0.050452325 0.14167246 -0.006289203 -0.037478752
0.039983224 -0.03278147 -0.035380106 -1.490998 -0.1561529 0.019519484 0.011555219 0.105462946
0.012166841 -0.02730754 -0.628865 0.10421786 0.012175803 -0.08059215 -0.010444583 0.014412796
-0.027979054 0.13202518 0.09979093 -0.042779107 -0.14044663 -0.00033320548 -0.08322545 -0.08803337
-0.10724568 -0.0029142033 -0.8750096 -0.027169567 0.13626035 -0.018014591 -0.822385 -0.22553234
-0.014064487 -0.0025174278 -0.0062220404 0.036833413 -0.007666329 -0.116598375 0.047753446 -0.18826313
0.029577935 0.044203676 0.14834306 0.06503829 0.042660773 -0.7392182 -0.022015981 -0.14746863
0.0027428188 0.08096965 -0.0541033 -0.012076094 0.015081227 -0.049229164 -0.18148696 -0.02235467
0.10160227 -1.1451962 -0.0072314236 0.049511857 0.013143736 -0.036748387 -0.027057335 -0.06838662
-0.114997864 -0.23735084 -0.026221516 0.030420905 0.08337856 0.101395756 -0.02761041 -0.02934152

combined_conv2.bias f4 [64]
00000000: 6e34 413d 35dd b73d 07d0 0f3d e294 dfbb
00000010: b7ae 383d 62f2 dfbc f0ed ce3c f465 69bc
00000020: 2a01 1e3e 9636 973c f5b1 16bc 5770 623d
00000030: 43b2 5d3d 2107 793d 96f3 0b3d fc53 29bd
00000040: 57bc 9a3d a3e1 57bc b18a 813d bcca 833d
00000050: baf0 983d 13b1 fbbc 39a9 6c3d 5f20 c8bd
00000060: 8d20 83bd 0998 d6bd 2190 5c3d d376 123c
00000070: 9e7d 873d 2fd4 b7bc f7cb 20bd 7d25 9e3b
00000080: 5812 a63c c455 6b3d 17c4 503d d17c 613d
00000090: 9aa9 063c a3b7 1ebc 929d e0bc e635 34bc
000000a0: 32d1 49bc 9426 373d 3b3a 1bbc 714e 343e
000000b0: 3caf a33d 81a2 163c d66e 013c e1aa b03c
000000c0: 273b 533d 20b3 3a3d a22c 56bc 33e5 bbbb
000000d0: d6a9 8e3c 36af 60be f75b 58bc a33a 08bd
000000e0: 55d3 a03d 981f dc3c 963a 553d 2b27 203d
000000f0: 9c2c 1fbc 013f 24bd b5e4 383d cff4 f23c
0.04716914 0.08977739 0.0351105 -0.006823168 0.045088496 -0.027337257 0.025259942 -0.014245499
0.15430132 0.018458646 -0.009197702 0.055282917 0.05412508 0.060797814 0.03416785 -0.04133986
0.07555454 -0.013176355 0.063252814 0.06435153 0.0746779 -0.030724084 0.05777857 -0.09771799
-0.06402693 -0.10478217 0.05384839 0.008939463 0.066157565 -0.022440044 -0.039257016 0.0048262463
0.020272419 0.05745484 0.050968256 0.055050675 0.008219147 -0.009687337 -0.027418885 -0.0109991785
-0.012317942 0.044714525 -0.009474332 0.17608048 0.07992408 0.009194017 0.0078999605 0.021565856
0.051570084 0.045580983 -0.013072165 -0.00573411 0.017414968 -0.21941838 -0.01320552 -0.033259045
0.078528084 0.026870534 0.052057825 0.039099853 -0.009715226 -0.040099148 0.045139987 0.02965775

snv_conv1.weight f4 [8, 4, 3, 1]
00000000: 31fe 923d bd17 a23e 07ec 41bf 6945 d83d
00000010: fe54 6cbe 0dfa 67bf d118 d43e db39 883e
00000020: bddd a23e 7454 b5bd ddbc 953e 51f6 6cbd
00000030: 5410 ce3e 9cbd cf3d 2afb dabe 7af7 0e3e
00000040: ea75 e43e 6a36 b4bd 6f0f 80be 9ecb 8cbd
00000050: 614b 943b d012 c0be 26cf cebd b435 3b3e
00000060: e65a 02bf e7cc 3a3e 41af 74bd cd4a 03bf
00000070: bdb6 053e 2c77 a83d b6e1 f33e 7ed9 fdbe
00000080: 87ed 5f3d 97ab 55be 103c a0be 1a63 25be
00000090: d19d 323e 9c74 7fbf cffd cf3d 9169 0a3e
000000a0: cc96 89bf 828a 29bd 2779 2dbf cb9a 8f3e
000000b0: 10b2 2cbb 3ba3 5bbf 65b4 5a3e 9926 a93e
000000c0: c9e6 0dbe 0cc9 913e 9ab9 ba3e e4ab 8bbd
000000d0: b1b5 b23e ce2f 183f 9f3b 6abe 94ab 8a3e
000000e0: dce7 58bd 23d9 5e3e 1644 b03e 3d76 cfbe
000000f0: 6df1 2dbf ba01 383e ad51 90be 9955 33bf
00000100: ff29 683e efbd 15bd 56aa 153d 8162 d6be
00000110: 1faa 57bd abbd 063f 2eb8 a1be 193a 343e
00000120: 8d2d f33e 1b4c 23be 503d 32bb 4305 ed3e
00000130: 4ba8 37be 2ffe 963b e8a3 93be 7a7a bf3e
00000140: 43c3 703c 8f0b dabe c480 cd3e e2f4 06be
00000150: afc5 a53c 54c8 04bf 2549 4f3d 82ab 7e3d
00000160: ec20 193e c785 1abe c393 1d3e ee51 d63e
00000170: 016c 43bf 3bd9 f43e 1f1c 7b3e f0b1 a63e
0.071773894 0.31658736 -0.75750774 0.10560114 -0.23079297 -0.9061592 0.41425183 0.2660664
0.31809798 -0.08853999 0.29245654 -0.057852093 0.40246832 0.10143587 -0.42769748 0.13961592
0.4462121 -0.08799441 -0.25011775 -0.068747744 0.0045255874 -0.37514353 -0.10098104 0.18282205
-0.5091995 0.18242227 -0.059737448 -0.5128601 0.1305799 0.08225855 0.4763314 -0.49579996
0.054669883 -0.20866238 -0.31295824 -0.16151085 0.17443015 -0.99787307 0.10155832 0.13516833
-1.0749145 -0.041391857 -0.6776299 0.28047785 -0.002635125 -0.85795945 0.21357878 0.3303726
-0.13857569 0.284737 0.36469728 -0.06819895 0.34904245 0.59447944 -0.22874306 0.2708403
-0.052955493 0.21762519 0.34426945 -0.40519896 -0.6794651 0.17969409 -0.28187314 -0.70052487
0.2267227 -0.036558088 0.036539398 -0.41872028 -0.052652474 0.5263316 -0.3158583 0.17600287
0.4749569 -0.15947 -0.002719719 0.46293077 -0.17935292 0.0046079378 -0.28835988 0.3739813
0.0146949915 -0.42586944 0.40137303 -0.13179353 0.020235864 -0.51868176 0.050606865 0.06217528
0.14953965 -0.15090095 0.15388398 0.41859382 -0.76336676 0.47821984 0.24522446 0.3255763

snv_conv1.bias f4 [8]
00000000: fd14 8abe 05ff c5ba 17b4 a0be 5e90 2b3e
00000010: 5906 3e3b 67dd c4be 43b1 aebe 4e9b 1abc
-0.26969138 -0.0015105909 -0.31387398 0.1675429 0.0028995483 -0.38450167 -0.34119615 -0.009436442

snv_fc1.weight f4 [20, 8]
00000000: 6495 093e a5fa a03d 43c6 2f3f 634c cc3c
00000010: c0de 6ebe 3a48 6cbe 08cc 163f ff2a 61bd
00000020: ab4e 8ebe 2e4e a33e 2b67 e7be 5601 2fbe
00000030: af97 83be d96d 483e 242b 083d e6af 06bf
00000040: a569 e6be 7870 063f 7a65 593e b243 2f3e
00000050: 53b1 bc3e ec7e 0bbf c43d a63d 04f8 43be
00000060: 6bab b63e a615 05bf 1fe3 08be 88a8 ddbc
00000070: 712c 253e be10 c7be 587d fdbe dbeb a83e
00000080: 8eda d5be b9b9 12bf e416 873e 6cec cb3e
00000090: c72b ec3d 31c2 613c f57b 173f 7535 e6be
000000a0: a9a3 1a3f e78f 433e 85ae c3be 319a 323e
000000b0: 1c9d a93e b0e1 aabe cf00 2abf d088 61be
000000c0: 5ca4 59be c562 233d 8015 a6be 712c 27be
000000d0: 1ef7 3cbf 0985 733e fd4a df3e 2602 bb3e
000000e0: 9af4 c1be ac4f 48be 20e4 9a3f e90d 0f3e
000000f0: fa2d e33e 67d2 21bd e2fb 25be a376 143e
00000100: 6e72 8dbe d96a 9bbe 6ff9 bd3e 1abe 19be
00000110: ea8c 963e 640a b23e a643 30bf c892 50be
00000120: 7a44 c63b dd52 afbe 5d05 083e 6ed7 cd3d
00000130: 8c46 aebb ca31 99be caf6 9e3c 066b 2fbd
00000140: fcc0 c23e 3adc 8b3e 3186 3ebe 556d 613c
00000150: 628d a93e 8fbd f9be 2ede 4b3e 31f9 ae3d
00000160: 0f1a c4bd 68ec 3bbf 1f2f 97bd a5da e63e
00000170: bb9c 1b3d afe3 bfbe c419 82be 53a0 94bc
00000180: 5394 40be 3f87 91be cbe4 c63d e65c 24be
00000190: d6f0 9bbe 2e9c 093e dd95 f43c c20d 583e
000001a0: d52d cdbe 21bb 51bd a83e d7bf a4e3 073f
000001b0: 45a4 b5be 8617 d4bf cdc1 1c3e db8e 983c
000001c0: 8190 26be f284 033e ce12 afbe 55ff e03e
000001d0: 490f b6bd 36ed cabe 5778 413f dd03 edbe
000001e0: 3038 0fbe 0c86 063f d233 853d 480b 2abe
000001f0: 408a 9bbe ff2d 303e bfb0 213e ba03 fc3e
00000200: c2ed 8fbe 4dd3 d9bd 36a4 453f cb7c d33e
00000210: f7ec 41bd fd0e 483f 471a 853e 3ef4 f4bd
00000220: bb71 f0be 966f 813d 30a6 273c 20ca 473d
00000230: 0884 e73e 09f5 613f 43fa 63be 0bf9 153e
00000240: 3a48 fc3e 5239 acbe a41a 13bf 0bed f1be
00000250: 5873 be3d a9aa e73d 7600 0f3f 0990 da3e
00000260: 945a 073f e0a9 8f3e d1d4 163f 560c 47be
00000270: 02b5 09be 1802 dcba 0421 d8be 5493 0cbd
0.13435894 0.07860307 0.686619 0.024938768 -0.2332716 -0.23074427 0.58905077 -0.054972645
-0.27794394 0.31895584 -0.45195898 -0.17090353 -0.25701663 0.19573154 0.033244267 -0.5261215
-0.45002475 0.52515364 0.21230116 0.17115667 0.36854038 -0.5449054 0.081172496 -0.19137579
0.35677657 -0.5198616 -0.1336789 -0.027057901 0.16130234 -0.3887996 -0.49509692 0.32992443
-0.41768306 -0.5731464 0.26384652 0.39828813 0.11531787 0.013779209 0.5917352 -0.4496266
0.60405976 0.19097863 -0.38219085 0.17441632 0.33127677 -0.3337531 -0.66407484 -0.22024846
-0.21254104 0.039889116 -0.32438278 -0.16325547 -0.7381457 0.23781218 0.436119 0.36525077
-0.3788193 -0.19561642 1.2100868 0.1397015 0.44371015 -0.039507296 -0.16209367 0.14498381
-0.27626365 -0.30354956 0.37104365 -0.15013924 0.29404384 0.34773552 -0.68853223 -0.20368493
0.0060506435 -0.34242907 0.13283296 0.100508556 -0.0053184684 -0.299208 0.019404788 -0.042826675
0.3803786 0.27316457 -0.18605877 0.013758977 0.3311568 -0.48777434 0.19908974 0.08543623
-0.09575283 -0.734076 -0.073820345 0.45088688 0.037991267 -0.37478396 -0.25410283 -0.018142855
-0.18806581 -0.28423497 0.097116075 -0.16051063 -0.3045718 0.13438484 0.029856617 0.21098998
-0.4007403 -0.05120385 -1.6815996 0.5308173 -0.3547689 -1.6569679 0.15308304 0.018622806
-0.16266061 0.12843683 -0.34194034 0.43944803 -0.08889634 -0.39634103 0.7557425 -0.4629201
-0.13986278 0.5254829 0.065040246 -0.16605866 -0.30378914 0.17205046 0.1579008 0.49221593
-0.28111082 -0.106360056 0.7720369 0.41306147 -0.047345128 0.7814787 0.2599661 -0.11960648
-0.4696177 0.063201115 0.010232493 0.048776746 0.4521792 0.8826452 -0.22263436 0.14645784
0.49273854 -0.33637482 -0.57462525 -0.47251162 0.09299344 0.11311848 0.5586008 0.42688015
0.52872586 0.28059292 0.5891848 -0.194383 -0.13447955 -0.0016785292 -0.4221269 -0.03432019

snv_fc1.bias f4 [20]
00000000: b681 7a3d f7df b53e b072 173e 9624 493e
00000010: 94f4 36be 5ff7 883d 5ab5 99bd 24f4 7ebd
00000020: 5f05 c03e 48b8 5abe 1292 94be 6f99 e23e
00000030: 014d 3cbe 45b6 813e 5fff 9cbd 24c2 8a3e
00000040: e44c d5bd afd4 a43d e6b6 18be a0fa ee3e
0.06115886 0.35522434 0.14789844 0.19642863 -0.17866737 0.06687807 -0.07505293 -0.06224455
0.37504098 -0.2135936 -0.29017693 0.44257686 -0.1838875 0.25334373 -0.07665896 0.27101243
-0.10415056 0.08048379 -0.1491352 0.46675587

ref_cov_fc1_fwd.weight f4 [32, 61]
00000000: 9b82 1d3c ab56 e6bd 4565 dc3b 8632 f03d
00000010: 5bd1 403e 4367 033d 6edf 93bd cc0b 29bd
00000020: dfbd b93d e8d2 73bc f533 16be abcc 273e
00000030: c78c 24bd 26a5 f83d 06ae a6bd d465 263d
00000040: 62dd e93d c33e 693d 2752 123d 19c7 46bd
00000050: a31e a13d e4ab 863d d2e7 253e d696 db3d
00000060: 0c66 643e 9c14 ba3b 7fed 223d af3a dbbd
00000070: a60d f03d 9f0b 303d 7f97 4dbe be81 2b3e
00000080: a23f 6bbd 8b2c b33d faf2 bdbc 8391 963d
00000090: 0bd7 d5bd aedd 053d c8c7 acbd 92b5 f63d
000000a0: 4dd9 4fbd 780f 4c3c 3ec3 6dbc be39 603c
000000b0: c354 1e3c 34a1 ff3d 540a 40bd 1c48 9bbd
000000c0: 7688 7f3d f8fc 9bbc 400e 6fbc db64 d73a
000000d0: 4c4c 15be 8b3d ab3d ae1a a23d acef 1b3e
000000e0: c15b 26be da9c b7bd 5720 bdbc 8346 2c3e
000000f0: 7c42 aebd 7d4e 433e d2cf 453d 87f2 1cbe
00000100: 53ac 0ebe 19a7 973c cd5f 5abe 27f7 cdbd
00000110: 5fe3 05bf 6626 41be 8e91 8cbc cf1f 33be
00000120: c872 dabc db4c 75be f8ef 6abe 7256 0dbe
00000130: 4127 19be 3f3b d1bd 640b 0e3e fb88 ac3d
00000140: d762 01bd 1033 1e3e be48 9f3e 5d58 a83d
00000150: 12ac d43e e862 3d3e 5a13 803e fcea 3bbe
00000160: 4574 f0be da62 733e 58e8 833e 4e44 9a3e
00000170: 106c 233e 4805 8f3e 2e6d b83e c0a4 4ebc
00000180: 0ff2 453e a387 873d 68bb 013d 5f79 063f
00000190: 0afa 7c3e 0d48 0e3d 462a 8f3d 7529 e0bc
000001a0: 2031 ebbd dd07 84bc 4bf6 aabe ad8d 463e
000001b0: 8fde 463d 1297 c5be 4a1a 9bbd 0b3b 69bc
000001c0: c742 a2bc f2de c8be 7bfd bb3d cb19 d83d
000001d0: a335 213d 7cd9 a63d fcfc 97bd 14d2 66be
000001e0: f994 6abe 157b b4be 58fb 033e 0d3f 70bc
000001f0: 763d a33c a755 5bbd 0dd1 4b3c 42e8 36be
00000200: 292d abbc 56b1 b5b8 b1ee bb3e 17da cbbd
00000210: 39c6 393e fbf1 553d 2532 583e c0a1 643e
00000220: 8115 863d 2c89 58bd ac9c 16be 1572 ab3c
00000230: 1966 bdbc 8cf8 223e 2f47 963b eeed c73d
00000240: d6e2 a53c 563a adbe e2f8 95bd 7afc e83d
00000250: 8827 f0bd cdfd 553b 4413 b7bd cbdb 8dbe
00000260: 0665 843e 7902 8bbe 17ca 82be 7858 373d
00000270: 2162 e1bc a3d2 77be 0be7 84bd 9969 d1bd
00000280: 8568 d0bb 8d53 febd 5bb5 eebb 27ab 27be
00000290: 9b8b 00be 6274 0dbb c06a 6e3d 037b 5ebe
000002a0: 583f 23be 1b8b bebd e823 483e 3dd0 f63d
000002b0: 23ae 313e e26f 64bc f10f 503e df19 ddbc
000002c0: 716f fd3c 287a 74be 03a5 473e 0e4a f6bc
000002d0: aeeb 12bb d563 da3d f6c1 abbd 7f33 79be
000002e0: d543 cebd 2279 68be 5196 383c d109 ac3c
000002f0: c061 023e 6d92 3ebe 0f9e a83d e2cc 213d
00000300: 51fc cd3d 0e3e f53d af6b fb3d 0cd1 0b3e
00000310: e44d 73bd f20a ddbc 829a c8bd 967f 4abd
00000320: 2710 393e 773b 833e 4119 28bb 0ae8 2dbd
00000330: 7ede f63d ba51 a33d 450c 353e ee10 3a3e
00000340: 9620 b0bb 24ae 273e c7db 4cbd 75ab 74bd
00000350: 2b43 ec3d 2e95 4abe 8f69 913d c83d 1ebe
00000360: db27 903c bf79 f63c 8abc e8bd 9a51 44be
00000370: 8e51 0abe 0356 2abe a6ed ca3d 691b 3a3e
00000380: 0811 e13c a801 ba3d f102 94bc a730 023e
00000390: 175d 743e 29d6 073e fcb0 5ebd ec90 803d
000003a0: 6b28 b13c a4ec 533d 9e4f 87bd e719 17be
000003b0: e6ab 31be 91a0 74bc eca0 bf3b 9f35 febd
000003c0: fed4 d6bd 1ee0 303c e4f3 393d b5da 50be
000003d0: ec35 2abf a094 1dbf b0f5 15bf 6710 a9be
000003e0: be27 7bbf fdbc 06be 774e 56bf 0284 f1be
000003f0: 0568 03bf f35f 8a3f 070c b7be 52b5 dcbd
0.009613658 -0.11246999 0.0067259395 0.117283866 0.18829863 0.0320809 -0.0722035 -0.041271016
0.09069418 -0.014881827 -0.14668258 0.16386668 -0.04017332 0.121408746 -0.08138661 0.040624455
0.114191785 0.05694462 0.035722878 -0.048529718 0.078671716 0.06575754 0.16201714 0.10722129
0.22304553 0.0056787264 0.039777275 -0.107045524 0.11721353 0.042979833 -0.20077322 0.16748711
-0.05743373 0.0874873 -0.02318715 0.07351973 -0.10441407 0.032682113 -0.08436543 0.120463505
-0.050744344 0.01245486 -0.014511881 0.013685642 0.009663763 0.12481919 -0.04688485 -0.07582113
0.062386 -0.019041523 -0.0145908 0.0016433256 -0.14579886 0.08361348 0.07915245 0.15228146
-0.16245939 -0.08965464 -0.02308671 0.16823773 -0.08508775 0.1907291 0.048293896 -0.15326892
-0.13932924 0.018512296 -0.21325608 -0.10056906 -0.52300066 -0.18862304 -0.01715925 -0.17492603
-0.02666606 -0.239551 -0.22943103 -0.13802508 -0.1495638 -0.102163784 0.13871533 0.084245645
-0.0315884 0.15449166 0.31110185 0.08219979 0.4153753 0.18494761 0.25014764 -0.18351358
-0.46963707 0.23768178 0.25763202 0.30130237 0.15959191 0.27933717 0.36020797 -0.012612522
0.1933062 0.066176675 0.031672865 0.5252895 0.24704757 0.03473668 0.06990485 -0.027363518
-0.11483979 -0.01611703 -0.33391032 0.19389983 0.048552092 -0.3859182 -0.075733736 -0.014235268
-0.019807233 -0.39232594 0.09179207 0.105517946 0.039357793 0.081469506 -0.074213 -0.22541076
-0.22908391 -0.35250154 0.12888849 -0.01466347 0.019926768 -0.05354848 0.012439978 -0.17862037
-0.020895557 -8.663784e-05 0.36705545 -0.09953707 0.18142022 0.052232724 0.21112879 0.22327328
0.0654707 -0.052865192 -0.14708203 0.020928422 -0.023119973 0.15915126 0.0045861225 0.09762178
0.020249765 -0.3383357 -0.07322861 0.11376281 -0.1172629 0.0032652498 -0.089392215 -0.2770675
0.25858325 -0.27150324 -0.25544807 0.044762105 -0.027512612 -0.24201445 -0.064893804 -0.10225219
-0.006360116 -0.1241828 -0.007284803 -0.16373883 -0.12553255 -0.0021584262 0.058207273 -0.21726613
-0.15942132 -0.09303876 0.19544947 0.12051437 0.17351584 -0.013942691 0.20318581 -0.026989875
0.030936928 -0.23874724 0.1949654 -0.030064609 -0.0022418308 0.10663573 -0.083866045 -0.2433605
-0.10071532 -0.22702459 0.011266307 0.021000775 0.12732601 -0.18610545 0.08233272 0.039502032
0.10057891 0.119747266 0.122763984 0.13653964 -0.059400454 -0.026982758 -0.09795095 -0.04943808
0.18072568 0.25631306 -0.0025649818 -0.042457618 0.12054156 0.079745725 0.17680462 0.1817052
-0.0053749783 0.16375023 -0.050014284 -0.059733827 0.11536249 -0.1978347 0.07100212 -0.15453255
0.01759713 0.03008735 -0.11364086 -0.19171754 -0.13507673 -0.16634373 0.09908609 0.18174519
0.027473941 0.09082347 -0.018067809 0.12713872 0.23863636 0.1326529 -0.054368004 0.06277642
0.021625718 0.05173935 -0.06606983 -0.14755975 -0.1735073 -0.01493086 0.005848041 -0.12412571
-0.10489844 0.010795621 0.045398608 -0.2039593 -0.6648853 -0.6155491 -0.58578014 -0.33020326
-0.98107517 -0.13158031 -0.8371348 -0.47171026 -0.51330596 1.0810531 -0.35751364 -0.107767716

ref_cov_fc1_fwd.bias f4 [32]
00000000: 1d40 7d3d ee25 853c dbcd 943e 72a9 5a3c
00000010: 9bcb 29bd 7877 afbd 0290 9ebe ac6e 91bb
00000020: 1ef2 cabd b534 a43d b3b5 a1bd 7028 a73d
00000030: 21c3 d23d f6e2 cebd 7da9 f8be df6c 563d
00000040: 65c1 fd3c 4688 9bbb 067d bcbc 4189 5e3d
00000050: 9b01 9a3d ff35 803b d8fa 01bd 2c43 cbb8
00000060: 2a56 3a3d 0559 15be 4323 803d 05f9 29be
00000070: 962d 093c 160e b8bb f54a c2bd da8e 713d
0.06182872 0.016253438 0.29063305 0.013346063 -0.04145394 -0.08567709 -0.30969244 -0.004438242
-0.099094614 0.080178656 -0.078959845 0.0816201 0.10291124 -0.10101883 -0.4856681 0.05234992
0.030976007 -0.0047464697 -0.023008835 0.054330114 0.075198375 0.003912687 -0.031733364 -9.692306e-05
0.04549233 -0.1458474 0.06256726 -0.165989 0.008372685 -0.0056169135 -0.09486953 0.058974124

ref_cov_fc1_rev.weight f4 [32, 61]
00000000: bf90 f23d a2ae 893d 8ee7 193e 58fb 383e
00000010: 60c8 4c3e 2f34 e5bd 8540 ee3a 7c8a 833d
00000020: c291 b13d b3c6 00bc 2e70 e53d a73b a139
00000030: d93b fd3d 5867 903a 771d 473e 20da a6bc
00000040: e506 86bd 142b debb b585 44be a226 8dbb
00000050: cca8 273e bac5 b2be a17a fabd c7cd babd
00000060: e1dd 11bf fd9a d83d ec58 f9bd 04af ff3d
00000070: 5109 69bf 2c1e 0e3c b77e b73d 718e 953d
00000080: 719b 47be 0fbd 28be a886 4e3e 5464 62bd
00000090: 29f9 a43e c4a0 483d 5d40 ab3d 3a71 d2bc
000000a0: d9f5 f23d d31f eb3d 89b1 763d 2c83 40bc
000000b0: 56f7 88bd b9c5 e6bc 8045 06bd 6241 ac3d
000000c0: d362 b1bd fa4d babe 7a2f b83d 0c54 9ebd
000000d0: 3c20 623d acbe 01bb e59b a3bd 5b0c 893c
000000e0: 789f 103e d25f 8ebd fe62 75bd a71b bd3d
000000f0: c506 f7bd 69f9 4bbe eae8 013d fd4e 9cbd
00000100: 347c c33d d293 6b3d cdb2 b03d 6a78 183d
00000110: 2542 833c e927 75bb 0785 493d 40aa acbd
00000120: bf3c 82bb 4c72 643c 87fc 3ebc e0ab 4cbc
00000130: 1926 bfbd d3bf d83d 2d4b 6dbd cdc8 a9bd
00000140: 7e65 0cbe 91ff bb3d dbc7 2b3e 1919 7b3d
00000150: ad76 943d cc65 743d b952 c83b fc19 e53d
00000160: 8a1f 383d 3d52 2f3e d781 603e 75b5 6bbe
00000170: 329f 75bd 3f25 043d e274 03be 856f b5bc
00000180: 7c08 d33d 348d 43be 9fd8 bf3d 1e93 153e
00000190: a988 b73c 1a02 803b 715a 89bc b90d 13be
000001a0: 1b58 1c3d beea 02be 54d9 7a3c 9b02 103e
000001b0: be60 8f3d 4312 ad3d 372d 8f3c cdfb 7d3b
000001c0: 1384 0bbe e61a 5cbd bf82 39be 15cb 093d
000001d0: 6803 4cbd e9b9 21be 1bac 6f3c 49fa e6bb
000001e0: e5b6 193d 61cd 28be 7848 823e 8768 c43d
000001f0: 5484 743c 3e5a 3c3e e096 5b3d db71 953d
00000200: 0f5a 033e 4b42 d9bd 176c 723d 62af e1bd
00000210: da08 9e3d 5be1 11be b52e 01be c824 2f3e
00000220: 47cb 7f3d 345f 13be 3bbb e33d 3927 083e
00000230: b6b0 983d c9ed 333d 3c87 8f3d 8f87 8d3d
00000240: c483 27be 98c9 95bd 6771 1f3e 656e ea3d
00000250: 4931 9a3c 0d1a 953c 0291 b93d bbd3 4f3d
00000260: 6b92 043d 7e4f 97bd 4f12 db3d 4514 993d
00000270: da41 9cbd 82a4 ad3c 2ebc 923d b0b2 4abe
00000280: 99a0 153e a27c a8bd 82a9 73bd 1ed3 56bc
00000290: 3694 053d 5c31 133e c70d a0bd 4951 343d
000002a0: 909d 6d3d 59c6 053e 5ef7 c1bc 475c e8bc
000002b0: ce1b 333e 7c67 d83d 4f68 7d3d 020d f03c
000002c0: 8e67 e13b 909d eabd b7a1 513d 3645 ec3d
000002d0: 2284 2d3d f430 e53d 21c6 e83c e62f c5bd
000002e0: 47cb 98bd c4a1 00be bee4 963c b116 39bd
000002f0: 26fe 2abd 9998 fb3d 295f 603e c395 8c3c
00000300: 80b6 843e 34f7 a53d f2db 333e 6407 3b3a
00000310: c2ba 103e b1db a63d 707b 91bb c61b 463e
00000320: 80b2 783e e717 a53c 86e7 63bc f243 03be
00000330: 8a0d ec3d f6d3 ef3d 85ba 1ebe 9737 8e3e
00000340: f8eb 983c 57cc 56bd 81a1 98bd 5cbb 663e
00000350: 3932 9b3e fb58 84be 12ff 913d 7292 56bd
00000360: c5b7 c6bc 6d61 a6bc 6982 adbd af96 72bd
00000370: 08f4 343e 0578 a73c 5aaa 05be a926 d33a
00000380: 9131 c53b 40f2 3cbd 81f9 d3bb e98e 8d3d
00000390: 6315 d13d 3e97 803e bda5 213e 4bfb 023e
000003a0: 30d8 2bbd df2c 08be 5d84 a43c d843 e03d
000003b0: 03ee 6e3d d15b c0bd af43 4fbd 33aa 1e3d
000003c0: b87d 7abd fb14 c8bd f423 343d e781 94bd
000003d0: f2d5 60be 1d23 b0bd c60d 23be 5e90 c13a
000003e0: c63d 703c b0d9 c8bd 524e 82bd 9d08 a2bd
000003f0: e2a4 c2bd 8389 9dbd a77c 58bc 1ade cfbc
0.118440144 0.06722762 0.15029737 0.1806463 0.19998312 -0.11191594 0.0018177187 0.06422898
0.08670379 -0.007859874 0.11203037 0.00030752757 0.12364931 0.0011017127 0.19444834 -0.020367682
-0.06544284 -0.0067800377 -0.1919163 -0.004307584 0.16372985 -0.34916478 -0.12230421 -0.0912128
-0.56979185 0.10576437 -0.121751636 0.124845535 -0.9102984 0.008674186 0.08959716 0.07302559
-0.1949289 -0.1647837 0.20168555 -0.05527146 0.32221344 0.048981443 0.08361886 -0.025688756
0.11863298 0.11480679 0.060227904 -0.011750024 -0.066878006 -0.028170453 -0.032781124 0.08410908
-0.08661427 -0.36387616 0.089934304 -0.077308744 0.055206522 -0.0019797487 -0.07988719 0.016729524
0.14123333 -0.0695187 -0.05990886 0.0923379 -0.12061838 -0.19919361 0.031716265 -0.07632253
0.09545174 0.05751402 0.086278535 0.03722421 0.016022751 -0.0037407822 0.04919913 -0.0843091
-0.0039745267 0.013943266 -0.011656887 -0.01249215 -0.093334384 0.105834626 -0.05793302 -0.08290253
-0.13710591 0.09179605 0.16775458 0.061303232 0.07249198 0.059667394 0.006113377 0.11186597
0.044951953 0.17121215 0.2192453 -0.23018439 -0.059966274 0.032262083 -0.12837556 -0.022147903
0.10304353 -0.19096833 0.09367489 0.14606902 0.022404032 0.0039065005 -0.016766759 -0.14360704
0.03816996 -0.1278486 0.015310604 0.14063494 0.07000874 0.08450749 0.017477615 0.0038754821
-0.13624601 -0.05373659 -0.18116282 0.03364094 -0.049807936 -0.15793575 0.0146284355 -0.0070488793
0.037527937 -0.16484596 0.25445914 0.095902495 0.014924128 0.183938 0.053610682 0.07297107
0.12827323 -0.106083475 0.059185114 -0.1101978 0.07716532 -0.14246123 -0.12615474 0.17103875
0.06244972 -0.14391786 0.11119696 0.13296212 0.0745558 0.04392794 0.07008216 0.069106214
-0.16358858 -0.073138416 0.15570603 0.11446837 0.01882233 0.018200899 0.09060861 0.05073903
0.032366198 -0.07388209 0.106968515 0.07474569 -0.07629748 0.021196608 0.07164799 -0.19794726
0.14612044 -0.08226897 -0.059487827 -0.013111858 0.032612048 0.14374298 -0.07815128 0.044022832
0.05801159 0.13063945 -0.023677524 -0.028364314 0.17491075 0.10566613 0.061867055 0.029303078
0.0068787998 -0.11455834 0.051179614 0.115366384 0.04236234 0.11190978 0.028414788 -0.096282765
-0.07460647 -0.12561709 0.01841962 -0.045187656 -0.04174628 0.12284965 0.219113 0.017161256
0.25920486 0.08103791 0.17564371 0.0007134585 0.14133742 0.081473716 -0.0044397637 0.19346532
0.24286842 0.020153 -0.01391018 -0.12818888 0.1152602 0.1171035 -0.15500839 0.27776787
0.018667206 -0.052440967 -0.074526794 0.2253241 0.30311754 -0.25849137 0.07128729 -0.052385755
-0.02425755 -0.020310128 -0.084721394 -0.059225734 0.17671216 0.020442972 -0.13053265 0.0016109544
0.0060178717 -0.046129465 -0.006468952 0.069120236 0.10209157 0.2511539 0.1578588 0.12791173
-0.04195422 -0.13298367 0.020082647 0.1095044 0.058332454 -0.093925126 -0.050601657 0.038736533
-0.06115505 -0.09769627 0.0439796 -0.072513394 -0.21956614 -0.08600447 -0.15923223 0.0014767756
0.014663165 -0.098071456 -0.06362595 -0.07911799 -0.09504105 -0.07692244 -0.013213313 -0.025374461

ref_cov_fc1_rev.bias f4 [32]
00000000: 402a ef3d 16b8 983d 95b5 7bbe 2904 94bd
00000010: f9ab 9b3c eada 5d3d 3563 5d3c 3fc9 8cbd
00000020: 9d1c 3abd a8d0 95be ef94 0f3d 643b 593e
00000030: db83 12bf 1364 673c efe1 dcbe 4ee8 363e
00000040: f87f dbbd e7a5 e4ba bc61 643c b691 923b
00000050: f4d6 fdbd caaa 0f3d f913 bdba 8f0f 043d
00000060: 08e3 a1bd 0917 663c f981 f5be e567 97bd
00000070: da49 e43b 1092 c1be bb0a 6d3d c8c7 99bb
0.116779804 0.074569866 -0.24580987 -0.07227356 0.019002901 0.05416385 0.013512422 -0.06874322
-0.045437444 -0.29260755 0.035054144 0.21214062 -0.57232445 0.014122981 -0.43141124 0.17862055
-0.107177675 -0.0017444462 0.013939317 0.0044729365 -0.12394515 0.035074987 -0.0014425508 0.0322414
-0.07904631 0.014043578 -0.47950724 -0.07392863 0.0069668116 -0.3780675 0.05787156 -0.0046930052

ref_cov_fc2.weight f4 [16, 64]
00000000: 17f8 06bd fdf6 2abe 3e55 84bd fe89 953c
00000010: 6986 6d3f bcab 053d 5462 f0bd ed2b 6a3e
00000020: 7450 bfbd 148c e23d 901c babd 6eeb 4cbd
00000030: 2475 683d 8642 40bc 490d 06bf 2b7b 28be
00000040: 90e4 85bd 24ee 11be d633 b73d 90c8 f5bc
00000050: 2fb7 163d 4852 24be 582b 423f 410f 473d
00000060: 9066 fd3d 63a3 823e a9a3 b7be f606 d4be
00000070: e823 4cbe 7fd4 b73c d82d a1be e912 613e
00000080: 527f 343d 0019 8abd e4ea 1b3e 44c8 e43d
00000090: 4bd6 023e 311f 023e 0a20 01bf d0a1 0ebf
000000a0: 329c ae3d c56e 9fbd 4c57 ce3c c529 35be
000000b0: f65a 2bbe 5d23 acbd f9b3 d9be a236 58be
000000c0: a48f 2b3c aaaf 4fbe a0a3 6c3e 051c afbe
000000d0: 5f0a 42be 4ba3 5cbd 1f22 5dbf 5e42 0c3e
000000e0: 8f0d 833d cf5a 833e 437c dcbd f97b 9cbd
000000f0: 43e8 2bbf 92a7 b53c 35d6 673d 2938 813e
00000100: 47ea a73d af40 813f 38e9 7dbe 4b24 ac3d
00000110: e011 1fbf 4cd3 ea3d 8fb1 9b3c 861a d0be
00000120: 19d3 ad3d 4a4e 34bd 9528 ca3d d5a1 323e
00000130: 872d 9b3e 81b8 2cbe 879c c9bd f687 c43e
00000140: a6ed 863e 4d21 2b3e b194 513e e9e9 7fbd
00000150: c1c9 1bbb 954d 6cbe 9b9e 32be 8f80 fe3c
00000160: e9dd d2bd 6285 0cbf e4c3 e13e 3c27 53be
00000170: e374 1ebe 21da 60bd c317 a5be e7a6 b4bd
00000180: 8e61 5abe e7ba 8c3c 313d 86bd 30a2 31bc
00000190: d44b 333e c723 a2bd 7c6b c5bf a4cb 513f
000001a0: 4971 4ebd d974 01be 18e5 7fbe 0002 21bf
000001b0: a090 e33d 6137 6f3c 738f 01bf 066d 23be
000001c0: 32eb e83d b79a 00be bb3a a43d 7cff 113e
000001d0: 3c52 99be 44f6 463f 4703 3c3f d9d2 82bd
000001e0: 1cff e63d 0bd9 4f3d d985 78be f043 82bc
000001f0: 92e8 2b3f 42f9 173e 6245 723d 3155 aa3d
00000200: bfa5 29be a5ba b33e 0c63 84bd b448 ab3d
00000210: b954 a73e 00ca fabb 0141 8abc c99a 133f
00000220: 3d1b efbc 5114 35be e4b2 6cbd 93f4 40be
00000230: 37e3 83bc 2bd4 53be 3905 183d f880 1c3e
00000240: 1f02 df3d 4956 aa3d 2efc 4bbe 2b08 b5bd
00000250: 8ae3 86be eca2 de3d 0943 9dbc c87b 47be
00000260: 2d07 0b3c 9169 de3e 20e1 9d3f 3fba f5bd
00000270: 4a56 133f 96dd 1a3d ed4c 24bd 67f5 44be
00000280: 3493 1c3f c134 993d ee4a 023e 49bc 373e
00000290: 86d5 86bb 472b f43a 41ac f5bd 4a54 d13e
000002a0: 1ce2 bc3e 4ff2 173e a67e 9c3c b114 6ebf
000002b0: cd0a 4bbd d9c2 953d 287b 713d 2ca8 79bf
000002c0: 801c 6d3c dae7 a1be 6600 083e 3c8e 05be
000002d0: 3c44 703c 9f7c 3dbf e86f 543e 67ff 3a3e
000002e0: d355 c6bc 09be bc3d 46c9 883d 185b f63c
000002f0: cd97 4c3e a24b e93d f47a a73d b1c1 0c3e
00000300: f78f cb3d 612d 92be 5b7e 2a3d bf17 9cbc
00000310: d643 04c0 1414 45bd 69c3 cd3d e1dd 3abf
00000320: ba45 243e 4e3a 14be 3682 a6bc cd6a a43d
00000330: 9d36 b83c 6348 2e3b 2eb0 82bd b723 4f3f
00000340: ef58 fd3c b67e 93be 4f9b e03d 9dcc f23d
00000350: 81f4 283e 6b74 29be 0dc3 883e a20a 003e
00000360: ac17 36bc 3052 033f 7b6e 3b3e 8a6f b03e
00000370: ebb9 9dbe c566 e43d cb27 19be 5a76 1e3f
00000380: 260e 14be 6449 7dbe 7940 aabf f0ca d4bf
00000390: 1c06 033f 675e 16be dbdf e5bd 0848 85bf
000003a0: 2a23 673d 2a16 b8bf 60ab 5ebd 101a f4bd
000003b0: deae ebbe f0db 25be 9f31 43bf 5ca5 10bd
000003c0: e0f3 963d 306b 553e 7464 b0be 12d7 d5bf
000003d0: ce85 503f 8218 fbbc 0440 97be 961b 8abd
000003e0: 0143 0dbd b337 dcbe 71cd 90be fcd5 d83d
000003f0: 384f 86be fb16 9fbf 70c0 f6bd 1dd2 b9bd
-0.03295144 -0.16695781 -0.06461571 0.018254276 0.9278322 0.03263448 -0.117375046 0.22868319
-0.09341517 0.11061874 -0.09087479 -0.05002921 0.05675234 -0.01173461 -0.5236402 -0.16453235
-0.065377355 -0.14251 0.08945434 -0.030002862 0.03679579 -0.16047013 0.7584739 0.04859853
0.12373078 0.2551528 -0.3586705 -0.4141156 -0.19935572 0.022440193 -0.31480289 0.2197987
0.044066735 -0.067430496 0.15226322 0.1117101 0.12777059 0.12707211 -0.5043951 -0.55715656
0.08525886 -0.077847995 0.02518811 -0.17691715 -0.16733918 -0.084051825 -0.4252012 -0.21114591
0.010471258 -0.20281854 0.23109293 -0.34201065 -0.18949269 -0.053866666 -0.8638019 0.13697192
0.063990705 0.2565522 -0.107658885 -0.076408334 -0.6715128 0.02217463 0.056600768 0.2523816
0.08198982 1.0097865 -0.24795997 0.0840536 -0.6213665 0.11466083 0.019005565 -0.40645236
0.08487529 -0.044019975 0.09871022 0.17444547 0.30308172 -0.16867258 -0.09844308 0.3838498
0.26353186 0.16711922 0.20466878 -0.062478933 -0.0023771378 -0.2307647 -0.17443316 0.03106716
-0.10296232 -0.54891026 0.44094765 -0.20620435 -0.15474276 -0.054895524 -0.3224469 -0.088208966
-0.21326277 0.017178966 -0.0655464 -0.010841891 0.17509395 -0.0791698 -1.5423427 0.81951356
-0.050401006 -0.1264223 -0.24989736 -0.62893677 0.111115694 0.014600606 -0.5060951 -0.15959558
0.11372985 -0.12559019 0.080190144 0.14257616 -0.29945552 0.7771952 0.734425 -0.06387872
0.11279127 0.050744098 -0.24269809 -0.015901536 0.6715175 0.14841178 0.0591482 0.0831703
-0.16567133 0.35103336 -0.06464204 0.083634764 0.32681826 -0.007653475 -0.0168767 0.5765806
-0.029187793 -0.17683531 -0.05778779 -0.18843298 -0.016099555 -0.20686404 0.037114356 0.15283573
0.108890764 0.08317239 -0.19920418 -0.088394485 -0.26345474 0.10870919 -0.019197004 -0.19480813
0.008485598 0.43439916 1.2334328 -0.11998414 0.5755354 0.037808977 -0.040112425 -0.19234239
0.61162114 0.07480765 0.12723896 0.17942919 -0.0041148094 0.001862862 -0.119957455 0.4088462
0.36891258 0.14838527 0.01910336 -0.9300032 -0.049570847 0.07312555 0.05895534 -0.97522235
0.014472127 -0.316222 0.13281402 -0.1304254 0.014664706 -0.7401828 0.20745814 0.18261491
-0.024210846 0.09215934 0.06679015 0.030072734 0.19979782 0.11391379 0.08177748 0.13745762
0.099395685 -0.28550246 0.04162441 -0.019054292 -2.0666404 -0.04811485 0.10047037 -0.7299481
0.16042224 -0.14475366 -0.020325761 0.08028183 0.02248698 0.0026593439 -0.0638126 0.8091387
0.030926196 -0.2880761 0.10967123 0.11855433 0.16499521 -0.16548316 0.26711312 0.12504056
-0.011114042 0.51297283 0.18303864 0.34460098 -0.30805907 0.11152414 -0.14956586 0.6189934
-0.14458522 -0.24735028 -1.3300925 -1.6624432 0.511812 -0.14684449 -0.11224338 -1.0412607
0.05643002 -1.4381764 -0.054362655 -0.119190335 -0.4603185 -0.16197181 -0.7624759 -0.03531395
0.07370734 0.2084167 -0.3445164 -1.6706259 0.8145417 -0.030651335 -0.29541028 -0.06743543
-0.034487728 -0.43011245 -0.2828174 0.10587689 -0.26232314 -1.2428888 -0.12048423 -0.09073279

ref_cov_fc2.bias f4 [16]
00000000: 1152 b53d 8abc 8abd 7ef8 89be fabd 02bd
00000010: 3b2c 803e 3b91 77bd 96e3 183e 1844 563e
00000020: 3c83 303e 9857 353e ef69 053d 9cc8 423e
00000030: d781 2f3d 1f6f 213e 26f1 313e f7fa 0f3e
0.088535435 -0.06774242 -0.26947397 -0.031919457 0.25033745 -0.060441237 0.14930567 0.20924413
0.17237562 0.17709196 0.03257173 0.19021839 0.042848434 0.15765046 0.17377147 0.14060579

alt_cov_fc1_fwd.weight f4 [32, 61]
00000000: 04c0 d13d c4e9 fdbd bbce 573d 79db 72bd
00000010: 4dbb afbd 14d5 aebd 21c8 d83c e885 ec3d
00000020: ce69 523e dff2 44be 0dd5 7d3d 669f af3d
00000030: affe 90bd 11c9 af3d 9fbb 843d 1f73 963d
00000040: 08cc 67bd 0517 9c3d 6ceb 5d3d c75b 08be
00000050: c08a a43d 6418 abbd a1ac 4abc 82d0 843d
00000060: 72d9 19be 15ce 913d a621 5b3e 1b8d 353e
00000070: b3a5 d7be 6cf5 1abf b212 5b3e 071a 823e
00000080: d852 a43e 6e8d b3be 8202 56bd 7724 3b3e
00000090: e1eb 043e 1dea 87be 3f89 b3bd a64e 483e
000000a0: 2569 6f3c fda7 023e 20f6 54bd 513c d0bc
000000b0: f8a1 d4bd 04ff 0bbd 94b6 4e3d d130 b03c
000000c0: 55cf 3a3d da73 16be 57ad 3d3d 3466 b73d
000000d0: b0ec 29bd 9cd1 6a3d 7644 00be 5c50 e63a
000000e0: 49ba eebc 5254 43bd 6d36 943d 3a91 34bd
000000f0: f642 10bc ffab f33d 5e9b 1c3d 55d3 5f3d
00000100: 7bb5 c83d 8fd8 4dbc 0ab6 6b3d 3090 3f3d
00000110: a143 2dbc bd5e 6a3d f320 ac3c 17aa a13d
00000120: 4c47 a83d 9635 9f3d 1745 283e 4a77 97bb
00000130: b1ee 523e 9f5d 513e 81a9 ae3d e360 24bc
00000140: 5d60 80bc 09bd 88bb 6e02 16bd 8618 c4bc
00000150: bfa7 acbd d174 0fbe db75 82be 535d 91be
00000160: fd90 91bd 9a28 b1bc 99a6 3fbe 686d 233e
00000170: 9017 753d 03fe 55bd fe69 4dbe 213f 5dbd
00000180: 5815 3abe 9b3f 28be 2242 1a3e 7897 d83d
00000190: 3983 373c ef2a d5bd ba5d 1a3e 0553 693d
000001a0: 0bf3 49bd b090 b93d 2c3e 56bd 7673 27bd
000001b0: 11a7 4b3c 48ef 09bc eebb 2cbc a5ef 203e
000001c0: 08ad 4dbc ef58 11bd 4b61 6b3c 49c3 afbc
000001d0: 65b0 c93d b752 acba c1bc 073e eef9 b53c
000001e0: 83b9 83bc 0a5c bcbd d312 7f3e bdba 36bd
000001f0: 5524 e73d cf15 8f3e 0a56 3c3e 31e3 6c3e
00000200: 172d 3b3d b6e9 4b3d 39ee 733d 086f 433e
00000210: 62a8 483e 0246 7f3c 958e 173d 1cb1 97bd
00000220: f9cb c93d a03e bd3e 171c cebd 995f 233c
00000230: 8610 133e a33f 813c f927 a2bd d00f f23c
00000240: 551c c23c 17ee 4dbe 1e23 debd f763 52bd
00000250: c7c8 233d 790b 363d 2046 d0bd 525c 31be
00000260: 162a 363e da54 85bc f7da 54bd 13f0 82bd
00000270: 76cc df3d 5983 873b 1c31 64bc 4c7e 9e3e
00000280: ae26 b73c b073 d0bd c5c2 d03d 83c8 713e
00000290: 9c1b 31bd 42ac 7abe 9ca4 1f3e f743 383e
000002a0: 3835 43be ba6c 333f 4148 7abe 7e9e e73d
000002b0: 25e4 31bf 1cf1 583e 2770 20bd 22fc 0dbf
000002c0: bd41 103d db63 803e 67c9 f8be a24a 19bf
000002d0: 65c7 66bf 07b5 1ac0 6dec 2cc0 bbed 80bf
000002e0: 39e4 8cbf 5acd 71bf ac48 84bf 2669 8bbf
000002f0: 151f 78bf 29f7 76bf 8f88 8dbf 3fb3 94bf
00000300: 561a 8bbf cebb 82bf 9d17 80bf d943 92bf
00000310: 057b 81bf dab4 95bf 4f69 70bf 229f 90bf
00000320: 5829 74bf aa6a 80bf 1645 8cbf d0ba 85bf
00000330: abb0 7dbf f728 8ebf a6a5 75bf 33b6 7ebf
00000340: c753 9cbf 2b91 90bf a146 96bf 67e7 9ebf
00000350: 53f8 aebf 4297 c8bf c444 bdbf 716b aabf
00000360: 9e9d 9dbf 18dd a8bf b257 72bf bc37 acbf
00000370: c7f0 a9bf ac4b b4bf aff5 9bbf 5acf 8cbf
00000380: 419e 80bf 8fcb 87bf 6480 8fbf 5393 92bf
00000390: cfef 7abf 236d 8ebf 1a4c 84bf 04a4 86bf
000003a0: b88a 95bf ed65 89bf 4d09 85bf e6f2 6fbf
000003b0: b590 73bf 1801 6fbf 8ba6 82bf b39c 94bf
000003c0: 67d0 8bbf ac31 72bf ee57 8abf 4a93 7bbf
000003d0: 2d25 e43d 196d 643d 7aaa 90bd e24b 943d
000003e0: 6ffe 453d fbdb 6bbd 9be2 9a3d bb48 2d3d
000003f0: 802e ef3c d1b3 783c 2745 0cbe e63d 07bd
0.10241702 -0.12398103 0.052687388 -0.059291337 -0.08580647 -0.08536735 0.026462616 0.11548978
0.20548174 -0.19233273 0.06197076 0.08575325 -0.07079827 0.08583272 0.064810984 0.07346176
-0.056591064 0.07621578 0.054179594 -0.1331626 0.08034277 -0.083542615 -0.0123702595 0.06485082
-0.15024355 0.07119385 0.21399555 0.17729609 -0.42118606 -0.60530734 0.2139385 0.25410482
0.32094455 -0.3506884 -0.052248485 0.18275629 0.12980606 -0.26545802 -0.08766412 0.19561252
0.014612471 0.12759395 -0.051992536 -0.025419386 -0.103824556 -0.03417875 0.05046709 0.021507652
0.045607883 -0.14692631 0.046307888 0.089550406 -0.04148549 0.057328805 -0.12526116 0.0017571556
-0.029141562 -0.047687836 0.072369434 -0.04408381 -0.008805027 0.1189804 0.038234107 0.0546449
0.0980024 -0.012563839 0.057546653 0.046768367 -0.010575206 0.057219256 0.021011805 0.0789377
0.08216724 0.077738926 0.16432606 -0.0046223747 0.20598866 0.2044587 0.08528424 -0.010032865
-0.01567095 -0.0041729254 -0.03662341 -0.023937475 -0.084304325 -0.14009406 -0.25480542 -0.28391513
-0.071077324 -0.021625806 -0.18715896 0.15959704 0.059836924 -0.052244198 -0.20059964 -0.054015283
-0.18172204 -0.16430514 0.1506429 0.10575765 0.0112007195 -0.104085796 0.15074816 0.05696394
-0.04930405 0.090608 -0.052305385 -0.040881597 0.012429968 -0.0084188655 -0.010542853 0.15716417
-0.012553461 -0.035485204 0.014366458 -0.021455424 0.09848098 -0.001314721 0.13255598 0.022213902
-0.01607967 -0.091972426 0.24909525 -0.04461168 0.11286227 0.27946326 0.18392196 0.23133542
0.045697298 0.04978343 0.05955336 0.19085324 0.19595483 0.015580656 0.03700121 -0.07406828
0.09853358 0.36961842 -0.100639515 0.009971523 0.14361772 0.015777415 -0.079177804 0.029548556
0.02369515 -0.20110355 -0.10846542 -0.051364865 0.039986398 0.044444535 -0.10169625 -0.17320374
0.17789492 -0.016275812 -0.051966634 -0.06393447 0.1092767 0.004135531 -0.013927724 0.30955732
0.022357311 -0.10178316 0.10193399 0.23611645 -0.04323922 -0.24479774 0.15590137 0.17994677
-0.1906327 0.7008778 -0.24441625 0.11309527 -0.69488746 0.21185726 -0.039169457 -0.5546285
0.035218943 0.25076184 -0.48591158 -0.59879506 -0.90148 -2.417299 -2.7019303 -1.007255
-1.1007148 -0.94453967 -1.0334678 -1.0891464 -0.9692243 -0.96470886 -1.1057299 -1.1617202
-1.0867412 -1.0213563 -1.0007206 -1.1426955 -1.0115668 -1.1695817 -0.9391069 -1.1298563
-0.95375586 -1.0032551 -1.0958583 -1.0447636 -0.990977 -1.1106251 -0.95955884 -0.99496764
-1.2213067 -1.1294302 -1.1740304 -1.2414368 -1.3669533 -1.567116 -1.4786611 -1.3314039
-1.2313726 -1.3192472 -0.9466506 -1.3454509 -1.3276604 -1.4085593 -1.2184352 -1.1000779
-1.0048295 -1.0608996 -1.1211057 -1.145121 -0.9802217 -1.1127056 -1.0335724 -1.0518804
-1.1682959 -1.073423 -1.0393463 -0.9373001 -0.9514268 -0.93361044 -1.0207075 -1.1610321
-1.0922974 -0.94607043 -1.0808084 -0.9827162 0.11139903 0.055768106 -0.07063766 0.07241036
0.04833835 -0.057582837 0.07562753 0.04230569 0.029196978 0.01517959 -0.13698255 -0.033018015

alt_cov_fc1_fwd.bias f4 [32]
00000000: 29a9 a43c 2ca8 fdbc ae61 ebbe 56a2 d43d
00000010: 4d47 0dbe 94f3 4dbe 25db 96bb fff9 bcbb
00000020: d29d b0bc 1d2c 133e 6c4e b43d 0f65 893d
00000030: 11b8 8fbe a0f3 233e 2119 2a3c bd5e 303e
00000040: 31dd 073f d541 ed3b d50e ae3e 457a f9bd
00000050: a09f 443e 655b 3c3e 3a70 8d3e 6b2d ec3c
00000060: d44d 713e ea21 a03b 4ecb bbbd cf97 abbd
00000070: e623 883e 3795 413e 3726 ae3e b2d0 163e
0.020100193 -0.03096398 -0.4597296 0.103825256 -0.1379673 -0.20112449 -0.004603761 -0.0057671065
-0.02155963 0.14372297 0.0880402 0.067087285 -0.2807012 0.16010904 0.010381968 0.1722364
0.53071886 0.007240514 0.3399569 -0.12181524 0.19201517 0.18394239 0.27624685 0.02883025
0.23564845 0.0048868554 -0.09169637 -0.083785646 0.26589888 0.18904577 0.3401353 0.14728048
