model/unphased_dRNA_nanopore_R104_HG002.pth (torch, 693210 bytes, 32 tensors)

combined_conv1.weight f4 [64, 5, 4, 3]
000000 35 7f 81 3d e4 37 54 bd df 9a af 3b 2c 08 0e bd
       0.06323091 -0.051811114 0.0053590382 -0.034675762
000010 fd 53 b3 3c 21 ca 7e 3d f8 55 df 3d af 9a 0c 3d
       0.021890635 0.062204484 0.10905069 0.034327205
000020 5d f7 18 be a5 69 cb bd 75 74 ac 3d 81 68 df bd
       -0.14938112 -0.099322595 0.0842065 -0.109086044
000030 ee fa a6 be 7c e9 2b be 40 5c 94 bd fb f9 de 3d
       -0.3261332 -0.16788286 -0.07244158 0.10887524
000040 4c fc 4c 3a 5a 33 48 3d 41 66 40 3e 0d 06 d0 3d
       0.00078195776 0.048877098 0.18789007 0.10157404
000050 e0 c8 8f bd 2e 29 28 bd 1d d7 66 bd 73 a6 46 be
       -0.07020736 -0.041054897 -0.05635749 -0.19399433
000060 a3 5c ea bc f0 fc f3 bc 0c b1 0e bb d7 a6 bb bd
       -0.028608626 -0.029783696 -0.0021773009 -0.091626815
000070 d8 e8 88 3c 40 f6 07 3a 16 77 4c bc bd 8b 24 3d
       0.016712591 0.00051865354 -0.012479564 0.040172327
000080 a3 5a bb 3b 1b 06 28 3d 88 34 b6 bc 74 27 97 bd
       0.005717592 0.041021448 -0.022241846 -0.07380572
000090 42 cc 2b bd 61 41 83 be c7 04 13 3d e4 aa c2 3d
       -0.041942842 -0.25635818 0.035893228 0.09505251
0000a0 c1 97 80 bd 24 25 81 3b 10 62 c2 bd f4 d2 81 3d
       -0.06278945 0.003941195 -0.0949136 0.06339064
0000b0 4b 8d 0a 3e cb 9a 10 3c 8c 08 18 bd b1 2d da bd
       0.13530461 0.008825968 -0.037117526 -0.10653246
0000c0 e9 e0 86 3c e0 ca 13 be 1a 3a 77 bd df da f5 bd
       0.016464667 -0.1443286 -0.060358144 -0.12004637
0000d0 4b eb d9 3d 95 8e ba 3d 5c d1 0f 3e 3b 4d 03 3d
       0.10640582 0.091092266 0.14044708 0.032056075
0000e0 3e 6d 67 3c cb 12 0b be 42 d0 9a 3c 4e 90 df bd
       0.014125166 -0.13581388 0.018898133 -0.10916196
0000f0 a0 64 fe bd dd 6c a3 3b a5 50 72 bc f2 21 8f be
       -0.124215364 0.0049873427 -0.014789735 -0.27955586
000100 d0 e9 00 be c1 a4 c4 bd c9 84 41 3a ca bd be 3c
       -0.12589192 -0.09601737 0.0007382152 0.023283858
000110 97 c4 c2 3c 92 6d f7 3c 86 1c 8b bd 07 0c 98 bd
       0.023775382 0.030203614 -0.0679255 -0.07424169
000120 7c fe a6 3d 01 ed 0e 3d 20 6e 67 3d c9 82 06 3e
       0.08154008 0.034893993 0.056501508 0.13135828
000130 03 61 50 bd f6 53 2f be ab 7a 9b bd 0a 3d 13 ba
       -0.050873768 -0.17121872 -0.075917564 -0.00056167005
000140 71 c0 a0 be e6 47 fa bc f4 99 1c be 33 d9 8f bb
       -0.3139682 -0.030551862 -0.15293103 -0.004389906
000150 52 b6 ba 3d 11 0b d4 3c 06 9e 43 bd 8a 85 0d bc
       0.09116806 0.025884183 -0.047758125 -0.008637795
000160 78 59 b2 3c 58 4e 53 bd 94 55 bc 3c 36 07 af bb
       0.021771178 -0.051588386 0.022990026 -0.005341436
000170 fd fb b0 be 25 f1 d0 3c 9f ec a3 bd 36 d2 98 bc
       -0.34567252 0.025505612 -0.08004116 -0.018654924
000180 8f a5 fc 3d 96 7a c8 3d 5b 9a d9 3d 07 f1 80 be
       0.12336265 0.097890064 0.10625144 -0.2518389
000190 f8 0d c1 bd d9 f3 39 bd c2 66 8b bd bc 5b 5f bd
       -0.094264925 -0.045398567 -0.06806709 -0.054530844
0001a0 2b 1a b9 be ce 50 33 3d d6 38 07 3e bf cf 00 3d
       -0.36152777 0.043778233 0.13205275 0.031448122
0001b0 78 ec 8f be ca e7 d8 3d fa 9d 4d 3d 34 56 17 bf
       -0.281101 0.10591085 0.050199486 -0.5911591
0001c0 5e fb 84 3d f7 59 00 ba d4 21 95 3d 9f 27 ad bd
       0.06493257 -0.00048962183 0.07281843 -0.08454823
0001d0 39 40 57 be 41 69 8d 3c 8a ec c8 be f6 ad 7c 3d
       -0.21020593 0.017262103 -0.39242965 0.06168934
0001e0 03 80 90 be d9 b6 86 3d 0c bd 2c be 7b ed b2 bd
       -0.28222665 0.06577844 -0.1686899 -0.08736702
0001f0 c2 00 62 be 71 b3 06 3e 23 2d 0c bd 07 1c f8 bd
       -0.22070602 0.13154389 -0.034222733 -0.12114721
000200 76 0a 69 bd 08 8b 36 bd bf a5 51 bd 02 65 af 3d
       -0.056894742 -0.044566184 -0.05118346 0.085641876
000210 5e 4b ff bc c9 40 96 3d 77 18 00 bc 3c 6e 40 bd
       -0.031163868 0.073365755 -0.007818333 -0.046980128
000220 f2 2c 02 3d 90 1b 26 bb 7c f9 6c bc 0c cb 42 3c
       0.031781144 -0.0025346018 -0.014463779 0.01188923
000230 85 ef d5 3c 4f 79 51 bb 35 11 57 bc 19 ab 21 3d
       0.026115188 -0.0031963175 -0.013126661 0.039469812
000240 8b e4 90 3d ec 3b ee 3c 6f f4 44 bd c0 9e 3a bd
       0.07074841 0.029081307 -0.048084673 -0.045561552
000250 66 cb 18 bd 5d 32 44 3d a2 a3 9d bd b6 13 33 be
       -0.03730335 0.047899593 -0.07697226 -0.17487988
000260 20 43 ac bd 77 37 51 bc 5e 66 04 3d ca 82 03 be
       -0.084112406 -0.0127695715 0.032324187 -0.12842861
000270 68 63 6d 3e ce 06 02 be 7e 8b 94 3e df cb 8d 3d
       0.23182452 -0.12697908 0.29012674 0.06923651
000280 32 67 3e 3e 5e 6a 80 3b eb 98 17 bc ef b5 f0 3d
       0.18594053 0.00391893 -0.009252767 0.11753451
000290 bb ee 1c 3e 33 12 01 bc 73 3c 2b 3d f9 ef a7 3c
       0.15325443 -0.007877874 0.041805696 0.02050017
0002a0 a1 de 58 bd 5d 38 9f 3d 28 b7 5f be be 6c 83 be
       -0.05294669 0.07774422 -0.21847212 -0.256689
0002b0 b4 2f 82 be 58 d7 aa be 69 65 c3 bc 8c 6d 9b 3b
       -0.2542702 -0.3336742 -0.023852067 0.0047432836
0002c0 d5 8c 43 3d 69 b2 17 be 08 07 97 3c 58 be 00 be
       0.04774173 -0.14814152 0.01843597 -0.1257261
0002d0 c9 e7 1f bd e4 ea 9d 3d 1e 21 8a bd 6e 1a ba bb
       -0.039039407 0.077108175 -0.06744598 -0.00567942
0002e0 e5 3e 14 be 50 e0 b9 bd 0a f6 8c 3d 89 50 1a bf
       -0.14477117 -0.09075987 0.06882866 -0.60279137
0002f0 91 a1 73 be 68 8c 18 3d d4 31 c8 bc da a5 34 bd
       -0.23792101 0.037243277 -0.024437822 -0.04410348
000300 80 c5 0f be aa 88 ec 3c 25 8b a9 3d 28 5e d0 bd
       -0.14040184 0.02887376 0.08278493 -0.10174209
000310 4a 20 1c 3d ec b5 95 3d 07 a4 40 3d d4 6e d8 3b
       0.03811673 0.073100895 0.04703143 0.0066050086
000320 9c 78 29 bd c0 dd 1e bb 16 03 9a 3d da f7 66 3d
       -0.041374788 -0.002424106 0.0752012 0.056388713
000330 d9 1e 94 bd 33 90 b1 3d 44 f0 c7 bd 43 04 41 3c
       -0.07232446 0.08670082 -0.09762624 0.011780801
000340 ec fc 1e be 01 27 58 3d 83 8d 23 be 03 aa 19 bd
       -0.1552617 0.052771572 -0.15971951 -0.03751565
000350 50 34 4a bc c0 06 e6 3d 3a ae fc 3d 22 3e 4d 3c
       -0.012341574 0.11231756 0.123379186 0.012527021
000360 dc dc 66 3c 9e fb 38 be c4 30 d0 bd 4c 54 ae be
       0.014090743 -0.18064734 -0.10165551 -0.34048688
000370 14 ab 8b bd 31 35 f9 bc af 5f 0b 3e 9b 97 1e 3c
       -0.0681974 -0.030420871 0.13610719 0.0096797
000380 9a 6c e6 3d 08 ea 30 be 61 98 cd 3d fb 38 11 be
       0.11251183 -0.17276776 0.100388296 -0.14181893
000390 da 9a b7 bd c2 8b 05 be 1e 54 05 bf 7f e5 28 be
       -0.089650825 -0.13041595 -0.5208148 -0.16493796
0003a0 01 9e 2b 3e 39 b0 0f be 3e 6e ca 3c df 7c bc 3e
       0.16759492 -0.14032067 0.02471077 0.3681402
0003b0 29 38 89 3e 00 3f 05 3e 06 fb da be cc 52 11 be
       0.2680066 0.13012314 -0.4276964 -0.14191741
0003c0 75 e3 3e 3d fb 60 14 be cf 80 c3 bd 53 22 24 bd
       0.04660364 -0.1449012 -0.09546053 -0.040071797
0003d0 2b 80 4b be 5e b5 c6 bd 41 2b 47 3c 0d a4 ca 3b
       -0.19873111 -0.09702562 0.012156309 0.006184107
0003e0 6d 27 bc bd 5c ad 60 bd 3c 0f d5 bd 8c 81 32 3d
       -0.09187207 -0.05485283 -0.10403296 0.043580577
0003f0 bc 2d ae bb cb 73 dc 3d 07 ad 55 3e 35 ee 95 bd
       -0.0053155106 0.10764273 0.20866786 -0.07320825

combined_conv1.bias f4 [64]
000000 33 c0 84 bd a6 85 54 3d 4b ae ad bd 56 3a ce 3c
       -0.064819716 0.05188527 -0.08480509 0.025174301
000010 30 d6 19 bd ee 57 b5 bd 98 b6 34 bd d1 6b 2f 3d
       -0.03755778 -0.08854662 -0.044119447 0.04282743
000020 59 87 b2 bd de d7 f2 3c ae e7 cc bd 50 25 23 3d
       -0.08717222 0.02964395 -0.10005127 0.039830506
000030 a6 92 22 be 73 31 b0 bd a2 06 9c bd 31 a0 10 3d
       -0.15876254 -0.08603182 -0.076184526 0.03530902
000040 d2 93 c6 bd 22 e1 e5 bc ae 36 57 bd dc e3 ab bc
       -0.09696163 -0.028061453 -0.05254238 -0.020982675
000050 02 d6 f2 bd c6 40 06 be c9 06 89 bd 2e c9 99 3d
       -0.11857225 -0.13110647 -0.06690747 0.07509075
000060 39 5f 90 bd b7 89 02 bd 27 e7 66 3d ed d4 c9 bd
       -0.07049412 -0.031869616 0.056372788 -0.098550655
000070 3a a0 54 bd 2c ed 45 3d 7d f0 19 bd 41 e3 ba 3c
       -0.051910616 0.048321888 -0.037582863 0.022813441
000080 0b 4b 28 bd 6d 29 e4 3d c4 c7 f8 bd aa f4 e7 3c
       -0.04108719 0.11140714 -0.12147477 0.028314907
000090 45 f7 04 bd b9 5e 60 bd 7c 03 23 be 61 44 08 3d
       -0.032462377 -0.054777835 -0.15919298 0.033268336
0000a0 bb f6 b1 bc b3 49 ec bd d1 bf fa bd fd 41 35 bd
       -0.021724096 -0.115374945 -0.12243617 -0.044252384
0000b0 37 4d 54 bd d8 65 11 be e4 51 f9 3c 21 09 0d 3d
       -0.05183145 -0.14199007 0.030434556 0.034432534
0000c0 e9 fa fe bd 09 a5 e3 3c 23 54 5e 3c 2e e2 15 be
       -0.12450201 0.027788656 0.013569864 -0.14637062
0000d0 7e a2 d5 bd 6e 16 db bd 4d fa a2 bd 73 83 86 bd
       -0.104313836 -0.106976375 -0.07957897 -0.06568041
0000e0 81 19 c5 bd 88 c9 b7 bd ed a9 2b bd 05 96 27 bc
       -0.09624005 -0.08973986 -0.0419101 -0.010228639
0000f0 ee 53 ad bc d4 54 13 be b4 d0 0b be f1 d2 24 bd
       -0.021158185 -0.14387828 -0.13653833 -0.040240232

combined_conv2.weight f4 [64, 64, 1, 3]
000000 86 4f 68 bb 3b 2a 99 3c c8 68 6c 3b 11 33 bc bc
       -0.003544779 0.018696895 0.0036073197 -0.02297357
000010 70 ff f2 3c 5f 44 6e bd 9d 8e 01 3e d3 a6 e2 3d
       0.029662818 -0.058170673 0.12652059 0.110669754
000020 8b 40 52 be ce fb d1 bc 45 1b 4d 3d 1f fe 0e be
       -0.20532434 -0.025632765 0.050074834 -0.13964127
000030 6b bf c3 3d 15 41 84 bd fb 26 8b 3d ef ea 2d 3d
       0.095579945 -0.06457726 0.06794544 0.04246038
000040 d8 e1 84 bc 7b 18 b3 3d 84 8c b7 bd 7e 93 31 3c
       -0.016220972 0.08744904 -0.08962348 0.0108383875
000050 a5 4e a4 bc e2 76 89 3d bc 0e f4 bd fe d1 61 bd
       -0.020057032 0.06712128 -0.11916873 -0.055131905
000060 10 f2 c9 bc ef 40 9c bd 47 d0 83 3c 25 dd a1 3d
       -0.024651557 -0.076295726 0.016090525 0.07903508
000070 3a 1a 38 be 89 05 b3 bd 45 71 08 3d fd 27 cf 3d
       -0.17978755 -0.0874129 0.033311147 0.10115049
000080 78 50 b3 3d a7 06 ea 3c e5 44 89 bc c2 ab 8a bd
       0.087555826 0.028567625 -0.016756484 -0.067710415
000090 16 8d 64 be 53 ae 78 be 74 6b 2c bd 2c f1 f2 3c
       -0.22319445 -0.2428525 -0.042094663 0.029656015
0000a0 5e b8 88 be 3e c3 e5 3d 74 8a ff bd 37 59 a3 bc
       -0.2670316 0.1121888 -0.1247758 -0.019940002
0000b0 f5 94 8a be ef 0b 0c 3e 85 b0 5e 3d fa 16 5d 3d
       -0.2706677 0.13676427 0.05436756 0.05397699
0000c0 86 84 78 3d 35 cd cc bb 54 0e f1 bd b6 4f c0 bd
       0.06067326 -0.0062500485 -0.11770311 -0.09390204
0000d0 2e 34 71 bc d7 61 85 bd c7 02 29 bd e4 03 cd 3c
       -0.014721913 -0.06512802 -0.041262414 0.02502627
0000e0 de 5d 9f 3d 17 08 cc 3c 5a 85 fd bd 9d f5 9e 3d
       0.077815756 0.024906201 -0.123789504 0.07761691
0000f0 88 6f a1 3c 23 6d 32 bd af 20 c1 bb 4f 5f 55 3d
       0.019706503 -0.043561112 -0.0058937888 0.052092846
000100 e0 46 97 3d 44 bf 0f be 31 7c c8 bc f2 8a 40 3d
       0.07386565 -0.14037806 -0.024473282 0.04700751
000110 79 21 89 ba c9 22 4d 3b 3b 5a 29 3e 4f 51 d3 3d
       -0.0010462246 0.003130125 0.16538326 0.10318243
000120 92 89 79 be 95 b9 c6 3d e3 1c d6 bd 5d 42 d6 3d
       -0.24368885 0.09703366 -0.104547285 0.104618765
000130 6a 2d 2c bd d1 e2 5b be d0 6d e7 bd 8d df 53 bd
       -0.042035498 -0.21473242 -0.11300242 -0.051726867
000140 77 77 33 bd 7f d4 c9 3c a6 b9 15 be 8a 8e 06 3e
       -0.043815102 0.024637459 -0.146216 0.13140312
000150 02 a9 ee bd 4b 70 e5 bd a7 17 f0 3c f4 a5 e7 bd
       -0.116533294 -0.11203059 0.029308153 -0.1131095
000160 0a 47 c2 bd 75 92 c0 bd 5c 2c 8c 3c d0 b9 46 bd
       -0.09486206 -0.094029345 0.017110996 -0.04851705
000170 dd 26 be be fd d0 23 bd a8 65 b2 3c 12 c7 21 bd
       -0.37139025 -0.03999423 0.02177699 -0.03949649
000180 91 ae da 3d 60 2e 2c bd 21 1b 25 3c 91 84 cb bd
       0.10677827 -0.042036414 0.010077269 -0.099373944
000190 9f 29 97 3d ff df 95 3b ee da 29 3d 12 b3 30 bd
       0.073809855 0.0045738216 0.041468553 -0.043139525
0001a0 47 86 b1 be a8 7d f3 bd de f9 c5 bd d3 ab 97 3d
       -0.34672758 -0.118892014 -0.09666799 0.0740582
0001b0 d1 8b 80 3d 8b 61 52 3d 50 94 e4 3c c2 e2 78 bd
       0.06276668 0.051362555 0.027902752 -0.060763128
0001c0 d0 cc a6 3d e2 3e d9 bd 88 30 ba bc 5d a9 e5 3d
       0.08144534 -0.10607697 -0.02272822 0.11213944
0001d0 66 7a 52 be 7e c7 ca bb c3 8f 85 bc bb d0 57 bd
       -0.20554504 -0.006188332 -0.016303902 -0.052689295
0001e0 ab 4b 5f 3d ca 73 7f 3d c1 68 80 3d e9 33 3c 3d
       0.054515522 0.062366284 0.0626998 0.045947943
0001f0 4d 16 06 be 81 ef ca 3d ae 0e 1e bd c8 a1 14 bd
       -0.13094445 0.09908963 -0.03858822 -0.0362871
000200 5f 97 60 3d 0c 7e 56 be 99 66 ed bd ea be c4 bc
       0.05483186 -0.2094652 -0.115918346 -0.024016816
000210 95 8b 47 3d 24 f8 4c 3c 33 34 49 3c 8d 2c b9 bd
       0.0487171 0.012510333 0.012280512 -0.090417005
000220 a2 2d 3b 3d 60 61 44 bd 0c ff 94 bc dc 67 94 3c
       0.045697816 -0.047944427 -0.018188022 0.01811593
000230 bb bb af bc 82 ce 06 3e 4d b6 09 be 8e e9 16 3d
       -0.021451822 0.13164714 -0.13448448 0.03684383
000240 9a 4b 5e 3c 6d 51 00 bc 69 79 36 bd 15 53 48 3d
       0.0135678295 -0.007831913 -0.04454938 0.04890736
000250 dd fa 29 3d 10 87 ce bc 9f f0 22 3c 79 bb f2 bd
       0.041499007 -0.025210887 0.009945064 -0.11852164
000260 3a 7d 1b be a2 68 e0 b9 e5 82 b0 3d 4d 77 15 3c
       -0.15184489 -0.00042802567 0.08618716 0.009122682
000270 b4 02 6f bc 1f a2 0d bd 78 c1 fd 3d dd f7 17 be
       -0.014588047 -0.03457844 0.12390417 -0.14840646
000280 03 bc 6f 3e 3a d6 14 3d dd c7 a2 be da a0 e8 3d
       0.23411565 0.036337115 -0.3179311 0.11358805
000290 ab b6 9f be c3 fa 5e bc f0 d4 b3 bb 33 b8 08 bd
       -0.31194052 -0.013609591 -0.0054880306 -0.03337879
0002a0 2d 03 95 3d 8c 2b c3 be 6c 83 02 be a0 3f b9 bd
       0.07275996 -0.3811916 -0.12745446 -0.09045339
0002b0 12 3a 3a 3c 64 b5 c4 3c 98 25 c0 bd 7b 53 71 bd
       0.011366384 0.024012275 -0.093821704 -0.058917504
0002c0 5c e2 0d bc 2e b3 b3 bd 0a 60 6b 3d 51 bd 95 3c
       -0.008659925 -0.0877441 0.057464637 0.01827875
0002d0 40 6f 97 bd 8e 6d f0 bc 54 de fd 3c f9 26 b7 bd
       -0.07394266 -0.029349115 0.030989803 -0.0894298
0002e0 8d 4d 7b 3d f9 1f b0 3d 4b 48 8e be b4 65 92 3c
       0.061353255 0.08599848 -0.2778953 0.017870761
0002f0 b4 de 0a 3c c4 2e bd 3d f2 a2 c6 bd e6 3d a0 3c
       0.008475948 0.092374355 -0.09699048 0.019560765
000300 3d 0f 44 bc 13 e4 b9 bd 53 2b 69 3d c8 8f 4d bd
       -0.011966524 -0.09076705 0.056926083 -0.05018595
000310 56 c1 a7 bd 43 37 15 3c 15 c2 ec 3d 69 ec dd bc
       -0.08191173 0.009107414 0.11560456 -0.027090268
000320 94 e4 17 ba 5d 5b f8 3d c4 b6 d5 3c 78 4c a6 bc
       -0.00057942537 0.12126801 0.026088126 -0.020300135
000330 7a 95 9d bc 86 bb 85 3d 26 7e 03 3c 18 7c 2e bd
       -0.019236315 0.06529908 0.008025682 -0.042598814
000340 80 94 b9 bd 55 b9 b8 3a bf 3a bd 3d 59 ca 1f 3d
       -0.09061527 0.0014093319 0.092397206 0.039011333
000350 fd aa d4 3b b6 e8 05 be d5 82 8c 3d 9e 30 ce ba
       0.00649011 -0.13077053 0.06860892 -0.0015731042
000360 6e bb f7 bb 0c 7e d3 bd b2 dd ab bb 13 a2 ef 3d
       -0.007560185 -0.10326776 -0.005244934 0.11700835
000370 d6 cf 52 3d ae a8 96 bd 84 b9 41 3d df 7c 2d 3b
       0.05146774 -0.07356392 0.047296062 0.0026472134
000380 01 b3 23 3c 12 78 c8 3d 6c c7 81 bd 80 33 62 bd
       0.009991408 0.097885266 -0.06336865 -0.055224895
000390 ff f5 5e 3e 60 11 5a bd 52 65 0d 3e 81 6c 0d 3d
       0.21773528 -0.053239226 0.13808182 0.034527306
0003a0 8a da a3 3d 2c 04 34 3d 49 bb 21 3e c8 ab ae be
       0.080006674 0.04394929 0.157941 -0.34115434
0003b0 70 b3 9c 3c 35 c8 12 be f4 cc 94 3d 34 76 37 bd
       0.019128531 -0.14334185 0.07265654 -0.04479046
0003c0 3c d1 8d 3c 22 62 45 3d ca 21 85 bb ce 27 d9 3c
       0.017311685 0.04818929 -0.004062866 0.026508238
0003d0 2a 3e 38 be 7a 0e 54 bd 61 62 81 3c ad 24 32 3d
       -0.17992464 -0.05177162 0.015793981 0.043492008
0003e0 24 7f 0f bc fd ea 4b 3d 4c b0 b4 bd b0 46 dd 3c
       -0.00875834 0.04978465 -0.088226885 0.027011245
0003f0 58 d4 dc 3c b9 63 79 bd 2f 83 d1 3b d0 a2 5b 3d
       0.026956722 -0.06088612 0.006393812 0.053622067

combined_conv2.bias f4 [64]
000000 57 2f 37 bd 5a 3b 26 bc 6a 2b f0 bb fa 14 10 3c
       -0.04472288 -0.010145986 -0.007329394 0.008794064
000010 b1 a8 73 3a a1 86 97 bb 5a 5c cf bd 54 f8 27 bd
       0.00092948513 -0.0046242033 -0.101250365 -0.04100831
000020 90 a2 f8 bc 65 a8 6f bc d3 11 a3 3b 91 ee 4e bd
       -0.030350953 -0.014627551 0.00497649 -0.050520483
000030 f3 ea 9a bd 37 44 89 3d 26 55 07 3d 68 2a 95 3d
       -0.07564344 0.06702464 0.03304019 0.07283479
000040 d2 11 64 bd e5 aa ed bc e6 0f 49 3d 49 04 fa bb
       -0.055681057 -0.029012153 0.049087428 -0.0076299054
000050 08 29 56 3d c2 e2 16 3d 3e e8 5b 3d 81 34 60 bd
       0.052285224 0.036837347 0.05368828 -0.05473757
000060 0a 91 0a bd a0 27 51 3d 7e 26 85 bd 84 5e f1 3d
       -0.033829726 0.05106318 -0.065014824 0.117856055
000070 16 ef cd bb 6a df 72 bd 99 ee 35 3d b6 a1 c4 3d
       -0.006284605 -0.059295096 0.044416998 0.096011564
000080 7c 20 c0 3d 88 ec 21 3d aa d2 67 bd c2 50 fb 3c
       0.09381196 0.039532214 -0.05659739 0.030678157
000090 d3 69 2f bb 77 bb d9 bd c1 21 cc bc 54 40 09 bd
       -0.0026765957 -0.10631459 -0.024918439 -0.033508614
0000a0 e8 1f 93 3d e7 e5 af bc c0 da a2 bd 18 95 4d bd
       0.0718382 -0.02147193 -0.079518795 -0.050191015
0000b0 9e 96 80 bd 1a 3c 10 3e b4 88 ca b7 7a 4c 9b bc
       -0.06278728 0.14085427 -2.4143934e-05 -0.018957365
0000c0 a3 e5 db bd 0f 60 48 3e 49 75 0d bc e3 92 bd bd
       -0.10737159 0.19567893 -0.00863392 -0.09256532
0000d0 d5 91 7a 3d 00 b4 3f 3d 2e 8a 56 3c cb b0 4c bb
       0.061174233 0.04680252 0.013094468 -0.0031233307
0000e0 5b d9 6a bd 1d 0b 25 bd 8b 92 b8 bd a5 fd c1 3d
       -0.057336193 -0.0402938 -0.09012326 0.09472207
0000f0 58 a3 87 bd b8 40 10 3c e4 7d 8b 3d 41 9a 5a 3b
       -0.06622952 0.008804493 0.06811121 0.0033356103

snv_conv1.weight f4 [8, 4, 3, 1]
000000 2b 9d 95 3e 02 e3 f2 3d 28 e0 76 bc 8f 72 4b 3c
       0.29221472 0.118597046 -0.015068091 0.01241745
000010 2f f9 96 3e 1a 45 06 3f f3 6b b1 3e 35 68 24 3e
       0.29486987 0.5244919 0.3465267 0.16055377
000020 c9 63 51 be bf 10 13 be d1 1f 8f be f1 fe 42 bc
       -0.20448221 -0.14361857 -0.27953961 -0.011901603
000030 b4 43 52 3e c7 fa 86 be 35 bc b2 be 0d 0b e3 3d
       0.20533639 -0.26363203 -0.34909216 0.11086092
000040 e0 e7 59 be 92 33 51 be 09 9c 79 be 55 2c 8d 3e
       -0.2127986 -0.20429829 -0.24375929 0.27572885
000050 f0 98 3a bd 39 b6 92 be a6 a4 03 3e 90 74 51 bd
       -0.04555601 -0.2865465 0.12855777 -0.051136553
000060 ed d3 1e be c5 f1 1f be dd bd 0c 3e 7c 74 5f 3e
       -0.15510531 -0.15619572 0.13744302 0.21821779
000070 0e c3 83 be 17 37 a0 be ea 6a c3 bd 95 0f 4f bd
       -0.25734752 -0.3129203 -0.095418766 -0.05055197
000080 09 99 9b be 47 1c 9d be ff b1 b6 3e 17 92 f2 3d
       -0.30390194 -0.30685636 0.35682675 0.11844271
000090 b0 8c 59 3e f6 f1 ff bd 3d 6c 55 3e ec 1a 20 3e
       0.21245074 -0.12497322 0.20842071 0.1563527
0000a0 68 23 a7 be 7f 6e 97 bf ac e6 01 bf 09 b7 42 3e
       -0.326442 -1.1830596 -0.507426 0.19015135
0000b0 8a 8f 9c 3d 87 c3 dd bd 77 95 55 3e 9c a7 4d 3e
       0.076445654 -0.108283095 0.20857798 0.20083469
0000c0 aa 4c 1f 3e 24 ff 4e 3e 61 85 4f 3d a7 cc 51 3e
       0.15556589 0.20214516 0.05066431 0.20488225
0000d0 3e d8 c3 3d 30 ce 50 3e 91 dc 4b bd 05 c8 42 bd
       0.09562729 0.20391154 -0.049770895 -0.047554035
0000e0 cf 45 f8 bc db 17 86 3e ac e7 22 3e 7d 84 8c 3e
       -0.030306725 0.26190075 0.15908688 0.2744483
0000f0 8a 5d 95 3b b0 32 e2 3e ea 1d 21 3d 83 10 1b 3e
       0.00455827 0.44179296 0.03933517 0.15143017
000100 9a c4 f8 bd 4d 36 1a 3f 77 e9 77 39 86 94 97 3e
       -0.12146874 0.60239106 0.00023642728 0.29605502
000110 c0 96 9e 3d 2f 4b 95 bd 49 01 8f 3e e2 ca c0 3e
       0.07743597 -0.07289731 0.27930668 0.37654787
000120 d1 55 5a bf fa c6 89 3e c7 cb dc be f2 4f ff bd
       -0.85287195 0.2690962 -0.4312422 -0.1246642
000130 08 a4 e5 3e 1f 54 b6 3e ab 14 94 3e 6c f0 9a bd
       0.44851708 0.35611054 0.28922018 -0.07565388
000140 e1 b8 4e 3d d2 90 2e 3e ef af ca 3e 58 40 95 bd
       0.050469283 0.17047432 0.39587352 -0.07287663
000150 14 80 9c 3e 12 8b 16 3e f2 05 9a bd bd 4f c9 be
       0.30566466 0.14701489 -0.07520665 -0.39318648
000160 07 12 90 3e b6 73 02 3e 70 4f 90 3c 3b 6c 43 3e
       0.28138754 0.12739453 0.017616004 0.19084255
000170 fc aa 02 3d 5a 8e 68 3e d0 9d e7 be 58 d2 81 3e
       0.031901345 0.22710553 -0.4523759 0.25355792

snv_conv1.bias f4 [8]
000000 ae 07 68 bc 1a 0c 88 be fa f7 98 be 5b 91 9d bd
       -0.014161987 -0.26571733 -0.2987669 -0.0769374
000010 be e0 e7 bd a3 53 5a 3e 6c d8 f4 bd 87 09 f2 bd
       -0.11322163 0.21320967 -0.11955342 -0.118182234

snv_fc1.weight f4 [20, 8]
000000 87 06 61 be b7 09 b8 3e a5 cc 1d 3f 5d 7c 82 3e
       -0.21975146 0.35944912 0.6164039 0.25485507
000010 8b de c3 be 81 bf e5 3e ce d0 d9 be 12 1b f4 3d
       -0.38255724 0.44872668 -0.42542118 0.11919226
000020 56 68 af be 8e e0 c8 bb a5 ea a3 3e 80 d1 88 3e
       -0.3425929 -0.0061302846 0.32014957 0.26722336
000030 0c 85 06 3e e6 1e a2 3d 3b 07 74 be 7a 9c 09 3c
       0.13136691 0.0791605 -0.23830883 0.008399123
000040 66 ca 82 3e 29 74 e0 3d ad 47 d9 3e 70 20 3d 3e
       0.25545043 0.10959656 0.42437497 0.18469405
000050 09 41 20 bf 35 41 cf 3e bd 2c 1d be 59 e6 b9 3e
       -0.62599236 0.40479437 -0.15349098 0.36308554
000060 6c a0 b4 bd 2a 0a d2 3d ae 00 63 be 8b d8 f3 3d
       -0.088196605 0.10255845 -0.22168228 0.11906537
000070 97 f6 0e bf 66 1c 28 3e 1f c1 fa 3e 70 ff 8b 3e
       -0.55845016 0.16417083 0.48975465 0.2734332
000080 1d 00 93 3c 59 b7 04 3e 86 3b 1c 3e 8d 97 3e be
       0.01794439 0.12960567 0.15257081 -0.186125
000090 bd 06 33 be 64 cc 45 bd 39 d6 59 3e 92 7a cb 3e
       -0.17483039 -0.048290625 0.21273126 0.3974195
0000a0 1e 2f 06 bf a5 ed 32 3f 5e 05 4b 3f 1f 04 a2 bc
       -0.52415645 0.69893867 0.79305065 -0.019777356
0000b0 c8 82 66 3e eb 84 ca 3d e0 ba 8d 3e 5a 03 27 bf
       0.22510827 0.09888633 0.27681637 -0.6523949
0000c0 71 6d 98 bd bf a6 2b be 00 90 d9 be 24 7c c3 be
       -0.07442749 -0.16762827 -0.42492676 -0.3818065
0000d0 3e 99 0c be bd 5f 2f be 59 db 4b 3e 41 3e 6a be
       -0.13730332 -0.17126365 0.19907893 -0.2287531
0000e0 f1 09 26 bc 77 25 cb 3e 23 ee 0c 3f 91 66 41 3e
       -0.010134206 0.3967702 0.5505087 0.18886782
0000f0 3d 8b 7d 3e 91 35 98 be a1 7d 28 be 08 6b e2 3e
       0.24760146 -0.29728368 -0.16454174 0.44222283
000100 e5 b9 a0 be b7 da e7 3e 25 68 dc 3e f0 bf ef 3e
       -0.31391826 0.45284054 0.43048206 0.46826124
000110 25 c1 27 be 9c f0 4b 3e 4c 3a 0d bf dd b4 c5 bd
       -0.16382273 0.19916004 -0.5516708 -0.096536376
000120 a6 75 2a 3e 7d 4d b9 3e ba a4 58 3e de c4 d0 3e
       0.16646442 0.3619193 0.21156588 0.40775198
000130 f3 c1 9e 3c 6e 28 ad 3d 02 2b d5 3e f3 0a 5e be
       0.019379592 0.08454977 0.41634375 -0.21683864
000140 8d 54 1b 3e 46 50 c8 3e 26 ff b6 3e a4 cd 6c 3e
       0.15168972 0.39123744 0.35741538 0.2312532
000150 1e c1 76 be 1b 9c 80 be fb 63 bb 3e c2 cd da 3d
       -0.24097106 -0.251191 0.36599717 0.106837764
000160 07 70 4a be a4 2c 10 3f 11 7d 82 3e 12 2a e5 3c
       -0.19769298 0.56318116 0.25486043 0.027974162
000170 4d ce c6 be 2e a8 a0 3e fb 4d 66 be f5 3a 44 3d
       -0.3882927 0.3137831 -0.22490685 0.04790779
000180 ad 94 33 3e 78 33 ba be ff 40 da be e8 ad 76 be
       0.17537184 -0.36367393 -0.42627713 -0.24089777
000190 7d ed 83 bd b4 ce d1 3d 81 6b d1 3e 0e 81 07 bd
       -0.06441782 0.102445036 0.4090233 -0.03308206
0001a0 10 99 1f 3f 27 f3 86 bd d9 26 5c 3e c4 17 10 be
       0.6234293 -0.065893464 0.21499194 -0.14071566
0001b0 79 cc 95 3e bf d9 ae 3b 37 7e 88 3d 05 5c dc be
       0.29257563 0.005336016 0.066646986 -0.43038955
0001c0 38 a8 d6 be 9b 83 fa bd c9 80 87 3e 69 8d 40 3e
       -0.41925216 -0.12232133 0.26465443 0.18803944
0001d0 d4 3d 47 be c7 d5 39 3e 1b c6 45 3e 30 cb 1a 3f
       -0.1945718 0.18147956 0.19313852 0.6046629
0001e0 e9 5c 93 3e 05 c2 ba be d0 40 11 bf 5d d2 d0 3c
       0.28781822 -0.3647615 -0.5673952 0.025490934
0001f0 0e 41 98 3d 16 15 0a 3e 6b e6 cb be a9 07 c9 3e
       0.07434283 0.13484606 -0.39824232 0.39263657
000200 fa a9 3e 3d 5d 3e 13 be 0a 4a af 3e 68 97 28 3f
       0.04654882 -0.14379258 0.34236175 0.6585603
000210 36 1e d7 3d ab d7 7e 3d 08 d1 65 3e 14 f6 94 3c
       0.10503809 0.062217396 0.2244302 0.018183745
000220 50 7a 8a bd 02 3d 1c 3d 5b 10 71 be d2 8c be bc
       -0.067616105 0.03814412 -0.23541395 -0.023260508
000230 f9 42 14 3e e7 69 26 bd 92 9c fa bd 2c aa 04 be
       0.14478673 -0.04062834 -0.12236895 -0.1295554
000240 1e 51 07 bd cf 1a 32 be 99 9c 29 3c 42 24 ad 3d
       -0.033036344 -0.17393039 0.010352277 0.08454181
000250 fe 2a 2a 3e 26 62 d8 bd 5e ee 60 be 81 d1 41 3e
       0.16617963 -0.10565595 -0.2196593 0.18927576
000260 6b 21 bc 3e 55 62 e3 be fa 4d a5 be 2f 07 7d be
       0.36744246 -0.4441096 -0.32286054 -0.24709772
000270 89 41 c5 3e 37 86 6c 3e 4b 71 e7 3e 36 d5 83 be
       0.38526562 0.23098074 0.45203623 -0.25748605

snv_fc1.bias f4 [20]
000000 79 0f b1 3d 19 90 be be a4 3c 9a bc c6 53 e7 bd
       0.08645529 -0.37219313 -0.018827744 -0.112952754
000010 8b 33 2f 3e b0 8a 58 be 59 f0 bb 3e 80 56 e3 3d
       0.17109506 -0.21146655 0.36706808 0.11100483
000020 21 bf c4 3d 44 a4 e2 3d 8a 19 fd 3c 7b 6f b6 3d
       0.096067674 0.110664874 0.030895967 0.08907982
000030 16 0e 24 3e e6 61 02 be c4 13 2b be 12 11 03 be
       0.16020998 -0.12732658 -0.16706759 -0.1279948
000040 08 b5 4d be 9d 08 8c be 3b 1f 9a be ea 5b b3 3d
       -0.20088589 -0.2735032 -0.30101952 0.087577656

ref_cov_fc1_fwd.weight f4 [32, 61]
000000 ae af b1 3d 38 27 c1 3d 24 f8 6b 3d 0f 7d b8 3d
       0.08676086 0.094313085 0.057609692 0.09008228
000010 d6 cc 3e 3d c9 c5 06 3e 2f 4c 25 3d fb f8 03 3e
       0.046582066 0.13161387 0.040355857 0.12887947
000020 57 f5 8c bd 18 9e 1a bd 11 82 a3 bc ae 97 8b bd
       -0.06882732 -0.037748426 -0.019959481 -0.0681604
000030 d2 3d 87 3d 25 c8 66 3d a6 8e 72 3d 48 80 9e bd
       0.06603588 0.056343216 0.05921807 -0.077393115
000040 c4 8c bc 3d 00 35 04 3d 5f ac 73 3d c7 be 3d 3d
       0.092065364 0.032277107 0.059490558 0.046324518
000050 79 12 04 3d 49 38 ba 3c 56 99 85 3d 9c 8a 16 3e
       0.03224418 0.022731917 0.06523387 0.14701313
000060 fe 40 23 3e fd 4d 92 3a 20 67 88 3d 1d 42 dd 3d
       0.15942761 0.0011162158 0.066602945 0.10803626
000070 2c 7a 7e 3d 96 94 49 bb e1 f8 d7 bd 39 e4 11 3e
       0.06212823 -0.003075873 -0.10545517 0.14247216
000080 25 1c 61 bc 6a 06 6a 3c df 4b 0a 3e b4 3b 7a bd
       -0.01373962 0.014283756 0.13505505 -0.061092094
000090 f8 da e5 ba 87 18 ee 3d 8f 6d 7f bd f0 ab fd 3d
       -0.0017536571 0.11625772 -0.062360343 0.1238631
0000a0 c8 e1 dc bc 72 8b c6 3d ef 15 0a 3e 1e f0 a6 3d
       -0.02696313 0.09694566 0.1348493 0.081512675
0000b0 d3 ff dd 3d 7d 96 7c 3d 0e 2b 87 3d 84 62 c0 3d
       0.1083981 0.061666954 0.06600009 0.0939379
0000c0 ca ab 19 3e 3f 51 f3 3d 14 3b 6b bd 4f cb 7d bb
       0.15006939 0.11880731 -0.05742939 -0.0038725918
0000d0 a2 40 93 bd 02 38 c0 bd 54 44 00 3e 2d af 91 bd
       -0.07190062 -0.09385683 0.12526065 -0.0711349
0000e0 35 62 bb 3d e4 bc c8 3d 04 6c 76 bd 72 11 2d bd
       0.09149591 0.09801653 -0.060161605 -0.042252965
0000f0 3d a8 ba bd c0 03 f9 3d 30 e5 a5 3d 45 6c 10 3d
       -0.0911412 0.121589184 0.08100355 0.035259504
000100 fc f0 e2 3d 84 3f 83 3d 6b 5b 06 3e f0 ec 01 3d
       0.1108112 0.06408599 0.1312081 0.0317201
000110 19 92 2b bd 81 f4 34 3d e0 c5 b2 bd fc 8a d6 3c
       -0.041887376 0.04417849 -0.08729148 0.02618932
000120 1a 15 cd bc 9b d5 3b 3d eb ca 12 3e 42 38 3b 3d
       -0.025034476 0.045858007 0.1433522 0.04570795
000130 cf 74 5e 3d e8 ea a6 bd 8e f1 5e bd 8e e4 f6 3d
       0.054310616 -0.081502736 -0.054429583 0.12055312
000140 d6 1a b8 bd 61 5b 0d 3e 83 8c 87 3c 33 61 af 3d
       -0.089894935 0.1380439 0.016546493 0.08563461
000150 dc 8e df 3b 14 8c 71 bc f7 af 8d 3c 58 e5 bb 3d
       0.00682245 -0.01474287 0.01729582 0.09174603
000160 df 97 1c 3e 35 e6 d5 3d 65 63 4d 3d e5 52 a2 3d
       0.15292309 0.10444299 0.050143618 0.07925967
000170 3b 68 f8 3c f8 f7 52 bc a6 e1 be 3d 2b b8 60 bb
       0.030323138 -0.012876503 0.09320383 -0.003428946
000180 2a 1d c9 3b 77 59 23 bd f4 9c 14 3d c5 f8 2b 3e
       0.00613751 -0.039880242 0.036282495 0.16794117
000190 66 e6 57 bd 08 8a 57 3d 35 fd d4 3d 7a 46 12 3e
       -0.05270996 0.05262187 0.10399858 0.14284697
0001a0 25 62 d5 3d cd c3 30 3d af ba e1 bc c5 0e 16 3e
       0.1041911 0.04315548 -0.027554838 0.14654072
0001b0 d4 72 5b bd 08 f2 83 bc c1 7b db bc ab 2d 6a bc
       -0.053576306 -0.01610662 -0.026792409 -0.014293115
0001c0 ee a8 91 bd dc ef 82 3d cf 5f 8d 3d a2 cb b6 bd
       -0.07112299 0.06393406 0.0690304 -0.089255586
0001d0 dd 94 ca bd 5f ad 04 3e eb f0 68 3d a0 5a a7 3d
       -0.09891675 0.12956761 0.056870382 0.08171582
0001e0 be 2f a4 bd 61 ba 88 bd ce 3d 9a bd 01 93 5d bd
       -0.080169186 -0.06676174 -0.075313196 -0.054095272
0001f0 7a 30 2a 3c 89 44 86 3d e3 db b5 3d 78 31 e6 bd
       0.010387534 0.06556041 0.08879831 -0.11239904
000200 b1 49 11 bc fd 31 f8 bd 11 e9 64 3d 6d af 1f 3c
       -0.008867667 -0.121189095 0.055886332 0.009746415
000210 e1 b3 5c 3c fc 77 11 3e f3 6f 06 3e ca 28 ec 3d
       0.013470621 0.14205927 0.13128643 0.115312174
000220 81 14 77 3d 2b 4f ac 3d 21 6c 26 3c 14 81 b2 3d
       0.06032229 0.084135376 0.010157616 0.08716026
000230 3d ea b5 3c a4 40 c9 bc 88 46 a4 3c 54 d5 1f bd
       0.02220642 -0.024566956 0.020053163 -0.039021805
000240 a5 27 bb bc 47 09 b2 3d e3 30 3f bd c8 ab 24 3d
       -0.022846052 0.08693176 -0.04667748 0.040202886
000250 41 72 cb 3d b3 5f 88 bd 4d df 1f 3d 4d 0f 08 3e
       0.099339016 -0.06658878 0.039031316 0.13287087
000260 17 5a 2f 3d 2f a1 a0 3d 03 6d f3 3d 00 98 c4 3d
       0.042810526 0.07843243 0.11886027 0.09599304
000270 24 84 4c bd 9c 1c c9 bd 60 81 3f bd 62 96 0a 3e
       -0.049930707 -0.0981991 -0.04675424 0.13533929
000280 5f 9c 1f 3e db 36 2e bd 94 b9 e1 3d e0 31 90 bd
       0.15586995 -0.042532783 0.11021724 -0.07040763
000290 61 6e 57 bd d5 16 73 3d e3 97 40 3d 1b 73 ea 3d
       -0.0525955 0.059347946 0.04701985 0.11447736
0002a0 12 13 41 bd 00 3f 19 3d a8 dd b5 3d 2b 97 98 bd
       -0.047137327 0.037413597 0.08880168 -0.07450708
0002b0 5a 6e 35 bd 63 75 6e bd d5 0e c9 3d f4 7a d2 bd
       -0.044294693 -0.058217417 0.09817282 -0.10277358
0002c0 06 21 83 3d dc 8c 0a bd be 66 bf 3d 28 a5 6c 3d
       0.06402783 -0.03382574 0.093457684 0.057774693
0002d0 8f 93 69 bd 2b 5d c0 3d cf f2 66 bd 25 d4 0f bc
       -0.05702549 0.093927704 -0.056383904 -0.008778607
0002e0 06 20 8a 3d d7 06 8e 3d 91 21 01 bd dd f8 8d bc
       0.06744389 0.06934898 -0.031526152 -0.017330581
0002f0 6c 34 d0 3b 0a 45 b7 3d 67 ff d1 bc 13 5d 0b bd
       0.0063539054 0.08948715 -0.02563448 -0.03402431
000300 32 f2 2c bd 34 84 52 bd 12 e7 d9 bd d5 16 17 3d
       -0.042223163 -0.05139561 -0.10639776 0.03688701
000310 64 12 10 be 3e 3d 94 3d 82 f1 ef bd eb e6 da ba
       -0.14069515 0.072382435 -0.11715986 -0.0016700899
000320 56 32 2d 3c c1 36 a9 3d b0 37 da 3d 05 99 ca 3d
       0.010571083 0.082623966 0.10655153 0.098924674
000330 38 e7 b1 bd 71 ed 83 3c 82 56 d2 bd 2a 70 92 bd
       -0.086866796 0.016104432 -0.10270406 -0.071503
000340 98 55 02 3c ee 8a 77 bd 5b ba d1 3d b5 e2 e0 bb
       0.007954977 -0.060435228 0.102406226 -0.006862963
000350 f1 b7 60 3c 06 3e 1e bd 69 17 a3 3c 7f e4 66 3c
       0.01371573 -0.03863337 0.019908624 0.014092564
000360 19 b9 f4 bd 08 de 91 bd 30 54 bb bd 2b 6e ed bd
       -0.11949367 -0.07122427 -0.09146917 -0.115932785
000370 56 19 f5 bd 63 fe a8 bd 66 e9 ed bd d6 5d c4 bd
       -0.11967723 -0.082516454 -0.11616783 -0.0958821
000380 8d 1d 16 bd 48 36 b2 bc 43 69 74 3d 79 19 3b 3c
       -0.036649276 -0.021754399 0.059670698 0.011419647
000390 7e e5 ea bd 89 75 17 3d e0 9e 2d bc 8c a9 0e be
       -0.114695534 0.036977325 -0.010596961 -0.13931865
0003a0 f6 69 f9 bd f8 99 93 3d 0e 39 82 3d 3a 1e de bd
       -0.121784136 0.072071016 0.063585386 -0.10845609
0003b0 b9 74 e0 3d 89 9a d8 3d b4 71 04 be 77 98 04 be
       0.10959763 0.1057635 -0.12934 -0.12948786
0003c0 88 85 48 3d 1f a2 ff bd b2 95 d5 bd 80 ca d2 3d
       0.04895547 -0.12482094 -0.10428943 0.1029253
0003d0 9d 13 13 3e e8 69 b5 bd b4 df 22 bc cc c9 23 3e
       0.1436295 -0.08858091 -0.00994103 0.15994948
0003e0 03 bc 0b 3e 75 58 56 bd be f4 11 bd 13 6c c9 bb
       0.1364594 -0.052330453 -0.035633795 -0.0061469167
0003f0 78 fb 0e 3e 5d 4e 1f 3e 65 07 65 bd 5b 93 a1 3d
       0.13963115 0.15557237 -0.055915255 0.07889434

ref_cov_fc1_fwd.bias f4 [32]
000000 83 e9 34 3d 70 89 49 bc be db f6 3d 0b f8 ea bd
       0.044168007 -0.012300834 0.12053631 -0.11473092
000010 2b 8f 02 3d d4 e1 87 3d fc 48 9a bd 2e e1 a3 bd
       0.031874817 0.0663487 -0.07533452 -0.08001934
000020 a9 5c 80 3d 04 b5 03 3e fa 9c 9d bd 0d 6a b8 bd
       0.062676735 0.1286202 -0.076959565 -0.090046026
000030 85 7a d7 3d 74 16 7a 3d 45 b1 ed ba 01 fd 22 bc
       0.105214156 0.06105657 -0.0018134495 -0.009948016
000040 e2 93 60 3d 47 16 1d 3e c9 5e 64 be a1 76 17 3c
       0.054828532 0.1534053 -0.22301783 0.009244592
000050 66 06 36 3e ca db a3 3b 5e 5b 3d bd 43 b7 99 bd
       0.17775878 0.005000566 -0.046229713 -0.075056575
000060 f4 40 35 3b 93 d7 37 3e 9a 7a 10 3c 64 d9 f9 3d
       0.0027657123 0.17953329 0.008818293 0.12199667
000070 ca 87 ab bd ef f6 79 bc b2 cd c4 bc bc 3f d6 bb
       -0.08375509 -0.015256627 -0.024023864 -0.0065383594

ref_cov_fc1_rev.weight f4 [32, 61]
000000 43 cc 22 bd 65 1e 94 bd a2 1c 3a 3d d4 67 c5 3d
       -0.03974558 -0.0723236 0.045437463 0.09638944
000010 01 61 90 bd 92 06 6c 3d 64 5a a8 bd e3 63 08 3d
       -0.07049752 0.057623453 -0.08220366 0.033298384
000020 1c f8 11 3e 03 22 46 3c 94 4c 9d 3d 40 f4 56 3d
       0.14254802 0.01209307 0.07680622 0.05247903
000030 aa 96 49 3d 4d a9 04 3e 7f c2 8a bd cf a5 cb 3d
       0.04921595 0.12955208 -0.067753784 0.09943735
000040 c4 a3 cb 3d 34 b8 b5 3d 7c 47 18 3e 1d 03 16 3e
       0.09943345 0.088730246 0.14871019 0.14649625
000050 3a f5 64 bd 2d 67 ad 3d f1 0e 1b 3e a3 b1 88 bc
       -0.05589793 0.08466945 0.15142418 -0.016686266
000060 5e d4 d6 3d 24 02 a6 bc fb 1b d3 bc 93 94 d7 3d
       0.104897246 -0.020264693 -0.025770178 0.10526385
000070 64 d4 b9 3d c2 77 81 3e fd ac 45 3c 88 a0 bd 3d
       0.090737134 0.2528668 0.012065169 0.092591345
000080 10 d6 e2 3d 6f 2a 29 3d f1 c1 15 3e 0a 01 95 3c
       0.110759854 0.041300233 0.14624764 0.018188972
000090 ca 72 15 3d f4 b3 12 3e 48 80 d7 bd 94 be ce 3d
       0.036486425 0.14326459 -0.105225146 0.10094944
0000a0 9a bb 38 bd 8f 00 8a bd a4 66 39 3e 0e 71 b0 3d
       -0.045100786 -0.06738388 0.1810556 0.086153135
0000b0 b9 85 7e 3d dd f1 20 3d 96 a5 55 bd 00 cd 7b 3d
       0.062139247 0.03929316 -0.05215987 0.0614748
0000c0 4b 77 8c 3b bf c4 e0 3d ac e1 28 3d 91 cd 30 bb
       0.004286682 0.10975026 0.041230842 -0.0026977996
0000d0 6e 11 f7 3d 2c 12 f1 3d ce fa ad bc e1 89 07 3d
       0.12063871 0.11771044 -0.021237757 0.033090476
0000e0 f2 11 63 3d 71 79 48 bd be 76 1a 3e 6d 63 0d bd
       0.055437036 -0.04894394 0.15084359 -0.034518648
0000f0 17 83 61 bd 4d 73 a3 bd a0 78 b3 3d f3 af a4 3d
       -0.055056658 -0.07980976 0.08763242 0.08041372
000100 e7 8c c8 3d 8f d3 2f 3d c5 c3 11 3d 01 1e 07 3d
       0.097925 0.042926367 0.03558709 0.0329876
000110 78 d4 de bc ba 6a 96 ba ac 3e 71 bd 8b 0a 2b 3c
       -0.027200922 -0.0011475899 -0.05889766 0.010439525
000120 4c 75 60 bc 49 e0 31 bc ca 62 00 3e 9a 65 a8 3d
       -0.013699841 -0.010856696 0.12537685 0.08222504
000130 6e ea 44 3d 3f 8a 11 3e cc ef d0 3d 67 70 89 bd
       0.048075132 0.14212893 0.102019876 -0.06710892
000140 17 41 3a bd f1 81 bb 3d 03 43 b3 3d e5 61 66 3e
       -0.04547223 0.09155644 0.08753016 0.22498281
000150 0c a5 43 3e 2e cb 90 3c 95 99 60 3d 4c e8 42 3e
       0.19105929 0.017675009 0.054833967 0.19033927
000160 f3 02 c9 3d cf 6a 20 3e 7b 19 7e 3e 3d 7d 9a 3d
       0.09815016 0.15665744 0.24814408 0.075434186
000170 a9 8e 23 3b c5 fd 1d 3d 82 d8 2c 3d 17 52 ff 3c
       0.0024956858 0.03857209 0.042198665 0.031167073
000180 0b c5 df 3c f0 27 f8 bc 54 31 ce bd fc 15 4d 3d
       0.027315637 -0.030292481 -0.10068002 0.050069794
000190 7c d0 b4 3d 11 a5 da bc 07 ee 3a bd 3c fd fa bc
       0.08828828 -0.026690038 -0.045637157 -0.03063833
0001a0 32 20 84 bd 00 0f cb bd 3d 82 9f 3d 20 e5 2f bd
       -0.06451453 -0.099149704 0.07788513 -0.04294312
0001b0 21 5e 7a 3d 93 2e 0d 3d 33 b4 dc 3d ad 94 94 bb
       0.061124925 0.034468245 0.10776558 -0.004534325
0001c0 08 02 d9 3d 56 16 c4 bd 25 e5 92 3d 40 87 a1 3c
       0.105960906 -0.09574573 0.07172612 0.019717813
0001d0 da 87 24 bd ae e6 3c bc 48 36 a8 bd 25 71 0c 3e
       -0.04016862 -0.011529608 -0.08213478 0.13715036
0001e0 9e 25 2d 3d a7 12 d2 3c 1e 5d 52 3d ce 80 c4 3d
       0.042272203 0.02564366 0.051358335 0.0959488
0001f0 3c 45 d5 bd c5 48 93 bd fe 90 0e 3d 1d 79 be 3d
       -0.10413596 -0.07191614 0.034806244 0.09300444
000200 9d 89 c5 ba ed bd d7 bd 9c 08 ac bd 28 f7 a5 3d
       -0.0015070919 -0.10534272 -0.084000796 0.08103782
000210 0d 15 ce bc 45 5a ae bd 9b 99 45 bb 56 04 12 3d
       -0.025156522 -0.08513311 -0.003015137 0.035648666
000220 48 3c a5 3c fe d8 d0 bd c4 06 a9 bd 96 a1 1a bb
       0.020170346 -0.10197638 -0.082532436 -0.0023594848
000230 81 98 fb bd 75 50 d3 3c ed d3 49 3c 8a 5b e7 bc
       -0.12284947 0.0257952 0.012318593 -0.028241891
000240 f1 c4 24 3d 6a f7 c7 3d 35 cb fe bb f4 ed d1 3d
       0.04022688 0.09763987 -0.007775689 0.10250464
000250 42 52 85 3d e3 29 0a bc 85 80 e0 3d a4 f4 12 3d
       0.0650983 -0.008432838 0.10962013 0.03587784
000260 c5 87 e7 3d 38 1c 5c bb 50 31 41 bc 03 5d 45 bc
       0.11305193 -0.0033586156 -0.011791542 -0.0120461015
000270 65 87 ef 3d 8e 1f 52 3e 93 5b 51 3e dd 7c 7d 3d
       0.11695746 0.2051985 0.20445089 0.061886657
000280 d8 e6 82 3d 48 1e 02 3e 78 f4 ab bc 2e d5 0f bc
       0.06391686 0.12706864 -0.020990595 -0.008778853
000290 6e 31 22 3d df cf b9 3d 77 08 a3 3d 63 f7 d7 3d
       0.03959792 0.090728514 0.07960599 0.10545232
0002a0 56 ae 5b 3d a2 71 87 bc a6 a5 01 3d 15 5e ef bc
       0.053633057 -0.016533677 0.031652115 -0.029219666
0002b0 05 1b 8d 3d 65 6f ef 3c ca 17 e3 3d c2 4a 14 bd
       0.06889919 0.029227922 0.11088522 -0.036204107
0002c0 19 1d 10 3e 1a e9 87 bd 31 e6 a7 3d 80 e3 a2 3d
       0.140736 -0.066362575 0.081982024 0.079535484
0002d0 50 8a 6a 3e 7f 8a a2 bc a5 4c 82 3d 66 6c 91 bd
       0.22904325 -0.01984143 0.06362275 -0.071007535
0002e0 e9 bd ce 3b 06 78 b2 bd 56 0c 29 3d 8a f0 45 3e
       0.00630926 -0.08714299 0.04127153 0.1933004
0002f0 60 7e b7 bd fd c9 99 3c 27 b9 08 bd 17 23 dd 3d
       -0.08959651 0.018773073 -0.0333797 0.107977085
000300 4c 18 4a 3e 7c 67 12 bd d2 59 d2 3c bf 4c 80 bd
       0.19735831 -0.03574322 0.025677595 -0.06264638
000310 5a 94 0e 3d e1 5d 7c 3d 2a 04 13 3e 39 de f9 bc
       0.034809448 0.061612967 0.14357057 -0.030501472
000320 63 63 6c bc fd bc 62 3e d8 21 48 3e 16 89 7c 3d
       -0.0144279925 0.22142406 0.1954416 0.061654173
000330 73 3a 9f 3d c9 a8 2f be b7 32 2f 3d a4 b3 ef bd
       0.0777482 -0.1715423 0.042772975 -0.117041856
000340 d4 f4 14 be e6 6b b6 bd 4e 77 7c 3d d3 0c df bb
       -0.1454652 -0.08907299 0.061637215 -0.0068069487
000350 5c 52 02 3e 4c 8d 5e 3d 0c c7 95 3e 13 6c 81 3e
       0.1272673 0.05433397 0.29253423 0.25277767
000360 7b 3a 6f 3e 3e 04 13 3e ea 98 67 3e c8 91 0b 3e
       0.23362152 0.14357087 0.22616926 0.1362983
000370 c5 21 31 3e 28 b2 04 3d da cb b0 3d 80 e6 d3 3d
       0.17298038 0.032396466 0.086326316 0.10346699
000380 c2 c7 39 3e d6 fd 90 39 a2 f8 f6 3d 90 fd 0f 3e
       0.18142608 0.00027654943 0.12059142 0.1406157
000390 e9 6d 52 bd d7 ec 68 bc 15 5d 2f 3d af 16 50 3d
       -0.05137435 -0.014216623 0.04281338 0.050802883
0003a0 52 00 1c 3c bc 45 56 bd 35 42 9b 3b ce 2a 56 bc
       0.009521561 -0.052312598 0.004738117 -0.013071729
0003b0 a5 e0 e6 3d 04 77 1f bd 9a 22 99 bc 32 cb a2 bc
       0.11273316 -0.03893186 -0.018693257 -0.019872282
0003c0 55 f3 18 3e 85 93 8e 3c bd 9e 19 3d f6 90 e5 bd
       0.14936574 0.017404327 0.0375049 -0.1120929
0003d0 33 6f fa 3d 78 6c 82 3c 53 de c0 bc 22 d9 47 3e
       0.12228241 0.015920863 -0.023543512 0.19516423
0003e0 d4 c3 23 3e 75 fd 3a 3e 2f 52 46 3d d1 7e b7 3d
       0.15992671 0.18260749 0.04841822 0.08959735
0003f0 a8 e8 9b bd 1f 4e 1c 3e 46 47 52 3c d7 bc 2e 3e
       -0.07612735 0.15264176 0.012834376 0.17064224

ref_cov_fc1_rev.bias f4 [32]
000000 c2 28 ed 3d 3e cf b3 3d 52 c2 e8 3b 36 6a fa bc
       0.115800396 0.08779763 0.007103243 -0.030568223
000010 fd 9a 0f 3e 7a f5 7e 3b 95 e4 e0 bd 5b 3e c9 3d
       0.14023967 0.003890364 -0.109810986 0.098263465
000020 8d 25 31 3e 73 77 7a 3c 5a a4 ce 3c ce 21 4f 3c
       0.1729948 0.015287268 0.025224853 0.012642337
000030 d5 8d 1c 3e 20 0f ff bd c9 e2 f1 3a 50 e9 3c bc
       0.1528848 -0.12454057 0.0018454428 -0.011530235
000040 67 3b 36 3b 7d 6d 6c be a7 40 15 3e 5c e7 83 bb
       0.0027806403 -0.23088641 0.14575444 -0.004025383
000050 d2 f0 14 3e e0 df 36 be 55 6e 58 3c ab 23 2b 3b
       0.1454499 -0.17858839 0.013209899 0.002611379
000060 10 a7 25 3e 34 0c a1 3a 1e 4a 30 3b b0 7d 82 3d
       0.1617701 0.0012286962 0.0026899646 0.06371629
000070 88 3b 8b 3e 55 3c c0 3c ca 1c 1a bd a2 58 b6 3d
       0.27193856 0.023466269 -0.03762511 0.08903624

ref_cov_fc2.weight f4 [16, 64]
000000 62 10 a4 3d 53 6c d3 3d d5 b7 8e 3d 28 e4 d2 3b
       0.08010937 0.103233956 0.06968657 0.0064358898
000010 89 cc 43 bd 7a 68 97 be 37 1a 1b 3d f1 3f 6d 3b
       -0.04780248 -0.29571897 0.037866797 0.0036201442
000020 83 65 88 bd 6c a3 10 3e d0 c2 b5 bd b3 26 40 3c
       -0.06659987 0.1412484 -0.08875048 0.011727977
000030 2c 8e 75 be 0e 49 a0 3d 40 5e 8f 3e 9a 25 34 ba
       -0.23980016 0.07826434 0.28001595 -0.0006872058
000040 42 b5 2c bd b1 e4 e1 bd 09 25 68 be e9 44 ad bd
       -0.04216505 -0.110299475 -0.22670378 -0.08460409
000050 9d 63 10 bd a5 9d 11 bf 3b d3 9d 3d 05 cb dd bc
       -0.03525125 -0.5688117 0.07706305 -0.027074346
000060 0c fd ca 3e ce 33 b9 bb a7 f6 e3 3d cb 8e 4d 3e
       0.39646184 -0.0056519276 0.111310296 0.20074002
000070 cb c3 9b bd 57 51 a8 3d 18 3d d3 3e 64 11 52 bc
       -0.07605704 0.08218639 0.41257548 -0.012821529
000080 68 7f a3 3d ea b7 be 3d 7e 60 4f bd fb c2 b4 3d
       0.07983285 0.093124226 -0.05062913 0.08826252
000090 79 0a 83 be df f2 aa 3d 48 0c f1 bd 2f 2c c9 3c
       -0.25593928 0.08347105 -0.117699206 0.024557201
0000a0 17 84 e7 3d 6e 4d 25 3d 19 7b 72 3d 94 61 87 3d
       0.11304491 0.040357046 0.059199426 0.066104084
0000b0 24 39 93 3d f9 32 a8 bd 5f 85 c4 3c 78 a9 cc 3d
       0.07188633 -0.08212847 0.023989378 0.09993261
0000c0 6d be 0b 3d e6 68 4f be 3a 6b 6a be 81 86 b9 3d
       0.03411715 -0.2025486 -0.22892466 0.09058858
0000d0 b7 ae c7 3d 7b 00 52 be bb d1 78 be 6d a3 66 3d
       0.09750121 -0.20507996 -0.24298756 0.0563082
0000e0 e8 65 9d 3d 27 65 e8 3d 2a 3a 6e bd 65 a0 88 be
       0.07685453 0.11347418 -0.05816094 -0.2668487
0000f0 93 3f a2 3c 0d 0b a0 3d 48 99 dc 3c dc d1 8b be
       0.019805705 0.07814608 0.026928559 -0.27308547
000100 e0 f8 ec bd ca bd 1f be 4f 77 68 bd df d2 85 3d
       -0.11570907 -0.15599743 -0.056754407 0.06534361
000110 65 01 75 bb 42 89 0d 3e 78 b6 26 be 2c 5b e4 3d
       -0.0037384864 0.13821891 -0.16280544 0.11150202
000120 17 e3 74 bd 03 d4 3a bd 48 bd f1 3d 30 2a 68 3d
       -0.059786882 -0.045612346 0.11803681 0.056680858
000130 98 b1 3e 3c 5c 17 ee bd b0 09 56 3f 67 b7 2c 3d
       0.011639021 -0.11625549 0.8360853 0.042167094
000140 cc 40 b6 bd a2 9f 72 bd 67 e5 76 bd 79 fa 4f 3e
       -0.08899078 -0.05923427 -0.06027737 0.20310391
000150 19 fb 1c bc 19 1e 9e be 2e 11 3a 3d 67 7c 69 3d
       -0.009581351 -0.30882338 0.04542654 0.057003405
000160 f0 a9 b7 bd c6 4c 14 be a8 8d 90 be 59 d3 13 3e
       -0.0896796 -0.14482412 -0.28233075 0.14436091
000170 5e 1a 2b be 92 8a 5f bd 43 22 04 3e 79 8e 51 3c
       -0.16709277 -0.05457551 0.12903695 0.012790316
000180 e7 8e fc bc b6 d9 91 3d 2f ec 83 bd 25 a8 f8 bd
       -0.03082986 0.07121603 -0.06441533 -0.12141446
000190 2e 09 9f be f7 9d 5b 3c 82 60 43 3b 05 d1 4c 3e
       -0.3106169 0.013404361 0.0029812162 0.2000161
0001a0 de 16 05 3e 37 85 e2 bc 01 9a 5b bc d5 0f 91 3d
       0.12997004 -0.027651412 -0.013403417 0.07083098
0001b0 d3 47 83 bd 4f aa 29 be a5 18 2b 3d 03 85 84 3d
       -0.06410184 -0.16568874 0.04177155 0.064706825
0001c0 45 98 b0 3d a4 cb 22 bc 0d fb 2a be f4 87 49 bd
       0.08622793 -0.009936247 -0.16697331 -0.04920192
0001d0 bc cb 9b 3d 07 71 06 be 80 85 69 bf 0d d5 19 3e
       0.076072186 -0.13129054 -0.9121933 0.15022679
0001e0 bf 69 7b 3d fe 8a 20 3e 5f a8 3d 3d 0c 0e 08 be
       0.061380144 0.15678021 0.04630315 -0.13286608
0001f0 d7 91 13 bd 74 70 18 3d 5c 6e 4f 3d 18 27 85 be
       -0.036027756 0.03721662 0.050642356 -0.2600639
000200 6f 92 a3 3c 03 2a c8 3d b9 0d e8 3d 77 42 65 bd
       0.019967286 0.09773638 0.113307424 -0.05597159
000210 f5 f7 50 3c b9 ae 21 bf 69 ff 14 be 95 79 00 bd
       0.01275443 -0.6315723 -0.14550556 -0.03136595
000220 25 33 ff bd 02 18 16 3e 80 05 88 3d e7 69 d9 3b
       -0.12460927 0.14657596 0.06641674 0.006634939
000230 f4 34 00 bf c7 9f 5b 3d 7f 80 1e 3f e6 49 b2 bd
       -0.500808 0.053619172 0.6191482 -0.08705501
000240 c4 90 88 bc 5c a4 61 be ff 2d 40 be 88 27 1b bd
       -0.016670592 -0.22035354 -0.18767546 -0.037879497
000250 fa 0d 58 be d3 46 85 bf cf 79 c1 3d 31 7b 8e bd
       -0.21099082 -1.0412239 0.09447061 -0.06957091
000260 3d e2 08 3f e5 23 0f 3e 08 0a 77 bd e1 0e ea 3e
       0.5347021 0.13978536 -0.0603123 0.45714477
000270 0f 2b e5 3d a0 57 08 3d 4c 4b 0d 3f 1e 10 2c 3d
       0.111898534 0.03328669 0.5519302 0.042007558
000280 e6 92 c2 bd 8c 0a 26 3d b2 7e 90 be 83 71 ce be
       -0.09500675 0.040537402 -0.2822166 -0.40320978
000290 c0 bc 0d 3e 3a 98 90 bd bf 9a d6 be 69 d6 49 3d
       0.13841534 -0.07060285 -0.41914937 0.049276743
0002a0 2b 63 f5 bd 6f e9 77 be 3a 6b 8b bc 79 a2 0e be
       -0.119818054 -0.24210142 -0.017018903 -0.13929166
0002b0 95 ae 19 3e 3f d1 11 bf bc d6 c8 bc 4e 5c 40 3d
       0.15008004 -0.5695991 -0.024516456 0.04696303
0002c0 ad 68 60 be f3 88 5c bf dc a7 27 3e cf a2 3d be
       -0.2191493 -0.8614647 0.16372627 -0.18519138
0002d0 2c 6a 65 3d ae 72 92 bf f1 3c 1b 3e 45 12 44 be
       0.056009457 -1.1441247 0.15159966 -0.19147594
0002e0 06 b8 a0 3d 86 5e 3c be 1d 21 43 be 53 ec 4d 3e
       0.078476 -0.18395433 -0.190556 0.20109682
0002f0 b4 05 1a 3b 96 d3 4f be 64 45 78 bd c5 f4 8a 3b
       0.0023501934 -0.20295557 -0.06061305 0.0042406046
000300 2a 83 0e bd 81 2e f0 bc 92 64 7a bc 20 01 de 3c
       -0.034793057 -0.02931905 -0.015282767 0.027100146
000310 45 f7 36 bc 7b fd 84 3d 61 f9 14 bd c6 7b a1 bd
       -0.011167352 0.0649366 -0.03637064 -0.07884936
000320 f7 38 93 bd d2 b9 80 bd 90 0f 61 bd 10 5f d4 bc
       -0.071885996 -0.062854424 -0.054946482 -0.025924236
000330 5b a8 5f 3d 1a 0f 33 bd d3 7e 32 3f bf 08 c3 3d
       0.054603916 -0.043715574 0.6972477 0.095231526
000340 73 61 01 3d 75 cc 41 3e 2f 91 5a be 0a 83 67 3d
       0.031587075 0.1892565 -0.21344446 0.056521453
000350 86 2e 3a 3d f0 fc 4c bd 34 8a b2 bd 6b 61 ed bd
       0.045454524 -0.050045907 -0.087177664 -0.11590847
000360 b5 89 ae bd 98 22 c7 3c 28 e9 0b bf 00 55 95 3d
       -0.08522359 0.024308488 -0.54652643 0.07291603
000370 38 50 31 be 16 47 09 3d 7f 22 7b 3e e5 be 2e 3d
       -0.17315757 0.03351506 0.24524878 0.04266252
000380 ac 80 0d 3d 9e 66 fb 3d e4 a5 65 3b 56 c6 40 3d
       0.03454654 0.12275432 0.0035041505 0.047064148
000390 1d e0 d4 be 41 5f a8 3d 65 20 f0 bd 34 9f 26 3e
       -0.41577235 0.08221293 -0.11724929 0.16271669
0003a0 4e 4a 97 3c df 8f 00 3e 79 7d 01 3d 5a 82 a4 bd
       0.018468048 0.12554882 0.0316138 -0.08032675
0003b0 02 fc 27 3e b0 11 7c be 1d 70 c9 3d d3 2c 33 3e
       0.16404727 -0.24616122 0.09835837 0.17497568
0003c0 dc 3a 25 3e ec be 5e be 91 f6 14 bf 5e d1 e0 3d
       0.16135734 -0.21752518 -0.5818873 0.109774336
0003d0 85 20 8b 3d 24 52 8a bb bf 20 98 bf 2e d4 7e bd
       0.06793312 -0.0042212177 -1.1884993 -0.06221407
0003e0 e5 ab 3e 3e 83 65 3c 3d a2 18 05 3e f2 fa c7 be
       0.1862026 0.045995247 0.12997678 -0.39058644
0003f0 b9 5e ae 3d 21 de d1 3d 34 c8 16 3d 2d 45 52 be
       0.08514161 0.10247446 0.036812022 -0.20534201

ref_cov_fc2.bias f4 [16]
000000 f7 be 00 3e 43 d5 d9 3d 53 fb 12 bc 9b ed bf 3c
       0.12572847 0.106363796 -0.008971053 0.023428729
000010 c2 4b 4a 3b a8 9a f6 3d 0e 0f 0b 3e c4 46 cd 3d
       0.003086791 0.12041217 0.13579962 0.10023263
000020 70 31 86 bc 65 07 d3 3d 89 a7 3f 3e eb eb 59 3e
       -0.016380996 0.10304145 0.18716253 0.21281402
000030 5b 79 2e 3d d4 c3 59 3d 56 cd 3b bd 97 ff 1a be
       0.042596202 0.053165272 -0.04585012 -0.15136562
