model/unphased_MASseq_PacBio_Revio_HG002.pth (torch, 693210 bytes, 32 tensors)

combined_conv1.weight f4 [64, 5, 4, 3]
000000 03 1a e6 3d 5a 68 d0 3d d3 06 7c 3d 1f 09 b2 bd
       0.1123543 0.101761535 0.061529946 -0.08693146
000010 e6 67 cb bd 95 d1 4e bd 7d 8a 68 bd 5f 1f 08 be
       -0.099319264 -0.05049284 -0.056772698 -0.13293217
000020 fe 0a 82 bd 6d a4 41 3c b9 95 5a 3c e5 ac 47 3d
       -0.06349753 0.011818987 0.013341361 0.04874887
000030 85 95 3d 3d e8 1c b4 bc e1 45 47 bd ef 9e 78 3d
       0.04628517 -0.02198644 -0.048650626 0.060698446
000040 8a 0c b1 3d a9 23 9a bd f3 4b 9b 3d 31 50 e5 be
       0.0864497 -0.07526333 0.075828455 -0.44787744
000050 b7 f8 6b bc 5c 76 6e bc 02 67 f8 3b 47 03 14 3d
       -0.01440256 -0.014554586 0.007580639 0.036135938
000060 3a 80 18 3d 33 f4 86 3c b3 c6 d5 bc 41 80 ba bd
       0.03723166 0.016473865 -0.026095724 -0.09106494
000070 b6 8a 0a bf 4a 61 96 bd ad 4b 07 be 77 97 f8 bd
       -0.54117906 -0.07342775 -0.13212462 -0.121382646
000080 2b e2 06 3c b9 15 5e 3d 7b 03 89 3c 21 98 f1 3c
       0.008232634 0.054219935 0.016725292 0.029491486
000090 dd 79 24 be a3 42 ea 3d 7d b7 d4 3d 6f 6f 9a be
       -0.16062112 0.11438491 0.1038656 -0.30163142
0000a0 e8 31 9f be 9f fa 7b bd c5 bc ee bd 2d 9e 89 bf
       -0.31092763 -0.061518308 -0.11657099 -1.0751396
0000b0 73 e1 16 ba 4a 1c 87 3d c4 9f 01 3d fd c0 5b 3d
       -0.00057556404 0.065971926 0.031646505 0.053650845
0000c0 3e ab 13 bd af 91 09 3d ae 35 80 3d bb 8a 00 be
       -0.03605198 0.0335862 0.062602386 -0.12552921
0000d0 92 c9 87 bf 31 c4 cb bc 8c b1 ca bd 17 a4 14 be
       -1.0608389 -0.024873825 -0.09897146 -0.1451572
0000e0 30 e2 73 be 02 b4 e8 bc 44 3f 1b 3e 51 7b b3 bd
       -0.23816752 -0.028406147 0.15160853 -0.08763755
0000f0 d7 7d b1 be 77 47 21 bd 6e 74 3b be 54 18 7f 3e
       -0.3466632 -0.039374795 -0.18306133 0.24911624
000100 e1 cd b0 bd 61 36 5b bb cb 89 0f bd ba 0f 14 3e
       -0.08633018 -0.003344916 -0.03504352 0.14459124
000110 7c 5f 48 3e fa 21 a8 bd 33 78 56 be 9f ef 83 bd
       0.19567674 -0.082096055 -0.2094429 -0.064421885
000120 90 3f 31 3c 7d ec 23 bd 7b b0 44 3d bf 4c d4 3c
       0.010818377 -0.040020455 0.048019867 0.025915502
000130 96 fc f0 bd 1c da de 3c 1a 3a f8 3c 87 d4 5f bd
       -0.11766927 0.027203612 0.030301142 -0.05464604
000140 bd b1 8d 3c c2 76 84 3d d3 22 e9 bd 3d 15 b9 3d
       0.017296666 0.06467964 -0.11383595 0.09037254
000150 a6 3a 82 bd 39 85 0c bd a2 81 63 3d 53 1c 26 bc
       -0.063588426 -0.03430674 0.05554355 -0.010138589
000160 48 c0 86 bc 5c 20 1a 3d cb 06 60 bd c5 fc a2 3c
       -0.016449109 0.037628517 -0.05469398 0.01989592
000170 1d 81 4f 3d 33 de b6 bc 4a 46 03 3d e3 4a 3d 3d
       0.05066024 -0.02232275 0.032049455 0.046213996
000180 e2 15 16 be 00 79 dd 3d 4e ce 72 3d 36 ec 3e bd
       -0.14656785 0.108140945 0.05927878 -0.046611987
000190 d2 de d8 be c6 03 07 be e1 9f fb bc 18 81 79 3d
       -0.42357498 -0.13185033 -0.030715885 0.06091413
0001a0 de db 9e bd e8 7c 6d 3c eb a1 3d be 3e 1a 22 3e
       -0.0775678 0.014495112 -0.18518798 0.15830323
0001b0 60 96 3b be 34 a7 ba b9 14 08 aa 3c aa 51 68 3d
       -0.18319082 -0.0003560126 0.020755805 0.056718506
0001c0 c9 5a ee bd 3a 08 29 3d 23 a3 00 bd 0f 1a 1f 3b
       -0.1163841 0.04126761 -0.03140558 0.0024277007
0001d0 6f 33 9f ba 05 41 71 3c 7c f0 20 be c2 3e bf 3c
       -0.0012146066 0.0147249745 -0.15716738 0.023345355
0001e0 86 1e a8 3b 07 04 fd be 72 87 af bd 65 cf 1d bd
       0.005130592 -0.49417135 -0.08570756 -0.038527865
0001f0 09 ac b4 bc be 08 04 bf ad 54 18 bd 06 19 31 be
       -0.022054689 -0.5157584 -0.037190128 -0.17294702
000200 6a 08 3d be 66 d6 23 3d 0d 57 0e 3e 05 7a 3a 3e
       -0.18460241 0.03999939 0.13900395 0.1821061
000210 ac 3d f8 bb 1d 65 33 be b2 c0 63 ba e5 7d 65 be
       -0.0075757112 -0.1751904 -0.00086880766 -0.22411306
000220 77 e3 ae 3b 3a d2 e0 bd c4 4c 86 3c 37 c6 05 bd
       0.0053371745 -0.109775975 0.016394027 -0.032659736
000230 63 80 44 3d d6 33 55 3d 4f c6 86 bd fc 3e 08 bb
       0.047974 0.052051388 -0.06580793 -0.0020789495
000240 34 3c 48 bc 4d 87 f4 3d fe 98 0f 3d d7 de c6 bc
       -0.012221385 0.11939869 0.035058014 -0.02427618
000250 16 cd d3 bc ef 0d 6e be 2a 84 ff bb 1c 90 9c be
       -0.025854629 -0.23247503 -0.0077977376 -0.30578697
000260 4b c0 1c 3d 38 8f 0f bc 6b 98 ad 3d 7c 54 8d 3d
       0.038269322 -0.008762173 0.08476337 0.0690088
000270 d1 ab 59 be cb 40 fd be 29 09 01 bd d6 7e 04 be
       -0.21256949 -0.49463496 -0.031502876 -0.12939009
000280 8e 70 e5 3d 34 71 a2 3e 88 c2 8f 3d ff 84 2a be
       0.11203109 0.31726992 0.07019526 -0.16652296
000290 c9 3d fa 3d 2d 08 e5 bd 4b 93 be bc a6 4d 47 be
       0.12218816 -0.111832 -0.023263594 -0.19463214
0002a0 cd 44 f4 ba c0 90 b7 3c 39 bc 1d bd 5d e2 31 3d
       -0.0018636227 0.02240789 -0.03850958 0.043428767
0002b0 09 62 ae 3d d8 e8 7c 3c 79 23 9f 3d 29 27 d1 be
       0.085147925 0.015436374 0.07770438 -0.4085019
0002c0 53 35 ea 3d a1 92 2e bd 06 bc 64 be fc c3 73 be
       0.11435952 -0.042620305 -0.2233735 -0.23805231
0002d0 35 cc c6 3d 04 03 72 be aa b4 d0 bd 92 19 c8 3d
       0.09706918 -0.23633963 -0.10190709 0.09770502
0002e0 ec 69 01 bf 6b 91 a0 bd f7 27 36 be db 8f e4 3c
       -0.5055225 -0.07840236 -0.17788683 0.027900627
0002f0 bc 45 13 be d9 e0 c7 bc e7 f8 b2 3c e8 47 6d 3c
       -0.1438207 -0.024399208 0.021847202 0.014482476
000300 38 ef dd 3c 80 e1 7f 3d e9 6c ff bb 59 6d 70 bd
       0.027091607 0.062470913 -0.0077949655 -0.058698032
000310 94 66 0c bf 17 61 4e bd a7 cd ba bd db 70 10 3d
       -0.5484402 -0.05038556 -0.09121256 0.035263877
000320 f9 ff 39 bd fb 26 73 be 2f e4 3d be 29 b0 29 be
       -0.04541013 -0.23745339 -0.18544076 -0.16571106
000330 5e 19 fd 3b 01 ee 51 be 06 09 9b bd 56 50 49 3c
       0.0077239713 -0.20500948 -0.075700805 0.01228722
000340 10 80 9f 3d 4d 0f b7 bc 0d a0 6c be 34 c7 94 3d
       0.07788098 -0.022346163 -0.2310793 0.072645575
000350 52 3b 36 3d 2d 46 07 bc f4 26 03 3d 8d 81 58 bc
       0.044490166 -0.008256477 0.03201957 -0.013214481
000360 f0 fc e4 3d 9a 74 6f bf db 74 2a 3d a3 3a d3 3d
       0.111810565 -0.93537295 0.04161535 0.103139184
000370 be 23 e1 bb aa 4a 48 3d 51 39 0d 3e 1d 0a 18 3e
       -0.006870716 0.04889933 0.13791396 0.14847608
000380 4a 78 ce 3c f0 c8 e5 bd 5b 90 71 3c 47 d4 0c bb
       0.025203843 -0.112199664 0.01474389 -0.0021488832
000390 90 5e 9a 3d 0c 3f 9a be fe a1 03 3e bd 7a 91 3d
       0.075375676 -0.30126226 0.12854764 0.071034886
0003a0 3c 06 98 3e ed 15 0c 3d 43 b8 a9 be e4 c5 25 3e
       0.29692256 0.034200598 -0.33148393 0.1618877
0003b0 23 f5 0b be 86 b7 ca bd a9 b9 a7 3d db f7 ff bb
       -0.13667731 -0.098982856 0.08189709 -0.007811529
0003c0 ac 13 69 3e 07 81 da be ab 11 41 bc 5d c5 4b be
       0.2276141 -0.42676565 -0.0117839975 -0.19899507
0003d0 f9 fb 80 3e a2 67 6e 3d b3 bd 95 3d 1c 77 f0 be
       0.2519224 0.0582043 0.07311573 -0.46965873
0003e0 d0 aa 77 3d 60 09 70 be df 1c a2 3d d1 02 b2 bd
       0.060465634 -0.23441076 0.07915663 -0.086919434
0003f0 3a c5 d8 bc a0 bc 09 be c3 f0 96 bd 05 55 1e bc
       -0.026461232 -0.13450861 -0.073701404 -0.009663825

combined_conv1.bias f4 [64]
000000 98 3e 4f bd 0b e9 f0 bd 71 4f 57 3d 98 5b 21 be
       -0.050596803 -0.117631994 0.052565996 -0.15757596
000010 0e 5b 54 3d e6 2e 7e bd 76 c1 8d bd fb 3b 8d 3d
       0.05184465 -0.062056445 -0.06921665 0.06896206
000020 d2 89 98 bd 83 d5 ca 3b e2 1d cb bc 80 dd 25 bc
       -0.07448162 0.0061900034 -0.024794523 -0.0101236105
000030 e4 a1 15 bd d9 d9 d1 bd 26 58 93 bd ae 45 1a bd
       -0.036531344 -0.10246629 -0.07194547 -0.037664108
000040 ad 4a af bb 1e 43 6a bd 9d 0a ef bc 5c bd 6c bd
       -0.005349478 -0.057192914 -0.029179865 -0.057797775
000050 af 7e f8 bd ca a0 86 bc c9 46 b3 3c 2c 90 f0 bd
       -0.12133538 -0.016434092 0.021884339 -0.117462486
000060 e1 85 4e 3c 73 7f 22 be a0 36 0d be 26 87 21 be
       0.012605161 -0.1586893 -0.13790369 -0.15774211
000070 4f 9d 3f bd 90 bb 39 bb c7 50 ba bd 39 f0 10 be
       -0.04678088 -0.0028340556 -0.09097438 -0.14154138
000080 44 14 a7 3c 0d 8c cf bb 1f ea c2 3c 26 08 3c bc
       0.020395406 -0.006333834 0.023793278 -0.011476552
000090 a9 80 0c 3d 8d 6e 06 3b 5c 10 68 3c 6a ba 15 bd
       0.034302387 0.002051267 0.014164057 -0.03655473
0000a0 26 11 04 ba f3 6c ad bc 16 7d c7 bd 4e ed ae 3c
       -0.00050379557 -0.021170115 -0.09740655 0.02135339
0000b0 32 7d eb bd 2c 75 50 3d b9 37 fe bd a9 e7 d3 3c
       -0.114984885 0.050892994 -0.12412972 0.0258673
0000c0 c5 71 6b bd 96 1e a5 3c 58 29 62 bd 65 94 15 bd
       -0.057481546 0.020156186 -0.05521521 -0.036518473
0000d0 34 a0 69 bd 74 75 c3 3b c1 c8 54 bc 06 13 6d 3d
       -0.057037547 0.0059649292 -0.012987317 0.05787947
0000e0 30 48 9d bd 35 50 3e 3c 76 ec 81 bd 1a a0 10 be
       -0.07679784 0.0116158025 -0.063439295 -0.14123574
0000f0 82 18 ea bd 7c 1e 64 3d 0a e3 01 bd 90 ec 2e 3c
       -0.11430456 0.055693135 -0.031710662 0.010676518

combined_conv2.weight f4 [64, 64, 1, 3]
000000 e9 bb 65 be 45 7f a8 bd c7 c0 5c bd d6 98 23 bd
       -0.22434963 -0.082274 -0.053894784 -0.039940678
000010 7c a0 7c 3c 8a 15 a7 bd f5 28 58 3d 3e be e9 bc
       0.015419122 -0.08158405 0.052773435 -0.028533097
000020 d5 64 d4 3d 8c 00 c4 bd ec 39 b6 3c d9 b4 86 bd
       0.10370795 -0.09570417 0.022244416 -0.06577463
000030 d1 7a 36 bd e7 90 7d be 02 8a b1 3c af 82 b7 3d
       -0.04455072 -0.24762307 0.021672253 0.08960473
000040 e1 08 37 3c 66 83 08 3d 8a 9a 55 3d e8 ca 0d 3c
       0.0111715505 0.033328436 0.052149333 0.008654334
000050 f5 63 1f be 82 16 5f 3d 7f 33 bb bd 3d dc 2b bd
       -0.15565474 0.054464824 -0.091406815 -0.041958082
000060 dc 33 7c 3c b9 81 03 3d 81 3f ac be 48 52 8c bd
       0.015393224 0.032106135 -0.336422 -0.068516314
000070 f8 48 a7 ba 72 a7 6f 3c b7 98 20 bd a2 75 c7 bd
       -0.0012762835 0.014627324 -0.03920814 -0.097392336
000080 da c7 35 bd 5f 4b 5c bd aa c8 e1 3a a4 db a9 3d
       -0.044380046 -0.053782817 0.001722594 0.08293846
000090 6c 9e d6 3b df 4e 22 3d db 83 69 bd 6e 5f d6 bd
       0.006549647 0.039626 -0.057010513 -0.104674205
0000a0 e2 b1 12 3d 78 4d c8 3d 21 22 9e bd 99 b1 1d bd
       0.035814174 0.09780401 -0.07721353 -0.03849945
0000b0 ce cd bc bb d9 21 7f bd a0 e7 35 bd a4 12 8b 3d
       -0.0057618385 -0.06228814 -0.044410348 0.06790665
0000c0 7e 7f 34 3d 3a 1e 98 3d 68 20 98 bd 71 de 22 3d
       0.0440669 0.0742764 -0.07428056 0.039762918
0000d0 4d 88 9f bd 18 41 07 be eb 15 3b bc da 72 20 bd
       -0.07789669 -0.13208425 -0.0114188 -0.03917203
0000e0 af ba 01 3d 53 b0 27 3d d9 4d 6b bd 05 62 99 bd
       0.031672176 0.04093964 -0.05744729 -0.07489399
0000f0 b2 15 f6 bc 66 ee 2f bc cd 25 2e 3d b2 d6 7d be
       -0.030039642 -0.010737991 0.04251652 -0.24788931
000100 0e 34 e1 be 26 23 d3 bd 05 06 e1 bc a8 b7 7f bd
       -0.43985027 -0.103094384 -0.02746869 -0.062431008
000110 a4 48 67 3d 0c a3 a7 bd ba b6 03 3e f9 a3 ea 3d
       0.05646576 -0.081853956 0.12862673 0.114570566
000120 4f d6 da bd ee e0 51 bd 9b ba 1c 3b 82 35 67 3d
       -0.10685407 -0.0512399 0.0023914936 0.056447513
000130 62 c4 aa bb 11 f1 cc 3d 0d 47 9f be 4f 34 3a bc
       -0.005211399 0.10006917 -0.31108895 -0.01136501
000140 5a a5 94 3c 87 73 21 3c 53 cb 95 bd 25 e4 1b 3c
       0.018145252 0.009854204 -0.07314172 0.009514843
000150 2c ad f7 be 36 30 02 be 56 c1 8f bc df bf 91 bd
       -0.48374307 -0.12713704 -0.017548244 -0.07116675
000160 5a 81 ae bd 88 42 84 bd 3d 10 33 3d bf 37 58 bc
       -0.085207656 -0.06458002 0.043716658 -0.013196885
000170 50 ec 3a bd 74 66 24 3c 4f 12 aa bd 87 05 22 be
       -0.04563552 0.010034192 -0.08304273 -0.15822421
000180 31 94 76 bd 97 04 10 3d 85 a2 31 3d 0f 4f 7d 3d
       -0.06019992 0.035160627 0.04336788 0.061842974
000190 40 bc 25 3d 3c 7e b7 3d 74 94 10 bd 3c 3e 77 bd
       0.040462732 0.08959624 -0.035297826 -0.060362086
0001a0 bd 5c 94 bb a4 c1 aa bd 3f c1 25 3c 77 52 19 bd
       -0.004527657 -0.08337715 0.010116874 -0.03743216
0001b0 c9 38 24 3e 8f 8c 0d be 70 7f cf bd 81 28 77 3c
       0.16037287 -0.1382315 -0.10131729 0.0150853405
0001c0 ad 1e 4e bc 58 5c 30 be 11 31 a3 3d bf fd 10 be
       -0.012580556 -0.17222726 0.07968343 -0.14159296
0001d0 f4 d0 ad 3d 8c d3 19 bd dc ef 01 3d 90 d0 a6 bd
       0.0848712 -0.037555262 0.03172289 -0.08145249
0001e0 b4 38 e5 3b ae f5 7a bd 18 b0 70 bd 20 37 9f 3d
       0.006995285 -0.061269455 -0.058761686 0.07774186
0001f0 83 cb ba 3d ac 50 e5 bc c2 a5 52 be 26 a0 8a 3a
       0.09120848 -0.027992569 -0.20571044 0.0010576292
000200 d5 4d 89 3d ca a6 01 bc 31 b3 02 be b7 95 ff 3a
       0.067042984 -0.007913301 -0.12763669 0.0019499575
000210 fe 25 9e 3d 3d 63 10 3e c0 af 09 bd b7 6a 8a 3c
       0.0772209 0.14100356 -0.033614874 0.016896589
000220 8e 56 55 3d d3 f4 44 bd ab d4 cf 3b f2 4e e2 3c
       0.052084498 -0.048085045 0.0063424907 0.027625535
000230 a5 79 68 3e fa b5 6c bd 11 37 a5 be 1b 78 18 bd
       0.22702654 -0.057790734 -0.32268575 -0.037223917
000240 99 07 a0 3c 3e 15 49 3d 53 01 ff bd 1e 5e 35 be
       0.019534873 0.049092524 -0.124514244 -0.17711684
000250 b3 46 5d bd 38 52 04 bd d1 62 f4 bd ce 75 d5 3d
       -0.054022502 -0.032304972 -0.1193291 0.1042286
000260 b2 46 24 3d f0 6e 1a 3e 17 39 0f 3e 94 e1 8c bd
       0.040106483 0.15081382 0.13986622 -0.06878963
000270 b8 af 90 bd a4 e5 7b 3d 8e b8 84 3d 74 6b 72 bb
       -0.07064766 0.0614983 0.064805135 -0.0036990317
000280 66 e9 8e bd 86 4b b6 3d b6 7b d1 bd 81 ed b8 3d
       -0.06978111 0.08901124 -0.10228674 0.09029675
000290 a3 dd 41 be 92 cc be be 8b c8 22 be 07 69 03 be
       -0.18932204 -0.3726545 -0.15896814 -0.12833034
0002a0 41 f0 80 3c e7 56 3d bd 75 c2 e1 bd db 19 bc bd
       0.015739562 -0.046225455 -0.11023418 -0.09184619
0002b0 83 95 3d bd 7e a1 60 3c bd 38 1d 3e 78 b5 85 3e
       -0.046285164 0.013710378 0.15353675 0.26115012
0002c0 12 6c 96 3c d1 d8 5b 3d 2d 9f b1 3e c6 e3 a7 bd
       0.018362079 0.05367357 0.34691754 -0.08197741
0002d0 2b 13 a4 bd 3a c0 69 3c 0b f4 3d 3c 61 71 86 ba
       -0.080114685 0.014267022 0.011593829 -0.0010257178
0002e0 40 bd cf bb 79 80 23 3d fa 38 cb bc e2 8f 66 3c
       -0.006339699 0.039917443 -0.024807442 0.01407239
0002f0 0f d4 bd bb 83 04 c3 be 7c 49 b9 bd 3a b4 06 3d
       -0.0057931016 -0.3808938 -0.09047219 0.03288672
000300 f4 d4 2a bc 30 f0 f0 bd ea c4 59 bd fd c2 33 bd
       -0.010426749 -0.11764562 -0.053166308 -0.043887127
000310 d2 ca 7f bd 31 81 53 3d d4 de 6e ba e6 42 4b 3d
       -0.062449284 0.05163688 -0.00091121835 0.049624346
000320 4e 3f 09 bd 23 cc 6a 3c 04 7d d9 3d b3 84 03 bd
       -0.033507638 0.014330897 0.10619548 -0.032108974
000330 13 f2 c8 bd 0f d6 35 bf 67 99 71 be 14 54 75 3d
       -0.09811797 -0.7102975 -0.23593675 0.059894636
000340 3c 39 9e bd 86 5f d3 3c c3 1a de 3d 83 ef 4a 3d
       -0.0772576 0.025802385 0.10844948 0.049544822
000350 99 74 4f bc 9e ec 34 3d ce 15 44 bc 3b 4b 5d be
       -0.012662076 0.04417097 -0.011968089 -0.2161073
000360 31 be eb 3c 71 b9 2d bf a3 9a 0c bd bf 56 07 bc
       0.028777214 -0.67861086 -0.03432716 -0.008260428
000370 ee e3 09 3c fc 86 18 3d fd 99 dc be 1a 31 43 bf
       0.008416159 0.037238106 -0.43086234 -0.762468
000380 2e b0 64 bf 10 62 ae 3d 3a 08 d5 3d b3 fc 93 3d
       -0.8933133 0.08514798 0.1040196 0.07225933
000390 fc c6 00 3d ae e7 13 be d2 c8 a5 bc f2 4b b3 bd
       0.031439766 -0.14443848 -0.02023736 -0.0875472
0003a0 e8 d4 80 be 6c af 37 bd 6f 14 d9 be d5 25 73 bf
       -0.25162435 -0.04484503 -0.42398402 -0.949796
0003b0 b9 e2 75 be 1b e6 6f bb 8f 33 d3 3a 3e e6 b3 3d
       -0.24012269 -0.003660566 0.0016113388 0.087841496
0003c0 2e ff ec 3c 73 b2 9d 3d b0 e9 17 be a5 eb 4f 3d
       0.028930273 0.07700052 -0.14835238 0.050761838
0003d0 ce e1 68 be 30 fe 84 bd 79 7b cc bc 77 14 81 bc
       -0.22742388 -0.06493795 -0.02496122 -0.015756829
0003e0 78 f4 30 bd 97 69 03 3d d9 1c 0a 3e 79 3e e2 3c
       -0.043201894 0.03208312 0.13487567 0.02761768
0003f0 cc 9f a4 bc 1a 63 e9 3d dd 17 8f bc 17 b4 26 bd
       -0.020095728 0.11395855 -0.017467434 -0.04069909

combined_conv2.bias f4 [64]
000000 ed 06 46 3d 19 48 39 3d ff b2 20 bc 36 d1 f2 bc
       0.04834645 0.045234773 -0.009808301 -0.029640775
000010 9d ca 2e bd 90 08 b6 bd cb 04 d1 bc f0 92 ca bd
       -0.042673696 -0.08888352 -0.02551498 -0.09891307
000020 0b 3b 3f 3d 1e af be bc e1 0c 92 3d e2 5e 49 3d
       0.046687167 -0.023276862 0.07131363 0.049162753
000030 ae 41 7d bd ae 3f 66 3b 8e 2f 70 bd 2a c4 01 3c
       -0.061830215 0.003513317 -0.0586391 0.007920304
000040 40 d1 a3 bc c3 77 41 bd f9 15 57 bd 78 e9 d9 3b
       -0.01999724 -0.047233354 -0.05251119 0.006650146
000050 e1 7c 19 bd c5 8f 0d bc 6d a3 e9 bb 20 fc a0 3d
       -0.03747261 -0.008640234 -0.0071300776 0.07860589
000060 e5 d7 84 bc fa ef ab 3d 49 98 00 bc f0 a2 05 bd
       -0.016216228 0.08395381 -0.007848808 -0.032626092
000070 0a 48 da 3d d1 a1 86 3c 51 a4 cc 3d 1d ae a6 bb
       0.106582716 0.016434582 0.09992278 -0.005086674
000080 10 a7 31 bb 7a b1 91 bd 3d d3 06 bd 09 18 e2 bc
       -0.0027107634 -0.07113929 -0.032916296 -0.027599351
000090 86 01 91 3d 5b d8 89 3d b6 82 d1 3c 1a 65 70 bd
       0.07080369 0.0673072 0.025575023 -0.058690168
0000a0 66 81 09 bd 51 3c 66 3d f9 c4 da 3b bf 0d 0f bd
       -0.03357067 0.056209866 0.006676313 -0.03492522
0000b0 0c 84 93 bd 91 1b 46 3b 4e 36 aa 3c 27 63 37 bd
       -0.0720292 0.0030228833 0.020777848 -0.044772293
0000c0 e3 43 1b bc bc 12 2d 3d 1a e8 a4 3d 53 94 c6 3d
       -0.009476635 0.042254195 0.08052082 0.09696259
0000d0 76 f5 b4 bd 7a f4 a1 bb c2 80 47 bd 9c 91 fc bb
       -0.088358805 -0.004942474 -0.048706777 -0.0077077877
0000e0 89 23 21 3c 9c f4 f0 bd f5 f1 a5 3b 97 67 c9 bc
       0.009835132 -0.117654055 0.005064244 -0.024585528
0000f0 b1 bf 22 bd 98 86 e6 bc 0c 1b 6e 3d 8f f7 5e 3d
       -0.039733592 -0.028140351 0.058131263 0.05443531

snv_conv1.weight f4 [8, 4, 3, 1]
000000 62 0c 04 3e ad 16 c8 3e bd 51 48 be 5c 05 cc 3e
       0.12895349 0.390798 -0.1956243 0.3984784
000010 cb b4 67 3d 01 29 99 be 4e 01 eb be 38 8b a4 bc
       0.056568902 -0.29914096 -0.45899433 -0.020085916
000020 ee f2 86 bd 08 74 b5 3d 06 2b 47 bc dd 7a aa be
       -0.06589304 0.08860022 -0.012156254 -0.33296862
000030 8d 26 e7 bf f2 43 ba 3e 4d 6e 92 3e c8 f7 e2 bf
       -1.805864 0.36379963 0.28599778 -1.7731867
000040 08 9b 8c 3e 85 63 11 be 6d 71 19 3f e4 03 00 3c
       0.2746203 -0.1419812 0.599387 0.007813428
000050 ba 4b 24 3f c8 8e 3f 3f c6 ae ce ba 10 be 09 bf
       0.6417805 0.7482724 -0.0015768639 -0.5380564
000060 14 42 58 bb 54 36 96 3e 99 dc 01 3f 06 d9 b0 bd
       -0.003299837 0.29338324 0.5072723 -0.08635144
000070 63 48 c4 3e f6 3e 55 3f 47 ba 57 3b 66 3b 99 3e
       0.38336477 0.83299196 0.0032917426 0.2992813
000080 9d 8a 6a 3f 0c 82 4d 3c 58 2f 68 3e e8 7b 83 be
       0.9161776 0.012543213 0.2267431 -0.2568047
000090 59 e3 00 3f d0 50 b9 3c aa 36 88 3e b1 89 2b 3e
       0.50346905 0.022621542 0.26604205 0.16751744
0000a0 f3 d6 fd bd b9 08 13 bf 86 01 0f 3f 8a 2b 27 3e
       -0.12394514 -0.57435185 0.558617 0.16325203
0000b0 00 83 b2 3e 98 bf 1b 3f 4b 2c 2c 3e c6 c6 af 3d
       0.3486557 0.60839224 0.16813771 0.08582835
0000c0 20 ef e5 3c 24 3f 00 bf 36 89 bc 3d 46 cc 9c bf
       0.028068125 -0.50096345 0.092058584 -1.2249839
0000d0 9f bd 52 3d 89 2e 07 3e 47 2d de be 21 01 03 3e
       0.051450368 0.13201346 -0.4339392 0.127934
0000e0 08 7e 91 3e 6d 51 a4 be 59 f4 d3 3d 18 84 58 be
       0.28416467 -0.32093373 0.1034934 -0.2114414
0000f0 f9 51 92 3e fe 1f d5 bf d5 b7 16 bd ab f6 56 3e
       0.28578165 -1.6650388 -0.03679641 0.20992534
000100 23 0b 1b bf 72 12 ce bb e0 73 8c bf 61 20 e7 3d
       -0.6056387 -0.00628882 -1.0972862 0.11285473
000110 e2 b5 64 3e 75 08 34 bf db 13 a2 3d 80 90 89 bd
       0.22335008 -0.70325404 0.079139434 -0.06717014
000120 3a 53 1d bf ac 3d 8a 3e ff 38 2a be cf 86 10 bf
       -0.6145512 0.27000177 -0.16623305 -0.564557
000130 03 2a 24 bd 2d 8c 5a 3e 9e b4 ba bf 24 19 fb 3d
       -0.040079128 0.21342535 -1.458637 0.122606546
000140 87 d3 1b be 74 79 03 bf 66 4a bb 3d 9a 9e 97 3e
       -0.1521741 -0.513572 0.0914505 0.2961319
000150 c9 30 d5 bd d8 1e e0 bc 0f 8f 65 bd 6f 7b 2f 3e
       -0.10409696 -0.027358457 -0.056044634 0.1713693
000160 39 36 78 bf 24 6c 9d 3d 06 32 68 bf af 7b 45 3d
       -0.9695774 0.07686642 -0.9070133 0.048213657
000170 07 3a 46 3d a1 ae 46 bf a0 34 c4 3d 3e 1f 8d bc
       0.048395183 -0.7761021 0.0958035 -0.017226811

snv_conv1.bias f4 [8]
000000 a3 ac 19 bd 17 75 60 3e 5c 43 aa bb b3 4f 8d 3e
       -0.037518155 0.21919666 -0.005196018 0.27599868
000010 7a be 5c 3d 05 fd a5 bd 31 da 0e be f9 2f bf 3d
       0.05389259 -0.081049 -0.13950421 0.09335322

snv_fc1.weight f4 [20, 8]
000000 64 48 a0 bd 94 f5 a0 3e 6b 42 ca be e7 f2 4c 3d
       -0.078263074 0.3143736 -0.39503798 0.050036337
000010 75 bf 37 3b 4c 7d 47 be 0f d2 ba be 64 1f 8f 3e
       0.0028037701 -0.1948139 -0.36488387 0.27953637
000020 b2 d3 42 3e 19 1e 11 be 74 6f c5 3d 75 5a 81 be
       0.19026068 -0.14171638 0.096403986 -0.25264326
000030 58 7c 80 be a1 a4 94 be 9a bd 93 3e 80 8c 0b be
       -0.25094867 -0.29031852 0.28855592 -0.13627815
000040 c0 82 80 be 55 2b c6 bd 8f 66 fb 3d 2d 33 74 be
       -0.25099754 -0.09676234 0.12275421 -0.23847647
000050 3c bf 16 bc 11 80 95 be a7 2c 49 be f1 74 52 3e
       -0.009200867 -0.2919927 -0.1964594 0.20552422
000060 86 85 80 bd 59 46 c4 3e df fc 1f 3e b5 d4 e1 3e
       -0.062754676 0.3833492 0.15623806 0.44107595
000070 96 cc 99 be 40 45 dc be 97 ff 2e 3f 59 f6 a4 3e
       -0.300389 -0.43021584 0.6835875 0.32219198
000080 af 2e b5 3e 01 21 13 3e 17 26 4a 3e 27 ef f8 3e
       0.3538718 0.14368059 0.19741093 0.4861996
000090 83 1c a2 be 1f 94 eb be b8 88 bd 3c be b0 69 be
       -0.31662378 -0.46011445 0.023136482 -0.22821328
0000a0 6d 20 3f be f4 7b 92 3e 44 f2 d0 3e d9 23 63 be
       -0.18664713 0.28610194 0.40809834 -0.22181644
0000b0 32 6c 85 bc 99 dc a9 be 85 52 3f 3f 9e f3 8a be
       -0.016286943 -0.33176115 0.7473529 -0.2713899
0000c0 80 12 58 3f 9f 83 dc 3c 0a 37 c9 3c fa 8d e5 bd
       0.8440323 0.02691823 0.024562377 -0.112087205
0000d0 e1 b2 e0 3e 18 36 06 3d 4f 1c c5 3e 0a 6a 51 be
       0.43886474 0.03276643 0.3849816 -0.20450607
0000e0 7b 51 9b ba 00 59 ec 3e 6d 62 a7 be 2c d4 8e bd
       -0.0011849845 0.46161652 -0.3269228 -0.06974062
0000f0 da 20 ce 3e 4c ee 6a 3e 72 48 0a 3e 6b cd bc 3e
       0.4025944 0.22942466 0.13504198 0.3687547
000100 6e 36 2c 3f 0c d8 f2 bb 55 04 86 3e d1 32 14 3e
       0.67270553 -0.0074110087 0.2617518 0.1447251
000110 dc b3 32 3d d7 da 72 3e d5 d6 80 bf 41 dc 0f bd
       0.04362856 0.23716293 -1.0065562 -0.03512216
000120 37 38 90 3d 19 82 17 3e 8a fc d6 3e 0e bf 44 3e
       0.07041972 0.14795722 0.41989547 0.19213507
000130 42 d3 3a be 12 10 e5 be 8c ad 08 3e 7e 09 ba be
       -0.18244651 -0.44738823 0.13347453 -0.36335367
000140 1b 4b 82 3e ff d7 82 be 5d d0 14 3e 4d 54 d1 3e
       0.25447926 -0.25555417 0.1453261 0.4088463
000150 69 c0 90 be fb c3 70 bf 10 e6 20 bf f2 e8 2e be
       -0.28271797 -0.9404904 -0.6285105 -0.17081049
000160 ac 03 c9 bd 4d e0 99 3e c1 73 a2 3c 23 2e 26 be
       -0.098151535 0.3005394 0.019830586 -0.16228537
000170 4e 99 b3 bd 7d 1e ea bf 76 0c a5 3e c4 35 c3 be
       -0.08769475 -1.8290554 0.3223607 -0.38126957
000180 5a f9 06 3f 8b e5 51 be e4 0a 21 bf 1c 94 c4 3e
       0.5272423 -0.2049772 -0.6290724 0.38394248
000190 28 cc d1 3d 84 75 21 3f 8b 6f 45 be 95 f6 66 bb
       0.10244018 0.6306994 -0.19280832 -0.003524219
0001a0 94 10 60 bd e5 1e b0 3e de 9f 8e 3d a4 5b 16 3d
       -0.05470331 0.3439857 0.06964086 0.03670849
0001b0 09 96 f0 bd b8 a4 ef 3e 5a 5b e8 3e a2 a4 bf bd
       -0.11747367 0.46805358 0.45382196 -0.09357573
0001c0 39 76 ae be 23 d3 17 3e 0f e9 5d 3b d9 0a cf 3c
       -0.34074572 0.14826636 0.0033860838 0.025273727
0001d0 da 1f 02 3f 10 18 08 3f 76 84 d2 3e 92 6f ea 3e
       0.5082985 0.53161716 0.41116685 0.45788246
0001e0 a0 d5 a4 be 48 ae 41 be 90 b0 62 be 23 bc 97 3d
       -0.32194233 -0.1891414 -0.22137666 0.07408931
0001f0 a0 6e 4d 3d 00 a4 01 be 13 30 4e 3e 93 53 89 3e
       0.05015433 -0.12660217 0.20135526 0.26821575
000200 af 85 16 bd ca 71 67 3e 71 5e 47 3e 3f 0c 41 3e
       -0.036748584 0.22602001 0.1946962 0.18852328
000210 bb 61 df be 03 7c ac be 45 35 ba be d5 29 38 be
       -0.4362925 -0.33688363 -0.36368766 -0.17984708
000220 c4 39 7b be 0b 0c 93 be 6f 00 ba 3d 25 9c 34 3d
       -0.24533755 -0.28720126 0.09082114 0.044094224
000230 45 f9 90 bc 87 5f f8 bd d6 4a 7e be 5e ec b0 be
       -0.017696986 -0.121275954 -0.24833235 -0.34555334
000240 ce f6 db be 9f 9f 5f be 79 bd cf bd bc 58 2a be
       -0.42961735 -0.21838234 -0.10143561 -0.16635412
000250 fa 47 c8 3e f0 a0 0b 3f 68 f1 90 bf 7c 51 0f 3f
       0.39117414 0.54542446 -1.1323671 0.5598371
000260 35 46 85 3e 46 c4 a7 3d af 50 c0 3d 27 d0 2b be
       0.26030126 0.08191733 0.09390389 -0.16778623
000270 c2 28 72 bd 3e 48 ff bd 20 6e b3 be fa 01 a5 be
       -0.0591209 -0.12464951 -0.35044956 -0.3222807

snv_fc1.bias f4 [20]
000000 5f b0 90 3e a3 96 08 be c0 f8 15 be e0 47 49 bd
       0.2825956 -0.13338713 -0.14645672 -0.04914081
000010 08 f1 df 3d f8 8e 1e 3e 1c de d4 be c4 a2 95 3e
       0.10934645 0.15484226 -0.41575706 0.29225743
000020 45 47 0b be 82 8c 35 3e c2 bb ae bd 14 04 97 bc
       -0.13601406 0.1772938 -0.08531906 -0.018434562
000030 1c 10 01 3e c7 34 b0 bd 88 47 a6 bd 46 21 97 be
       0.12603801 -0.086038165 -0.08119112 -0.29517573
000040 4a 5f f7 3c 4e 7e 01 be 68 d4 89 3d 14 f9 9f be
       0.030196805 -0.12645838 0.067299664 -0.3124472

ref_cov_fc1_fwd.weight f4 [32, 61]
000000 e7 aa b0 bd 71 09 b2 bd 5c 3d 9b be 36 1a ad be
       -0.08626347 -0.08693207 -0.3032025 -0.3380906
000010 2f 3c 88 bd 92 48 3a 3e eb 90 14 bb 51 fa d2 bc
       -0.06652104 0.18191746 -0.0022669386 -0.025754126
000020 cc 33 6e 3d de 22 a7 3a aa 46 99 3d 85 4c a2 bb
       0.058154866 0.001275148 0.07484181 -0.0049529695
000030 5d 53 07 3d 26 d1 bd 3b 3d b0 a3 3d 54 6a cd bd
       0.033038486 0.0057927547 0.07992599 -0.10030046
000040 df 20 17 bd be 12 81 3d c4 be a8 3d e5 8b 3d 3d
       -0.036896583 0.06302403 0.08239511 0.046275992
000050 e4 9e 11 3e 4a a9 0e 3e 48 a3 20 3d 94 43 27 3e
       0.14220768 0.13931766 0.039218217 0.16334373
000060 94 36 93 3e 2f fd 49 3e b9 11 44 3e 24 af 9b 3e
       0.28752577 0.19725488 0.19147386 0.3040706
000070 bc 73 8f 3e 79 83 b3 bc 08 f9 79 3e 6f b7 a2 be
       0.28017986 -0.021913277 0.24411404 -0.31780574
000080 ae 8f 09 bf 1a ef d6 3d eb f4 5b be b9 98 9a be
       -0.5373486 0.10494824 -0.21480148 -0.30194643
000090 90 42 24 be 5b c8 b3 3d 97 70 d3 3e bd 1f 44 3d
       -0.16041017 0.08778449 0.41296837 0.04788183
0000a0 8b 1c 72 be d4 08 31 3d 73 26 c5 bd 1f 5e 86 3e
       -0.23643701 0.04322131 -0.09626474 0.26243684
0000b0 84 3a 12 be 96 89 47 be a1 45 f5 3b 6b e4 cd bd
       -0.14280134 -0.19486079 0.007485107 -0.10053333
0000c0 59 1e 91 be f6 5d 27 bf 3f 8b 06 bf 1b de 0d bf
       -0.28343466 -0.6537775 -0.5255622 -0.5541703
0000d0 0b 2a 20 be 77 c1 06 bf fe b1 16 bf ae 29 cc be
       -0.15641038 -0.52638954 -0.58865345 -0.3987555
0000e0 33 7a 48 be 71 dd 75 bd d0 5a db 3b 95 c1 90 3d
       -0.19577865 -0.060025636 0.0066941753 0.07068173
0000f0 d3 af e3 3d 73 21 be bc 4d a3 f2 bc 6f ec 5c bc
       0.1111752 -0.02320931 -0.029618884 -0.013484105
000100 1a 5e b7 3c 7b 81 ab 3d 4f 31 17 bd 01 3b 7f bd
       0.022383738 0.08374306 -0.03691226 -0.06231213
000110 92 c6 43 3b b2 ca e5 bd 66 2b eb bc d5 71 4f bd
       0.0029872996 -0.11220302 -0.028707217 -0.050645668
000120 46 83 97 3d 16 a2 62 3d cc a6 64 3d 94 16 5d 3c
       0.07398085 0.05533036 0.055823132 0.013494153
000130 fd 5f e6 3d c0 39 6e 3c 0f f7 fd bd 78 67 a7 bc
       0.11248777 0.014540136 -0.12400638 -0.02043508
000140 a3 d7 ae bd 60 66 84 bc 5d ad db bc 88 4c 3b bd
       -0.08537223 -0.016162097 -0.026816064 -0.045727283
000150 ad c4 d2 3d cb 45 47 bd e9 bc 81 ba af 83 99 3d
       0.10291419 -0.048650544 -0.0009898219 0.0749582
000160 f3 86 96 3c 86 7d fb bd 94 56 96 bd 35 74 5f bd
       0.018374896 -0.12279801 -0.07340732 -0.054554183
000170 34 29 ee bd c0 fd f9 bd 5f c3 f2 bd f1 80 e7 bd
       -0.116289526 -0.12206602 -0.1185367 -0.113038905
000180 4e 4e 4c 3d 37 38 1b bb 6b 3c 71 bc c0 a3 dc bd
       0.049879365 -0.002368463 -0.014723877 -0.1077342
000190 93 14 f3 3d ae 29 e6 bd 59 d3 a0 bd fb 16 61 bd
       0.118691586 -0.112384185 -0.07852811 -0.054953557
0001a0 e1 5a 3d bc 8f ea 1a 3d 9b 0a c8 3d ba c7 b7 3d
       -0.011557312 0.03782135 0.09767648 0.08973642
0001b0 45 fc 71 bd 08 a9 ea bd 52 68 d7 3c 10 36 16 3c
       -0.059078474 -0.114580214 0.026294861 0.009168163
0001c0 ee 3c 9e 3d d1 71 ee bc bd 21 15 3c 32 a9 4e 3d
       0.07726465 -0.029107006 0.009102282 0.050454326
0001d0 ca 09 dd bd 0f 00 10 3c 07 c7 be 3d 0b 2a 8f bd
       -0.10792883 0.0087890765 0.09315305 -0.06990441
0001e0 24 77 8d 3d 5e 87 33 bd 6b 55 6c be 95 25 96 be
       0.0690749 -0.043830268 -0.2307946 -0.29325548
0001f0 9e 95 1d be 56 66 88 bc ea 5d 27 3e 65 5b 08 3d
       -0.15389106 -0.01665036 0.16344419 0.033290286
000200 ab 3f e8 bc 85 bf 49 be 74 a8 69 be c8 85 67 bd
       -0.028350672 -0.19701965 -0.22818166 -0.056524068
000210 c8 87 18 3d 4b a1 3f 3e cb 00 b3 3e aa 9a bc 3e
       0.037238866 0.18713872 0.34961542 0.3683675
000220 8f e7 90 3e ee 72 49 3e 75 53 12 3e 65 9e ac 3e
       0.28301665 0.19672748 0.14289649 0.33714595
000230 70 99 1b 3e a5 79 84 3e 87 61 ac 3e 1b 9c aa 3d
       0.1519525 0.25874057 0.33668157 0.08330556
000240 a6 3b 6a be 71 bc 94 3e ba c9 ff 3d a3 e0 46 3e
       -0.22874317 0.2905002 0.12489648 0.1942163
000250 4b 13 07 be 27 ae d5 be fd 88 ba be be fd 3c bf
       -0.13190953 -0.4173443 -0.3643264 -0.7382468
000260 ec 50 d7 3e 76 ba 02 bf 73 29 02 bf ac c0 15 be
       0.42053926 -0.51065767 -0.50844496 -0.1462428
000270 2b 8d 76 be 06 b2 94 be 70 03 87 be de 31 9a 3c
       -0.24077289 -0.2904207 -0.2636981 0.018822607
000280 b3 72 e5 3c c2 5b 85 3d 90 42 cd 3d 9f 33 e8 3d
       0.028008794 0.06511642 0.100224614 0.11337971
000290 fa b7 7f 3e 49 ba 0a bd 52 28 4d 3e 8b 6e 66 bd
       0.24972525 -0.03386906 0.20034912 -0.056257766
0002a0 ae cf 48 3d aa 6c a5 3d df 10 f2 3c 1c 2b 37 be
       0.049026184 0.08077367 0.02954906 -0.17887539
0002b0 59 37 17 3d 35 47 15 3c 67 00 92 bd c1 17 58 bc
       0.036918018 0.009111215 -0.07128983 -0.013189257
0002c0 4a 2e e6 3d 01 34 2c be bf e9 55 3d 3a 8e 83 bd
       0.11239298 -0.16816713 0.05222487 -0.06423612
0002d0 d9 fb 5a bc 4d 61 b1 bd 34 55 ee bd 6b a1 3b bd
       -0.013365709 -0.08661137 -0.11637345 -0.045808237
0002e0 c4 8a b6 bc fd c7 33 bd 27 12 49 3d 4f cf 7b bd
       -0.022282965 -0.043891896 0.049089577 -0.061477
0002f0 ba a0 74 bd c8 bd f8 bd d3 ac 60 bd 19 94 a4 3c
       -0.059723593 -0.12145573 -0.054852318 0.02009015
000300 3b 3c fb bd 72 3e d6 3c 3f 2c b5 bd 77 d9 3c bd
       -0.122673474 0.026152823 -0.0884633 -0.046105828
000310 6d 2f c4 bd 95 19 7d bd 59 5e 02 be 17 f2 c8 bd
       -0.09579358 -0.061791975 -0.12731303 -0.098118
000320 ea 7f 17 3d 58 11 93 39 9c 6d 31 3d 73 c2 e4 bd
       0.036987223 0.00028050947 0.043317422 -0.11169901
000330 7f d0 dd bd 37 8b 12 3d 38 2f 47 bd af 63 16 3d
       -0.10830783 0.035777297 -0.048629016 0.03671616
000340 40 f5 2e bd 09 46 33 3d d2 09 bc 3d 7c 64 aa bd
       -0.042714357 0.043767963 0.091815606 -0.08319947
000350 a4 d3 a5 3d 20 cd 40 bd ff bd b9 bd 23 36 f1 3a
       0.08097008 -0.047070622 -0.09069442 0.0018402975
000360 82 7f 12 3c 2e 1f cd 3d 09 1e cd 3d 87 23 93 bd
       0.008941533 0.10015713 0.100154944 -0.07184511
000370 b2 ea ee bd 9c ee fd bd 5f a3 c4 bc c0 76 a0 bd
       -0.11665858 -0.12399027 -0.024003683 -0.0783515
000380 72 ef 23 3d 47 fc ae bd c1 37 05 3d 8f c4 9d 3d
       0.040023275 -0.08544212 0.032523874 0.07703506
000390 05 4f 52 3d 9c 54 9a bd e5 66 ba 3d 57 56 d4 3c
       0.05134489 -0.07535669 0.09101657 0.025920076
0003a0 b4 dd f4 bb 5c bb 97 3c 84 76 e0 bd d0 b3 27 3c
       -0.007472718 0.018521957 -0.10960105 0.010235742
0003b0 44 74 dc 3d 95 a8 f4 bd 10 c5 b7 bc c8 ae 85 3d
       0.107643634 -0.11946217 -0.022432834 0.065274775
0003c0 3a 0c e5 bd 04 c3 e8 3d 2a af 2a 3d 0f 31 27 bd
       -0.11183973 0.11365321 0.041670956 -0.04081827
0003d0 8a 74 11 be 27 17 48 be 30 7b bf be 46 6a e0 be
       -0.14204612 -0.19540082 -0.37398672 -0.4383108
0003e0 1c 26 2b be eb 93 61 bd b0 48 43 be 4d 7d cf bd
       -0.16713756 -0.055072706 -0.19070697 -0.10131321
0003f0 c1 44 39 be da f7 2d 3e 71 96 02 3c 9d 23 b7 3d
       -0.18092634 0.16989079 0.007970438 0.089423396

ref_cov_fc1_fwd.bias f4 [32]
000000 78 ab 62 3e 83 32 b9 bb ce d7 12 3e 73 22 a8 bd
       0.22135723 -0.0056517734 0.14340135 -0.08209696
000010 43 db 44 3e 91 1e 95 3d df 20 91 3d 6e bd 94 3d
       0.19224267 0.07281221 0.07086348 0.07262693
000020 c6 ec a1 3d b6 4a f7 bc 7d 11 b7 be 75 6f b8 3a
       0.07906489 -0.030186992 -0.3575553 0.0014071303
000030 f0 bc bb bd f3 c4 64 bd fd 6e 49 3d ca 41 2c 3a
       -0.09166896 -0.055851888 0.049178112 0.00065710826
000040 42 9c 9f 3d 52 35 de ba cc e7 5e 3c 8d 2c 28 3e
       0.07793476 -0.0016953147 0.013605069 0.16423245
000050 ce 56 24 3e 27 08 eb 3d 56 e3 35 3d 8f 9a 33 3e
       0.16048738 0.11476164 0.044406258 0.17539428
000060 13 63 cf 3b 0a e7 f7 3b 98 14 2e 3e 94 cd 52 bd
       0.0063289492 0.007565384 0.17000043 -0.051465586
000070 07 4c 89 bc 5b 6b 96 3d 8f 20 03 be be da d3 3c
       -0.016759885 0.07344695 -0.12805389 0.02586114

ref_cov_fc1_rev.weight f4 [32, 61]
000000 db a2 33 3e bd ce e4 3d a0 2a d5 bc 13 ae 14 3e
       0.17542593 0.11172245 -0.026021302 0.14519529
000010 a9 25 5d 3e 09 0f ec 3d 57 2c 92 3e 45 48 66 3e
       0.21596397 0.11526305 0.28549454 0.22488506
000020 6a 84 95 3e d5 09 43 bc b4 c7 72 3e 64 81 0a 3d
       0.29202586 -0.0119042 0.23708993 0.033814803
000030 1b 73 23 be 3d 7f 6b be 9a d8 b9 3d 7f 9c 1b 3e
       -0.15961878 -0.22997756 0.090745166 0.15196417
000040 19 1b 53 3d dc 03 d0 3d 45 2e 11 3e 7d ca 66 3e
       0.051539514 0.10156986 0.14177807 0.2253818
000050 94 13 56 3b 1b 5e 38 3e 1a 43 50 3d 94 73 98 be
       0.0032665478 0.18004648 0.050845243 -0.2977568
000060 83 9b bd be d4 da d9 be ec 3c c1 be bb 10 29 be
       -0.3703271 -0.42549765 -0.37741792 -0.16510288
000070 2e e2 ec be 4f d7 e7 be 82 5d ac 3d c7 af f5 bd
       -0.4626631 -0.45281455 0.08416273 -0.119964175
000080 03 91 62 be 2b 5f be bd 9a 7c 33 be 4d c0 e8 bd
       -0.2212563 -0.092954956 -0.17528 -0.113648035
000090 56 94 c5 3d b2 cb b8 3c bb 84 22 3e e9 dd 5c 3d
       0.096474335 0.022558067 0.15870945 0.053922568
0000a0 92 21 9c 3d 9c f4 24 3e 98 47 14 3e d0 da 94 3d
       0.076235905 0.16108936 0.14480436 0.07268298
0000b0 ee 82 62 bd 2e 1e 27 3d 90 87 29 3e a8 7a f5 3d
       -0.055300646 0.040800266 0.16555619 0.119862854
0000c0 85 7b f6 bd b4 74 e1 3d 46 cb 8a 3d f9 1d 0d bd
       -0.12035278 0.110085875 0.067770526 -0.034452412
0000d0 cc 05 34 bd 7b a0 ad bc fd 35 fc bd 4e ea 04 3c
       -0.04395084 -0.021194687 -0.12314985 0.008112503
0000e0 12 d9 26 3c 72 de 6f 3c 6c ce 66 bd 44 a3 07 bd
       0.0101835895 0.014640437 -0.056349203 -0.033114687
0000f0 b8 35 5e be 46 01 68 be bc 1c 10 be dd 1e 30 bd
       -0.2170018 -0.22656736 -0.14073461 -0.042998184
000100 c2 bd 43 be 96 25 2a be 83 dc 05 3d 3d e2 9b bd
       -0.19115356 -0.166159 0.032681 -0.07611511
000110 94 04 03 3b 0d 02 07 be 6c c2 fe bd b0 6a a8 bc
       0.0019991742 -0.13184376 -0.12439427 -0.020558685
000120 63 0c dd bd 41 74 5c bd 92 01 a0 ba a2 63 22 be
       -0.10793378 -0.053821806 -0.0012207499 -0.1585832
000130 b4 2b 96 3d d3 bc 14 3e 25 11 b9 bd 0a 0d 29 be
       0.073325545 0.14525156 -0.09036473 -0.1650888
000140 af 2d a5 bd 7d 58 94 3d 94 48 0b 3b 4b 67 d1 bc
       -0.08065354 0.0724344 0.0021252977 -0.02556195
000150 11 50 21 3e 67 4f 8a 3d 04 91 28 3e f7 f9 03 3c
       0.15753199 0.06753426 0.16461569 0.008055202
000160 65 cf 3e 3e bb 19 17 bd 0e dd 5a 3e 90 7b 51 bc
       0.18633802 -0.036889773 0.21373388 -0.012785807
000170 f3 0d 49 3e bd e1 41 bc 94 73 f2 3d 5f bf c1 3d
       0.19634227 -0.011833605 0.11838451 0.09460329
000180 f0 93 e4 bc 5d f8 a3 bd b9 4a c2 3d f8 55 db 3d
       -0.027902573 -0.08006356 0.094869085 0.107097566
000190 ef 65 2d 3e 03 21 04 3e aa 05 fd 3b 05 4b 87 3c
       0.16933416 0.12903218 0.0077216225 0.016515264
0001a0 ea c6 93 3d 26 04 d8 3b 99 95 a7 3c 33 eb ab 3d
       0.07215674 0.0065922914 0.020457076 0.0839447
0001b0 b5 ce fc 3d 15 6b 7d bc fa 7e 16 3d a3 7c 2d 3e
       0.12344114 -0.015467425 0.036742188 0.16942076
0001c0 1b d3 08 3e 98 45 03 3e 17 39 2a 3e f2 84 b6 3d
       0.1336178 0.12819517 0.1662334 0.08912076
0001d0 d6 8d 7d 3b 02 97 ba bd b6 da 39 3c b7 ec ef 3d
       0.0038689277 -0.09110834 0.011343649 0.11715072
0001e0 cf 0e cf 3d 12 c6 22 3e 39 1d d6 3d b5 18 51 bd
       0.101102464 0.1589587 0.104547925 -0.051048953
0001f0 4a d1 bf bd 15 5c 1d bd 65 c7 04 3c 5a 86 f4 3d
       -0.093660906 -0.038417894 0.00810418 0.11939688
000200 6f f8 94 bc b4 03 12 3e 02 8a 76 3e ec 82 4f 3e
       -0.018184869 0.14259225 0.24076083 0.20264786
000210 3b 48 d6 3d 7f 10 b4 3d 93 fc 46 3d 36 d6 70 3e
       0.104629956 0.08792209 0.048580717 0.23519215
000220 2a e5 17 3e f1 68 38 3e 09 29 30 3e a6 11 54 3e
       0.14833513 0.18008782 0.17203154 0.20709857
000230 e9 43 b7 3d b8 be 37 3e 64 8f 47 3e 4f bc 0f 3e
       0.089485 0.17943847 0.19488293 0.14036678
000240 a5 e2 14 3d b4 aa 19 3e 3d 2b ac 3d de 1c 0a 3d
       0.036348958 0.15006524 0.084066845 0.033718936
000250 cb 6f 2e 3e 35 e5 21 3e 3f 69 cd 3d 27 52 b1 3d
       0.17034833 0.15810092 0.1002984 0.086582474
000260 f8 d2 8b bd b2 bd 04 3e d7 8b a6 3e 8d aa 40 3e
       -0.068273485 0.12962988 0.32528564 0.1881506
000270 d5 3e 5d bc e9 74 22 be 41 6d 99 be 9e 3e 28 bd
       -0.01350375 -0.1586491 -0.29966167 -0.04107534
000280 4f e8 80 be d3 14 6e be 54 4a a8 3c 5f 65 09 be
       -0.25177237 -0.23250131 0.020543255 -0.13417576
000290 76 fe 8e bd 4b 18 c6 be d7 42 f2 bd 73 17 5d be
       -0.06982128 -0.3869041 -0.11829155 -0.21590976
0002a0 8b 47 bb 3c c7 ff 09 be e4 9c 95 be 88 de 15 be
       0.022861263 -0.13476478 -0.2922126 -0.1463567
0002b0 6e 82 98 bd 51 21 5f 3e cf c8 52 3d 5d c5 71 be
       -0.074467525 0.21790053 0.051461037 -0.23610444
0002c0 be 20 86 bc 09 a8 78 be 8e 8d 3f be 85 8a ad be
       -0.016373035 -0.2428285 -0.18706343 -0.33894745
0002d0 90 5f 04 bf 23 7e 0d bf 03 f4 43 bf 15 dc 9b bd
       -0.51708317 -0.55270594 -0.7654421 -0.07610337
0002e0 07 46 e9 bd 40 ba 50 3d a4 f5 54 bd 42 fc 86 bd
       -0.1139031 0.05095887 -0.051992074 -0.06591083
0002f0 6a 49 5d bd c7 21 f6 3d 95 6e 71 bd 1d 6a c8 3d
       -0.05402509 0.12018161 -0.05894335 0.097858645
000300 e6 74 30 be ad ba c0 3c 30 e6 3e bd f2 17 2f be
       -0.17232093 0.023526514 -0.046606243 -0.17098978
000310 c4 e7 b8 3d d4 0f 01 3d b7 2a a2 3d 92 86 a4 3d
       0.09028581 0.031509236 0.079183035 0.0803348
000320 4d 62 00 3c 7e ef 13 3e 36 28 ba 3d e3 66 dd bd
       0.007835937 0.14446828 0.09089701 -0.1081064
000330 a8 b6 59 bb eb 46 00 bd 85 27 d9 bb bd 54 ef 3d
       -0.0033220444 -0.031317633 -0.0066270255 0.116860844
000340 96 ee 98 3d 45 81 b9 bd 25 19 90 bd 84 ad b4 bd
       0.07467382 -0.09057859 -0.07036046 -0.08822158
000350 03 5f a0 bb 4e ed 7b 3e 4d 88 56 3d 30 de b4 3d
       -0.004894139 0.24602243 0.05237608 0.088314414
000360 87 96 6b bd 46 7f ed 3d c1 31 0e 3e a5 1a 61 3e
       -0.0575166 0.11596541 0.13886167 0.2198282
000370 66 e5 57 3e a1 34 fd 3c 06 08 82 3d 37 0f 03 3d
       0.21083602 0.030908884 0.063491866 0.031996932
000380 04 0d 24 3d b2 66 08 3e 2b d7 30 bd b9 03 20 bb
       0.040051475 0.13320425 -0.04317395 -0.0024416281
000390 b1 2c a3 3d 8a 8b ef bd fa 39 f9 bc 78 25 06 3e
       0.079675086 -0.11696537 -0.030423153 0.1310023
0003a0 aa 5e dc 3d 66 4f 0a 3e 95 db ac 3d 64 8d 40 bd
       0.10760243 0.1350685 0.084403194 -0.04700984
0003b0 0a 95 3c 3d 7a e8 4c bd 6f bd 84 bd 5c b6 cf bc
       0.046040572 -0.050026394 -0.06481444 -0.02535551
0003c0 29 d4 47 bd f4 51 7c 3b ac 8f cd 3d 04 28 be bd
       -0.048786316 0.0038500996 0.10037169 -0.09284976
0003d0 25 fe 33 3e 46 67 b2 3d 3c d4 15 3e 43 25 3b bb
       0.17577417 0.08711104 0.14631742 -0.0028556145
0003e0 e4 fe 84 bb 0d c8 43 bd a0 4b 4a 3d 8b 9c 1f 3e
       -0.0040587056 -0.047798205 0.049388528 0.1558706
0003f0 35 b5 1e 3d 1c 33 cd 3d 68 52 6e be c2 f3 ba be
       0.03874703 0.10019514 -0.23273623 -0.36514097

ref_cov_fc1_rev.bias f4 [32]
000000 38 80 35 3c 3d b2 44 3c 06 80 82 3c 46 45 56 bd
       0.011077933 0.012005386 0.015930187 -0.052312158
000010 d6 f8 0e 3e 9b 5b a1 3d a8 61 22 bd a5 92 a9 3d
       0.13962111 0.078788005 -0.039643914 0.08279923
000020 06 f5 22 3b d2 8a 79 be e0 43 88 3c 96 53 2c 3c
       0.0024865284 -0.24369362 0.016633928 0.010517975
000030 db fc 09 3e 88 75 19 3c a1 ac 7d bd 29 dd 4f 3c
       0.13475363 0.009366401 -0.06193221 0.012687006
000040 6b 2c 91 be 81 43 ad 3c e2 8d 35 3c e3 5f 06 3e
       -0.283542 0.021150352 0.011081191 0.13122515
000050 72 12 74 3e 5d 49 42 3e f4 00 f0 bd 4d 14 d5 3d
       0.23835161 0.18973298 -0.11718932 0.10404263
000060 a3 86 3c 3d e1 82 9d bd f9 9d 6d 3d 66 05 9f 3c
       0.046026837 -0.07690979 0.058011983 0.019411754
000070 38 71 e0 3b 40 a9 17 3c 91 d9 f2 3b ed ff 85 be
       0.006849434 0.009256661 0.00741119 -0.26171818

ref_cov_fc2.weight f4 [16, 64]
000000 a8 b8 88 bd 81 fb 00 bd ae 09 c4 be 7b a7 d2 bd
       -0.066758454 -0.031489853 -0.38288635 -0.102858506
000010 45 75 9a be e7 84 3f 3d 4a 4c 23 3e 87 69 17 3e
       -0.30167595 0.046757605 0.1594707 0.14786349
000020 07 33 e4 3d 64 14 0c be 8d 01 9f bd ca b0 17 3e
       0.11142545 -0.13679653 -0.07763968 0.14813533
000030 d2 84 53 bc 89 29 97 bd 97 4a 52 bc 17 d5 3e bd
       -0.012910085 -0.07380969 -0.012835166 -0.046589937
000040 f2 f4 6e bd 15 8b ab bd e2 90 9e be 2c a5 c1 bd
       -0.058339067 -0.08376137 -0.30969912 -0.09455332
000050 3d 71 67 3e bd 89 9e 3d db 28 46 bb f4 f8 10 bd
       0.2260179 0.07741115 -0.0030236754 -0.03539367
000060 11 3c e0 3d 7c eb e6 3b cb e1 e2 bd 88 3d 3a bd
       0.10948957 0.007047115 -0.11078223 -0.045468837
000070 bc 12 66 bd 56 0a e4 3c 6c 1b 98 bd c0 ff 22 bd
       -0.05617021 0.02783696 -0.07427105 -0.039794683
000080 01 39 a8 be 5e 7c 83 3d 41 e0 82 bd e1 99 95 3d
       -0.3285599 0.064202055 -0.06390429 0.07304741
000090 85 66 c6 3e 48 8f e6 3d e0 f9 7c 3c 54 9d ca 3d
       0.3875009 0.112577975 0.015440434 0.09893289
0000a0 61 3b 04 bf c0 44 99 3e 58 59 2f 3e 44 82 23 3d
       -0.51653105 0.29935265 0.17123926 0.039919153
0000b0 d5 15 94 be 29 f6 91 3d e6 1c 67 3b b6 94 fe 3b
       -0.28922907 0.071270294 0.0035265028 0.0077691926
0000c0 1b bf 8c 3c ec 2f d0 bd ce 56 1a 3e 4d d2 b8 3d
       0.01718097 -0.1016539 0.15072176 0.09024487
0000d0 4f 90 b7 bc bf 61 4b be f7 45 d2 ba d8 47 39 3e
       -0.022407679 -0.19861506 -0.001604258 0.18093812
0000e0 c4 95 72 bd 14 85 1e be 27 57 10 bf f0 e4 75 3d
       -0.05922486 -0.15480453 -0.56382984 0.060032785
0000f0 34 8e 2a 3e c5 0f 53 3d 5c 2e 97 3d 24 7f e0 bd
       0.16655809 0.05152871 0.07381889 -0.1096175
000100 f9 bb 8a 3d 2d 0c 8e bc 74 5b 6a 3b bb 3a df 3d
       0.06774134 -0.01733979 0.0035760077 0.10899874
000110 3d da 62 3e f3 4d 7e bc f9 30 00 3d 3c d7 62 3d
       0.22153564 -0.015521514 0.031296704 0.055381045
000120 cd 37 65 3e 78 4f 90 bd c4 13 42 be f7 11 f8 3d
       0.22384568 -0.070464075 -0.18952852 0.121128015
000130 9d e7 01 bd 8e 6d b5 3d 34 6a 46 bd 4d 64 c8 3d
       -0.031715024 0.088587865 -0.048441127 0.09784756
000140 60 d3 a5 bb d6 8c a8 bd e1 f0 84 3e 52 b9 5a 3d
       -0.0050605983 -0.08229987 0.25965026 0.05339939
000150 ae 39 37 3d b1 14 f3 bc ea e2 71 bc be 0c 41 3e
       0.044732742 -0.029672952 -0.014763573 0.18852517
000160 3d e2 ff bd 70 fc 7e be 7e b9 9b 3c 08 8d 9f bc
       -0.124943234 -0.24900985 0.019009348 -0.019476429
000170 e8 1d 15 3e f4 be ad 3d 76 df 5f bd 1e c0 e4 be
       0.1456219 0.08483687 -0.05465647 -0.44677824
000180 ef 3a 92 3e 70 62 25 be c5 b2 87 3d 66 b3 a7 bc
       0.28560588 -0.16150832 0.066258945 -0.020471286
000190 d3 d7 eb 3d 81 d0 08 b9 ce 1b 86 bd 57 92 3b bb
       0.115157746 -0.00013047644 -0.06548272 -0.002862116
0001a0 d1 16 71 3f dd ee 53 bf 75 96 7d bd 9e 88 2f be
       0.9417544 -0.8278635 -0.061911065 -0.17141959
0001b0 69 43 2b 3e 42 04 3f bd 97 ed 8f 3e 36 85 2d be
       0.16724934 -0.04663492 0.28110954 -0.16945347
0001c0 0c 5a 03 bd e6 07 83 be a9 05 c4 3d 5c bc e7 3d
       -0.032068297 -0.25591964 0.09571392 0.113152236
0001d0 08 de 02 3e 9d a2 13 3e 75 78 65 3e 67 90 5e bd
       0.1278001 0.14417501 0.22409232 -0.05433693
0001e0 d0 2d cb bd a7 28 cc 3e cd f0 b1 3e d6 47 aa bd
       -0.099208474 0.39874765 0.3475403 -0.08314483
0001f0 f9 c5 10 be 46 e2 8f 3d 25 30 06 be bb e9 de bb
       -0.1413802 0.0702558 -0.13104303 -0.006802765
000200 71 b7 e8 3d 21 a5 a7 bd 0f b3 a0 be b3 4a dc 3d
       0.11363114 -0.08185793 -0.3138661 0.10756435
000210 7f 1c 87 be 9b 5c a5 bd b3 23 f1 3d 8d a7 e9 3a
       -0.26388928 -0.08074304 0.11774387 0.0017826423
000220 4c 78 03 bf 57 b6 24 3d c2 82 53 be 30 48 ab 3d
       -0.51355433 0.040212955 -0.20655349 0.08363378
000230 31 54 b8 bc fb a9 6f 3c 6b 57 81 3d 9b 3e 6f bd
       -0.022501083 0.014627929 0.06315502 -0.058409315
000240 54 71 00 3e 0b 91 b3 bd dc d4 7d bf b0 c1 13 3e
       0.12543231 -0.08767899 -0.9915292 0.14429355
000250 b8 de fc 3d 67 6a 21 3e 87 a1 d3 3c 7f 97 80 be
       0.12347168 0.15763246 0.025833858 -0.25115582
000260 0c e3 72 bd 3e c0 94 3d 59 46 29 3e a4 de 4a bd
       -0.05929856 0.0726323 0.16530742 -0.049528733
000270 ca 9d 26 3d 6b 86 3b bd 9f cc 7b bd ca e4 ce 3d
       0.040677823 -0.045782488 -0.06147444 0.10102232
000280 fc f1 cd bf 17 6f 68 3d 6b a7 0a be 47 1c 07 be
       -1.6089473 0.05674657 -0.13540427 -0.1319438
000290 02 48 61 be b0 7e bc 3d a8 cf 6f 3d e3 38 00 3e
       -0.22000125 0.09203851 0.058547646 0.125217
0002a0 e1 68 95 be 0e 90 a3 3e a6 da dd 3d b1 87 9f bc
       -0.2918158 0.31945843 0.108327195 -0.019473882
0002b0 96 c9 3c be da f1 66 3d b0 10 ce bd 2a a7 ff 3d
       -0.18436274 0.05638299 -0.10061777 0.12483056
0002c0 3c 3e 8e be 35 a9 a7 bd 25 1f 28 3d 68 b6 88 3d
       -0.27781856 -0.081865706 0.041045327 0.06675416
0002d0 db 33 2c 3e 26 9a c6 be b9 ec 14 be 2d af e7 3d
       0.16816656 -0.3878948 -0.14543428 0.11312709
0002e0 53 e0 ff 3d 68 61 de bd a8 a1 d0 be ce c0 b9 3d
       0.12493958 -0.108584225 -0.40748334 0.09069978
0002f0 6c 81 09 3e 64 a9 03 3e e3 7d 53 bd d8 a2 f2 bd
       0.13428277 0.12857586 -0.051633727 -0.11847466
000300 8a d5 95 be 78 87 00 be f8 fa 0d bf 7e dc 0a 3d
       -0.2926448 -0.12551677 -0.5546107 0.033901684
000310 5c 9b 26 be c8 0e cf bd 2d 60 95 3d f7 6b f6 3d
       -0.16270202 -0.10110241 0.07293735 0.120323114
000320 f4 b5 47 bf 39 97 ce bd 4d 8b 9f be 08 0c 14 bd
       -0.78012013 -0.10087437 -0.31160966 -0.036144286
000330 8b 79 85 3b 6f 93 82 3d d3 13 34 b9 1b 0c c3 3d
       0.004073327 0.06375777 -0.00017173523 0.09523793
000340 46 bd f4 3d a2 00 18 3e f8 7d 6a bf 77 ee 50 3d
       0.119501635 0.14843991 -0.91598463 0.051008668
000350 fe c8 42 bd 30 bf 9b bc 1e cd cb 3c 49 97 69 be
       -0.047554962 -0.019012064 0.024878081 -0.22811617
000360 86 4e 04 3e fa 40 f9 bd 56 e2 fb 3e 30 5e d3 3d
       0.1292058 -0.121705964 0.49196118 0.10320699
000370 ed 40 8c 3b e5 69 25 bd eb 47 25 3e 74 ee ce 3d
       0.0042802007 -0.040384192 0.16140716 0.10104075
000380 97 51 f8 3c d5 84 de bd 66 42 35 3d d4 0f da be
       0.030312343 -0.108651794 0.044252776 -0.425902
000390 b5 a2 78 3d 67 82 a0 3d 94 63 19 bd 10 7a 30 bd
       0.060702045 0.07837372 -0.03744848 -0.043085158
0003a0 29 93 7d 3e 81 46 77 3e a5 96 f0 bc 61 c2 96 bd
       0.24763168 0.24147989 -0.029368708 -0.073612936
0003b0 d8 1a 35 3e 1f 04 e2 bd 94 e7 b4 bd 4e d2 26 be
       0.17686021 -0.11035942 -0.088332325 -0.16291162
0003c0 59 94 e8 3d c4 1b ee bd b2 9d 28 3d 70 88 01 3e
       0.1135642 -0.116263896 0.041166015 0.12649703
0003d0 86 c5 35 3d 16 62 61 3e 84 e7 2a 3e af dd b3 3d
       0.044377826 0.22010073 0.16689879 0.08782517
0003e0 10 92 c7 bd 5e 18 a5 be e4 f7 1a 3b 28 99 54 bd
       -0.09744656 -0.32245153 0.002364629 -0.051903874
0003f0 01 4a 83 bd 3f 48 36 bd 1b 37 35 bd 3f 0a 7c bd
       -0.064105995 -0.044502493 -0.044242006 -0.06153321

ref_cov_fc2.bias f4 [16]
000000 4d b3 c4 3d b1 75 10 3e 91 bb 07 3e 60 04 d3 3d
       0.096045114 0.14107396 0.13255145 0.10303569
000010 db b1 6e 3d bd 73 61 bd 22 0b 44 3e 07 b5 a0 3d
       0.058275085 -0.055042017 0.19144872 0.07847028
000020 8b e1 56 3e 95 92 98 bc 1a 3f a1 3d be 12 7e 3d
       0.20984475 -0.018624583 0.07873364 0.062029593
000030 d3 23 dc bd 28 85 e3 3d 98 d1 22 3e 35 9c 7b bd
       -0.107490204 0.11109382 0.15900266 -0.061428268
